{"format": "graph-model", "generatedBy": "2.9.0", "convertedBy": "TensorFlow.js Converter v3.19.0", "signature": {"inputs": {"input_2": {"name": "input_2:0", "dtype": "DT_FLOAT", "tensorShape": {"dim": [{"size": "-1"}, {"size": "64"}, {"size": "64"}, {"size": "8"}]}}}, "outputs": {"generated_image": {"name": "Identity:0", "dtype": "DT_FLOAT", "tensorShape": {"dim": [{"size": "-1"}, {"size": "64"}, {"size": "64"}, {"size": "4"}]}}}}, "modelTopology": {"node": [{"name": "StatefulPartitionedCall/StarGANGenerator/instance_normalization_16/Reshape_1", "op": "Const", "attr": {"dtype": {"type": "DT_FLOAT"}, "value": {"tensor": {"dtype": "DT_FLOAT", "tensorShape": {"dim": [{"size": "1"}, {"size": "1"}, {"size": "1"}, {"size": "64"}]}}}}}, {"name": "StatefulPartitionedCall/StarGANGenerator/conv2d_transpose_1/strided_slice/stack", "op": "Const", "attr": {"dtype": {"type": "DT_INT32"}, "value": {"tensor": {"dtype": "DT_INT32", "tensorShape": {"dim": [{"size": "1"}]}}}}}, {"name": "StatefulPartitionedCall/StarGANGenerator/conv2d_transpose_1/strided_slice/stack_1", "op": "Const", "attr": {"dtype": {"type": "DT_INT32"}, "value": {"tensor": {"dtype": "DT_INT32", "tensorShape": {"dim": [{"size": "1"}]}}}}}, {"name": "StatefulPartitionedCall/StarGANGenerator/conv2d_transpose_1/strided_slice/stack_2", "op": "Const", "attr": {"dtype": {"type": "DT_INT32"}, "value": {"tensor": {"dtype": "DT_INT32", "tensorShape": {"dim": [{"size": "1"}]}}}}}, {"name": "StatefulPartitionedCall/StarGANGenerator/conv2d_transpose_1/stack/1", "op": "Const", "attr": {"dtype": {"type": "DT_INT32"}, "value": {"tensor": {"dtype": "DT_INT32", "tensorShape": {}}}}}, {"name": "StatefulPartitionedCall/StarGANGenerator/conv2d_transpose_1/stack/2", "op": "Const", "attr": {"value": {"tensor": {"dtype": "DT_INT32", "tensorShape": {}}}, "dtype": {"type": "DT_INT32"}}}, {"name": "StatefulPartitionedCall/StarGANGenerator/conv2d_transpose_1/stack/3", "op": "Const", "attr": {"dtype": {"type": "DT_INT32"}, "value": {"tensor": {"dtype": "DT_INT32", "tensorShape": {}}}}}, {"name": "StatefulPartitionedCall/StarGANGenerator/conv2d_transpose_1/conv2d_transpose/ReadVariableOp", "op": "Const", "attr": {"dtype": {"type": "DT_FLOAT"}, "value": {"tensor": {"dtype": "DT_FLOAT", "tensorShape": {"dim": [{"size": "4"}, {"size": "4"}, {"size": "64"}, {"size": "128"}]}}}}}, {"name": "StatefulPartitionedCall/StarGANGenerator/instance_normalization_15/Reshape_1", "op": "Const", "attr": {"dtype": {"type": "DT_FLOAT"}, "value": {"tensor": {"dtype": "DT_FLOAT", "tensorShape": {"dim": [{"size": "1"}, {"size": "1"}, {"size": "1"}, {"size": "128"}]}}}}}, {"name": "StatefulPartitionedCall/StarGANGenerator/conv2d_transpose/strided_slice/stack", "op": "Const", "attr": {"value": {"tensor": {"dtype": "DT_INT32", "tensorShape": {"dim": [{"size": "1"}]}}}, "dtype": {"type": "DT_INT32"}}}, {"name": "StatefulPartitionedCall/StarGANGenerator/conv2d_transpose/strided_slice/stack_1", "op": "Const", "attr": {"dtype": {"type": "DT_INT32"}, "value": {"tensor": {"dtype": "DT_INT32", "tensorShape": {"dim": [{"size": "1"}]}}}}}, {"name": "StatefulPartitionedCall/StarGANGenerator/conv2d_transpose/strided_slice/stack_2", "op": "Const", "attr": {"value": {"tensor": {"dtype": "DT_INT32", "tensorShape": {"dim": [{"size": "1"}]}}}, "dtype": {"type": "DT_INT32"}}}, {"name": "StatefulPartitionedCall/StarGANGenerator/conv2d_transpose/stack/1", "op": "Const", "attr": {"dtype": {"type": "DT_INT32"}, "value": {"tensor": {"dtype": "DT_INT32", "tensorShape": {}}}}}, {"name": "StatefulPartitionedCall/StarGANGenerator/conv2d_transpose/stack/2", "op": "Const", "attr": {"dtype": {"type": "DT_INT32"}, "value": {"tensor": {"dtype": "DT_INT32", "tensorShape": {}}}}}, {"name": "StatefulPartitionedCall/StarGANGenerator/conv2d_transpose/stack/3", "op": "Const", "attr": {"dtype": {"type": "DT_INT32"}, "value": {"tensor": {"dtype": "DT_INT32", "tensorShape": {}}}}}, {"name": "StatefulPartitionedCall/StarGANGenerator/conv2d_transpose/conv2d_transpose/ReadVariableOp", "op": "Const", "attr": {"value": {"tensor": {"dtype": "DT_FLOAT", "tensorShape": {"dim": [{"size": "4"}, {"size": "4"}, {"size": "128"}, {"size": "256"}]}}}, "dtype": {"type": "DT_FLOAT"}}}, {"name": "StatefulPartitionedCall/StarGANGenerator/instance_normalization_14/Reshape_1", "op": "Const", "attr": {"dtype": {"type": "DT_FLOAT"}, "value": {"tensor": {"dtype": "DT_FLOAT", "tensorShape": {"dim": [{"size": "1"}, {"size": "1"}, {"size": "1"}, {"size": "256"}]}}}}}, {"name": "StatefulPartitionedCall/StarGANGenerator/instance_normalization_13/Reshape_1", "op": "Const", "attr": {"value": {"tensor": {"dtype": "DT_FLOAT", "tensorShape": {"dim": [{"size": "1"}, {"size": "1"}, {"size": "1"}, {"size": "256"}]}}}, "dtype": {"type": "DT_FLOAT"}}}, {"name": "StatefulPartitionedCall/StarGANGenerator/instance_normalization_12/Reshape_1", "op": "Const", "attr": {"dtype": {"type": "DT_FLOAT"}, "value": {"tensor": {"dtype": "DT_FLOAT", "tensorShape": {"dim": [{"size": "1"}, {"size": "1"}, {"size": "1"}, {"size": "256"}]}}}}}, {"name": "StatefulPartitionedCall/StarGANGenerator/instance_normalization_11/Reshape_1", "op": "Const", "attr": {"value": {"tensor": {"dtype": "DT_FLOAT", "tensorShape": {"dim": [{"size": "1"}, {"size": "1"}, {"size": "1"}, {"size": "256"}]}}}, "dtype": {"type": "DT_FLOAT"}}}, {"name": "StatefulPartitionedCall/StarGANGenerator/instance_normalization_10/Reshape_1", "op": "Const", "attr": {"dtype": {"type": "DT_FLOAT"}, "value": {"tensor": {"dtype": "DT_FLOAT", "tensorShape": {"dim": [{"size": "1"}, {"size": "1"}, {"size": "1"}, {"size": "256"}]}}}}}, {"name": "StatefulPartitionedCall/StarGANGenerator/instance_normalization_9/Reshape_1", "op": "Const", "attr": {"dtype": {"type": "DT_FLOAT"}, "value": {"tensor": {"dtype": "DT_FLOAT", "tensorShape": {"dim": [{"size": "1"}, {"size": "1"}, {"size": "1"}, {"size": "256"}]}}}}}, {"name": "StatefulPartitionedCall/StarGANGenerator/instance_normalization_8/Reshape_1", "op": "Const", "attr": {"value": {"tensor": {"dtype": "DT_FLOAT", "tensorShape": {"dim": [{"size": "1"}, {"size": "1"}, {"size": "1"}, {"size": "256"}]}}}, "dtype": {"type": "DT_FLOAT"}}}, {"name": "StatefulPartitionedCall/StarGANGenerator/instance_normalization_7/Reshape_1", "op": "Const", "attr": {"dtype": {"type": "DT_FLOAT"}, "value": {"tensor": {"dtype": "DT_FLOAT", "tensorShape": {"dim": [{"size": "1"}, {"size": "1"}, {"size": "1"}, {"size": "256"}]}}}}}, {"name": "StatefulPartitionedCall/StarGANGenerator/instance_normalization_6/Reshape_1", "op": "Const", "attr": {"value": {"tensor": {"dtype": "DT_FLOAT", "tensorShape": {"dim": [{"size": "1"}, {"size": "1"}, {"size": "1"}, {"size": "256"}]}}}, "dtype": {"type": "DT_FLOAT"}}}, {"name": "StatefulPartitionedCall/StarGANGenerator/instance_normalization_5/Reshape_1", "op": "Const", "attr": {"value": {"tensor": {"dtype": "DT_FLOAT", "tensorShape": {"dim": [{"size": "1"}, {"size": "1"}, {"size": "1"}, {"size": "256"}]}}}, "dtype": {"type": "DT_FLOAT"}}}, {"name": "StatefulPartitionedCall/StarGANGenerator/instance_normalization_4/Reshape_1", "op": "Const", "attr": {"dtype": {"type": "DT_FLOAT"}, "value": {"tensor": {"dtype": "DT_FLOAT", "tensorShape": {"dim": [{"size": "1"}, {"size": "1"}, {"size": "1"}, {"size": "256"}]}}}}}, {"name": "StatefulPartitionedCall/StarGANGenerator/instance_normalization_3/Reshape_1", "op": "Const", "attr": {"value": {"tensor": {"dtype": "DT_FLOAT", "tensorShape": {"dim": [{"size": "1"}, {"size": "1"}, {"size": "1"}, {"size": "256"}]}}}, "dtype": {"type": "DT_FLOAT"}}}, {"name": "StatefulPartitionedCall/StarGANGenerator/instance_normalization_2/Reshape_1", "op": "Const", "attr": {"dtype": {"type": "DT_FLOAT"}, "value": {"tensor": {"dtype": "DT_FLOAT", "tensorShape": {"dim": [{"size": "1"}, {"size": "1"}, {"size": "1"}, {"size": "256"}]}}}}}, {"name": "StatefulPartitionedCall/StarGANGenerator/instance_normalization_1/Reshape_1", "op": "Const", "attr": {"dtype": {"type": "DT_FLOAT"}, "value": {"tensor": {"dtype": "DT_FLOAT", "tensorShape": {"dim": [{"size": "1"}, {"size": "1"}, {"size": "1"}, {"size": "128"}]}}}}}, {"name": "StatefulPartitionedCall/StarGANGenerator/instance_normalization/Reshape_1", "op": "Const", "attr": {"dtype": {"type": "DT_FLOAT"}, "value": {"tensor": {"dtype": "DT_FLOAT", "tensorShape": {"dim": [{"size": "1"}, {"size": "1"}, {"size": "1"}, {"size": "64"}]}}}}}, {"name": "StatefulPartitionedCall/StarGANGenerator/conv2d_94/Conv2D/ReadVariableOp", "op": "Const", "attr": {"value": {"tensor": {"dtype": "DT_FLOAT", "tensorShape": {"dim": [{"size": "7"}, {"size": "7"}, {"size": "8"}, {"size": "64"}]}}}, "dtype": {"type": "DT_FLOAT"}}}, {"name": "StatefulPartitionedCall/StarGANGenerator/instance_normalization/moments/mean/reduction_indices", "op": "Const", "attr": {"dtype": {"type": "DT_INT32"}, "value": {"tensor": {"dtype": "DT_INT32", "tensorShape": {"dim": [{"size": "2"}]}}}}}, {"name": "StatefulPartitionedCall/StarGANGenerator/instance_normalization/moments/variance/reduction_indices", "op": "Const", "attr": {"dtype": {"type": "DT_INT32"}, "value": {"tensor": {"dtype": "DT_INT32", "tensorShape": {"dim": [{"size": "2"}]}}}}}, {"name": "StatefulPartitionedCall/StarGANGenerator/instance_normalization/batchnorm/add/y", "op": "Const", "attr": {"value": {"tensor": {"dtype": "DT_FLOAT", "tensorShape": {}}}, "dtype": {"type": "DT_FLOAT"}}}, {"name": "StatefulPartitionedCall/StarGANGenerator/instance_normalization/Reshape", "op": "Const", "attr": {"value": {"tensor": {"dtype": "DT_FLOAT", "tensorShape": {"dim": [{"size": "1"}, {"size": "1"}, {"size": "1"}, {"size": "64"}]}}}, "dtype": {"type": "DT_FLOAT"}}}, {"name": "StatefulPartitionedCall/StarGANGenerator/conv2d_95/Conv2D/ReadVariableOp", "op": "Const", "attr": {"value": {"tensor": {"dtype": "DT_FLOAT", "tensorShape": {"dim": [{"size": "4"}, {"size": "4"}, {"size": "64"}, {"size": "128"}]}}}, "dtype": {"type": "DT_FLOAT"}}}, {"name": "StatefulPartitionedCall/StarGANGenerator/instance_normalization_1/moments/mean/reduction_indices", "op": "Const", "attr": {"dtype": {"type": "DT_INT32"}, "value": {"tensor": {"dtype": "DT_INT32", "tensorShape": {"dim": [{"size": "2"}]}}}}}, {"name": "StatefulPartitionedCall/StarGANGenerator/instance_normalization_1/moments/variance/reduction_indices", "op": "Const", "attr": {"value": {"tensor": {"dtype": "DT_INT32", "tensorShape": {"dim": [{"size": "2"}]}}}, "dtype": {"type": "DT_INT32"}}}, {"name": "StatefulPartitionedCall/StarGANGenerator/instance_normalization_1/batchnorm/add/y", "op": "Const", "attr": {"value": {"tensor": {"dtype": "DT_FLOAT", "tensorShape": {}}}, "dtype": {"type": "DT_FLOAT"}}}, {"name": "StatefulPartitionedCall/StarGANGenerator/instance_normalization_1/Reshape", "op": "Const", "attr": {"dtype": {"type": "DT_FLOAT"}, "value": {"tensor": {"dtype": "DT_FLOAT", "tensorShape": {"dim": [{"size": "1"}, {"size": "1"}, {"size": "1"}, {"size": "128"}]}}}}}, {"name": "StatefulPartitionedCall/StarGANGenerator/conv2d_96/Conv2D/ReadVariableOp", "op": "Const", "attr": {"dtype": {"type": "DT_FLOAT"}, "value": {"tensor": {"dtype": "DT_FLOAT", "tensorShape": {"dim": [{"size": "4"}, {"size": "4"}, {"size": "128"}, {"size": "256"}]}}}}}, {"name": "StatefulPartitionedCall/StarGANGenerator/instance_normalization_2/moments/mean/reduction_indices", "op": "Const", "attr": {"value": {"tensor": {"dtype": "DT_INT32", "tensorShape": {"dim": [{"size": "2"}]}}}, "dtype": {"type": "DT_INT32"}}}, {"name": "StatefulPartitionedCall/StarGANGenerator/instance_normalization_2/moments/variance/reduction_indices", "op": "Const", "attr": {"value": {"tensor": {"dtype": "DT_INT32", "tensorShape": {"dim": [{"size": "2"}]}}}, "dtype": {"type": "DT_INT32"}}}, {"name": "StatefulPartitionedCall/StarGANGenerator/instance_normalization_2/batchnorm/add/y", "op": "Const", "attr": {"value": {"tensor": {"dtype": "DT_FLOAT", "tensorShape": {}}}, "dtype": {"type": "DT_FLOAT"}}}, {"name": "StatefulPartitionedCall/StarGANGenerator/instance_normalization_2/Reshape", "op": "Const", "attr": {"value": {"tensor": {"dtype": "DT_FLOAT", "tensorShape": {"dim": [{"size": "1"}, {"size": "1"}, {"size": "1"}, {"size": "256"}]}}}, "dtype": {"type": "DT_FLOAT"}}}, {"name": "StatefulPartitionedCall/StarGANGenerator/conv2d_97/Conv2D/ReadVariableOp", "op": "Const", "attr": {"value": {"tensor": {"dtype": "DT_FLOAT", "tensorShape": {"dim": [{"size": "3"}, {"size": "3"}, {"size": "256"}, {"size": "256"}]}}}, "dtype": {"type": "DT_FLOAT"}}}, {"name": "StatefulPartitionedCall/StarGANGenerator/instance_normalization_3/moments/mean/reduction_indices", "op": "Const", "attr": {"dtype": {"type": "DT_INT32"}, "value": {"tensor": {"dtype": "DT_INT32", "tensorShape": {"dim": [{"size": "2"}]}}}}}, {"name": "StatefulPartitionedCall/StarGANGenerator/instance_normalization_3/moments/variance/reduction_indices", "op": "Const", "attr": {"dtype": {"type": "DT_INT32"}, "value": {"tensor": {"dtype": "DT_INT32", "tensorShape": {"dim": [{"size": "2"}]}}}}}, {"name": "StatefulPartitionedCall/StarGANGenerator/instance_normalization_3/batchnorm/add/y", "op": "Const", "attr": {"value": {"tensor": {"dtype": "DT_FLOAT", "tensorShape": {}}}, "dtype": {"type": "DT_FLOAT"}}}, {"name": "StatefulPartitionedCall/StarGANGenerator/instance_normalization_3/Reshape", "op": "Const", "attr": {"value": {"tensor": {"dtype": "DT_FLOAT", "tensorShape": {"dim": [{"size": "1"}, {"size": "1"}, {"size": "1"}, {"size": "256"}]}}}, "dtype": {"type": "DT_FLOAT"}}}, {"name": "StatefulPartitionedCall/StarGANGenerator/conv2d_98/Conv2D/ReadVariableOp", "op": "Const", "attr": {"dtype": {"type": "DT_FLOAT"}, "value": {"tensor": {"dtype": "DT_FLOAT", "tensorShape": {"dim": [{"size": "3"}, {"size": "3"}, {"size": "256"}, {"size": "256"}]}}}}}, {"name": "StatefulPartitionedCall/StarGANGenerator/instance_normalization_4/moments/mean/reduction_indices", "op": "Const", "attr": {"dtype": {"type": "DT_INT32"}, "value": {"tensor": {"dtype": "DT_INT32", "tensorShape": {"dim": [{"size": "2"}]}}}}}, {"name": "StatefulPartitionedCall/StarGANGenerator/instance_normalization_4/moments/variance/reduction_indices", "op": "Const", "attr": {"value": {"tensor": {"dtype": "DT_INT32", "tensorShape": {"dim": [{"size": "2"}]}}}, "dtype": {"type": "DT_INT32"}}}, {"name": "StatefulPartitionedCall/StarGANGenerator/instance_normalization_4/batchnorm/add/y", "op": "Const", "attr": {"value": {"tensor": {"dtype": "DT_FLOAT", "tensorShape": {}}}, "dtype": {"type": "DT_FLOAT"}}}, {"name": "StatefulPartitionedCall/StarGANGenerator/instance_normalization_4/Reshape", "op": "Const", "attr": {"value": {"tensor": {"dtype": "DT_FLOAT", "tensorShape": {"dim": [{"size": "1"}, {"size": "1"}, {"size": "1"}, {"size": "256"}]}}}, "dtype": {"type": "DT_FLOAT"}}}, {"name": "StatefulPartitionedCall/StarGANGenerator/conv2d_99/Conv2D/ReadVariableOp", "op": "Const", "attr": {"value": {"tensor": {"dtype": "DT_FLOAT", "tensorShape": {"dim": [{"size": "3"}, {"size": "3"}, {"size": "256"}, {"size": "256"}]}}}, "dtype": {"type": "DT_FLOAT"}}}, {"name": "StatefulPartitionedCall/StarGANGenerator/instance_normalization_5/moments/mean/reduction_indices", "op": "Const", "attr": {"dtype": {"type": "DT_INT32"}, "value": {"tensor": {"dtype": "DT_INT32", "tensorShape": {"dim": [{"size": "2"}]}}}}}, {"name": "StatefulPartitionedCall/StarGANGenerator/instance_normalization_5/moments/variance/reduction_indices", "op": "Const", "attr": {"value": {"tensor": {"dtype": "DT_INT32", "tensorShape": {"dim": [{"size": "2"}]}}}, "dtype": {"type": "DT_INT32"}}}, {"name": "StatefulPartitionedCall/StarGANGenerator/instance_normalization_5/batchnorm/add/y", "op": "Const", "attr": {"value": {"tensor": {"dtype": "DT_FLOAT", "tensorShape": {}}}, "dtype": {"type": "DT_FLOAT"}}}, {"name": "StatefulPartitionedCall/StarGANGenerator/instance_normalization_5/Reshape", "op": "Const", "attr": {"value": {"tensor": {"dtype": "DT_FLOAT", "tensorShape": {"dim": [{"size": "1"}, {"size": "1"}, {"size": "1"}, {"size": "256"}]}}}, "dtype": {"type": "DT_FLOAT"}}}, {"name": "StatefulPartitionedCall/StarGANGenerator/conv2d_100/Conv2D/ReadVariableOp", "op": "Const", "attr": {"value": {"tensor": {"dtype": "DT_FLOAT", "tensorShape": {"dim": [{"size": "3"}, {"size": "3"}, {"size": "256"}, {"size": "256"}]}}}, "dtype": {"type": "DT_FLOAT"}}}, {"name": "StatefulPartitionedCall/StarGANGenerator/instance_normalization_6/moments/mean/reduction_indices", "op": "Const", "attr": {"value": {"tensor": {"dtype": "DT_INT32", "tensorShape": {"dim": [{"size": "2"}]}}}, "dtype": {"type": "DT_INT32"}}}, {"name": "StatefulPartitionedCall/StarGANGenerator/instance_normalization_6/moments/variance/reduction_indices", "op": "Const", "attr": {"dtype": {"type": "DT_INT32"}, "value": {"tensor": {"dtype": "DT_INT32", "tensorShape": {"dim": [{"size": "2"}]}}}}}, {"name": "StatefulPartitionedCall/StarGANGenerator/instance_normalization_6/batchnorm/add/y", "op": "Const", "attr": {"value": {"tensor": {"dtype": "DT_FLOAT", "tensorShape": {}}}, "dtype": {"type": "DT_FLOAT"}}}, {"name": "StatefulPartitionedCall/StarGANGenerator/instance_normalization_6/Reshape", "op": "Const", "attr": {"dtype": {"type": "DT_FLOAT"}, "value": {"tensor": {"dtype": "DT_FLOAT", "tensorShape": {"dim": [{"size": "1"}, {"size": "1"}, {"size": "1"}, {"size": "256"}]}}}}}, {"name": "StatefulPartitionedCall/StarGANGenerator/conv2d_101/Conv2D/ReadVariableOp", "op": "Const", "attr": {"dtype": {"type": "DT_FLOAT"}, "value": {"tensor": {"dtype": "DT_FLOAT", "tensorShape": {"dim": [{"size": "3"}, {"size": "3"}, {"size": "256"}, {"size": "256"}]}}}}}, {"name": "StatefulPartitionedCall/StarGANGenerator/instance_normalization_7/moments/mean/reduction_indices", "op": "Const", "attr": {"value": {"tensor": {"dtype": "DT_INT32", "tensorShape": {"dim": [{"size": "2"}]}}}, "dtype": {"type": "DT_INT32"}}}, {"name": "StatefulPartitionedCall/StarGANGenerator/instance_normalization_7/moments/variance/reduction_indices", "op": "Const", "attr": {"value": {"tensor": {"dtype": "DT_INT32", "tensorShape": {"dim": [{"size": "2"}]}}}, "dtype": {"type": "DT_INT32"}}}, {"name": "StatefulPartitionedCall/StarGANGenerator/instance_normalization_7/batchnorm/add/y", "op": "Const", "attr": {"value": {"tensor": {"dtype": "DT_FLOAT", "tensorShape": {}}}, "dtype": {"type": "DT_FLOAT"}}}, {"name": "StatefulPartitionedCall/StarGANGenerator/instance_normalization_7/Reshape", "op": "Const", "attr": {"value": {"tensor": {"dtype": "DT_FLOAT", "tensorShape": {"dim": [{"size": "1"}, {"size": "1"}, {"size": "1"}, {"size": "256"}]}}}, "dtype": {"type": "DT_FLOAT"}}}, {"name": "StatefulPartitionedCall/StarGANGenerator/conv2d_102/Conv2D/ReadVariableOp", "op": "Const", "attr": {"value": {"tensor": {"dtype": "DT_FLOAT", "tensorShape": {"dim": [{"size": "3"}, {"size": "3"}, {"size": "256"}, {"size": "256"}]}}}, "dtype": {"type": "DT_FLOAT"}}}, {"name": "StatefulPartitionedCall/StarGANGenerator/instance_normalization_8/moments/mean/reduction_indices", "op": "Const", "attr": {"value": {"tensor": {"dtype": "DT_INT32", "tensorShape": {"dim": [{"size": "2"}]}}}, "dtype": {"type": "DT_INT32"}}}, {"name": "StatefulPartitionedCall/StarGANGenerator/instance_normalization_8/moments/variance/reduction_indices", "op": "Const", "attr": {"dtype": {"type": "DT_INT32"}, "value": {"tensor": {"dtype": "DT_INT32", "tensorShape": {"dim": [{"size": "2"}]}}}}}, {"name": "StatefulPartitionedCall/StarGANGenerator/instance_normalization_8/batchnorm/add/y", "op": "Const", "attr": {"value": {"tensor": {"dtype": "DT_FLOAT", "tensorShape": {}}}, "dtype": {"type": "DT_FLOAT"}}}, {"name": "StatefulPartitionedCall/StarGANGenerator/instance_normalization_8/Reshape", "op": "Const", "attr": {"value": {"tensor": {"dtype": "DT_FLOAT", "tensorShape": {"dim": [{"size": "1"}, {"size": "1"}, {"size": "1"}, {"size": "256"}]}}}, "dtype": {"type": "DT_FLOAT"}}}, {"name": "StatefulPartitionedCall/StarGANGenerator/conv2d_103/Conv2D/ReadVariableOp", "op": "Const", "attr": {"dtype": {"type": "DT_FLOAT"}, "value": {"tensor": {"dtype": "DT_FLOAT", "tensorShape": {"dim": [{"size": "3"}, {"size": "3"}, {"size": "256"}, {"size": "256"}]}}}}}, {"name": "StatefulPartitionedCall/StarGANGenerator/instance_normalization_9/moments/mean/reduction_indices", "op": "Const", "attr": {"dtype": {"type": "DT_INT32"}, "value": {"tensor": {"dtype": "DT_INT32", "tensorShape": {"dim": [{"size": "2"}]}}}}}, {"name": "StatefulPartitionedCall/StarGANGenerator/instance_normalization_9/moments/variance/reduction_indices", "op": "Const", "attr": {"dtype": {"type": "DT_INT32"}, "value": {"tensor": {"dtype": "DT_INT32", "tensorShape": {"dim": [{"size": "2"}]}}}}}, {"name": "StatefulPartitionedCall/StarGANGenerator/instance_normalization_9/batchnorm/add/y", "op": "Const", "attr": {"dtype": {"type": "DT_FLOAT"}, "value": {"tensor": {"dtype": "DT_FLOAT", "tensorShape": {}}}}}, {"name": "StatefulPartitionedCall/StarGANGenerator/instance_normalization_9/Reshape", "op": "Const", "attr": {"dtype": {"type": "DT_FLOAT"}, "value": {"tensor": {"dtype": "DT_FLOAT", "tensorShape": {"dim": [{"size": "1"}, {"size": "1"}, {"size": "1"}, {"size": "256"}]}}}}}, {"name": "StatefulPartitionedCall/StarGANGenerator/conv2d_104/Conv2D/ReadVariableOp", "op": "Const", "attr": {"dtype": {"type": "DT_FLOAT"}, "value": {"tensor": {"dtype": "DT_FLOAT", "tensorShape": {"dim": [{"size": "3"}, {"size": "3"}, {"size": "256"}, {"size": "256"}]}}}}}, {"name": "StatefulPartitionedCall/StarGANGenerator/instance_normalization_10/moments/mean/reduction_indices", "op": "Const", "attr": {"value": {"tensor": {"dtype": "DT_INT32", "tensorShape": {"dim": [{"size": "2"}]}}}, "dtype": {"type": "DT_INT32"}}}, {"name": "StatefulPartitionedCall/StarGANGenerator/instance_normalization_10/moments/variance/reduction_indices", "op": "Const", "attr": {"value": {"tensor": {"dtype": "DT_INT32", "tensorShape": {"dim": [{"size": "2"}]}}}, "dtype": {"type": "DT_INT32"}}}, {"name": "StatefulPartitionedCall/StarGANGenerator/instance_normalization_10/batchnorm/add/y", "op": "Const", "attr": {"dtype": {"type": "DT_FLOAT"}, "value": {"tensor": {"dtype": "DT_FLOAT", "tensorShape": {}}}}}, {"name": "StatefulPartitionedCall/StarGANGenerator/instance_normalization_10/Reshape", "op": "Const", "attr": {"dtype": {"type": "DT_FLOAT"}, "value": {"tensor": {"dtype": "DT_FLOAT", "tensorShape": {"dim": [{"size": "1"}, {"size": "1"}, {"size": "1"}, {"size": "256"}]}}}}}, {"name": "StatefulPartitionedCall/StarGANGenerator/conv2d_105/Conv2D/ReadVariableOp", "op": "Const", "attr": {"dtype": {"type": "DT_FLOAT"}, "value": {"tensor": {"dtype": "DT_FLOAT", "tensorShape": {"dim": [{"size": "3"}, {"size": "3"}, {"size": "256"}, {"size": "256"}]}}}}}, {"name": "StatefulPartitionedCall/StarGANGenerator/instance_normalization_11/moments/mean/reduction_indices", "op": "Const", "attr": {"dtype": {"type": "DT_INT32"}, "value": {"tensor": {"dtype": "DT_INT32", "tensorShape": {"dim": [{"size": "2"}]}}}}}, {"name": "StatefulPartitionedCall/StarGANGenerator/instance_normalization_11/moments/variance/reduction_indices", "op": "Const", "attr": {"dtype": {"type": "DT_INT32"}, "value": {"tensor": {"dtype": "DT_INT32", "tensorShape": {"dim": [{"size": "2"}]}}}}}, {"name": "StatefulPartitionedCall/StarGANGenerator/instance_normalization_11/batchnorm/add/y", "op": "Const", "attr": {"value": {"tensor": {"dtype": "DT_FLOAT", "tensorShape": {}}}, "dtype": {"type": "DT_FLOAT"}}}, {"name": "StatefulPartitionedCall/StarGANGenerator/instance_normalization_11/Reshape", "op": "Const", "attr": {"dtype": {"type": "DT_FLOAT"}, "value": {"tensor": {"dtype": "DT_FLOAT", "tensorShape": {"dim": [{"size": "1"}, {"size": "1"}, {"size": "1"}, {"size": "256"}]}}}}}, {"name": "StatefulPartitionedCall/StarGANGenerator/conv2d_106/Conv2D/ReadVariableOp", "op": "Const", "attr": {"dtype": {"type": "DT_FLOAT"}, "value": {"tensor": {"dtype": "DT_FLOAT", "tensorShape": {"dim": [{"size": "3"}, {"size": "3"}, {"size": "256"}, {"size": "256"}]}}}}}, {"name": "StatefulPartitionedCall/StarGANGenerator/instance_normalization_12/moments/mean/reduction_indices", "op": "Const", "attr": {"dtype": {"type": "DT_INT32"}, "value": {"tensor": {"dtype": "DT_INT32", "tensorShape": {"dim": [{"size": "2"}]}}}}}, {"name": "StatefulPartitionedCall/StarGANGenerator/instance_normalization_12/moments/variance/reduction_indices", "op": "Const", "attr": {"dtype": {"type": "DT_INT32"}, "value": {"tensor": {"dtype": "DT_INT32", "tensorShape": {"dim": [{"size": "2"}]}}}}}, {"name": "StatefulPartitionedCall/StarGANGenerator/instance_normalization_12/batchnorm/add/y", "op": "Const", "attr": {"value": {"tensor": {"dtype": "DT_FLOAT", "tensorShape": {}}}, "dtype": {"type": "DT_FLOAT"}}}, {"name": "StatefulPartitionedCall/StarGANGenerator/instance_normalization_12/Reshape", "op": "Const", "attr": {"dtype": {"type": "DT_FLOAT"}, "value": {"tensor": {"dtype": "DT_FLOAT", "tensorShape": {"dim": [{"size": "1"}, {"size": "1"}, {"size": "1"}, {"size": "256"}]}}}}}, {"name": "StatefulPartitionedCall/StarGANGenerator/conv2d_107/Conv2D/ReadVariableOp", "op": "Const", "attr": {"dtype": {"type": "DT_FLOAT"}, "value": {"tensor": {"dtype": "DT_FLOAT", "tensorShape": {"dim": [{"size": "3"}, {"size": "3"}, {"size": "256"}, {"size": "256"}]}}}}}, {"name": "StatefulPartitionedCall/StarGANGenerator/instance_normalization_13/moments/mean/reduction_indices", "op": "Const", "attr": {"value": {"tensor": {"dtype": "DT_INT32", "tensorShape": {"dim": [{"size": "2"}]}}}, "dtype": {"type": "DT_INT32"}}}, {"name": "StatefulPartitionedCall/StarGANGenerator/instance_normalization_13/moments/variance/reduction_indices", "op": "Const", "attr": {"dtype": {"type": "DT_INT32"}, "value": {"tensor": {"dtype": "DT_INT32", "tensorShape": {"dim": [{"size": "2"}]}}}}}, {"name": "StatefulPartitionedCall/StarGANGenerator/instance_normalization_13/batchnorm/add/y", "op": "Const", "attr": {"value": {"tensor": {"dtype": "DT_FLOAT", "tensorShape": {}}}, "dtype": {"type": "DT_FLOAT"}}}, {"name": "StatefulPartitionedCall/StarGANGenerator/instance_normalization_13/Reshape", "op": "Const", "attr": {"value": {"tensor": {"dtype": "DT_FLOAT", "tensorShape": {"dim": [{"size": "1"}, {"size": "1"}, {"size": "1"}, {"size": "256"}]}}}, "dtype": {"type": "DT_FLOAT"}}}, {"name": "StatefulPartitionedCall/StarGANGenerator/conv2d_108/Conv2D/ReadVariableOp", "op": "Const", "attr": {"dtype": {"type": "DT_FLOAT"}, "value": {"tensor": {"dtype": "DT_FLOAT", "tensorShape": {"dim": [{"size": "3"}, {"size": "3"}, {"size": "256"}, {"size": "256"}]}}}}}, {"name": "StatefulPartitionedCall/StarGANGenerator/instance_normalization_14/moments/mean/reduction_indices", "op": "Const", "attr": {"value": {"tensor": {"dtype": "DT_INT32", "tensorShape": {"dim": [{"size": "2"}]}}}, "dtype": {"type": "DT_INT32"}}}, {"name": "StatefulPartitionedCall/StarGANGenerator/instance_normalization_14/moments/variance/reduction_indices", "op": "Const", "attr": {"value": {"tensor": {"dtype": "DT_INT32", "tensorShape": {"dim": [{"size": "2"}]}}}, "dtype": {"type": "DT_INT32"}}}, {"name": "StatefulPartitionedCall/StarGANGenerator/instance_normalization_14/batchnorm/add/y", "op": "Const", "attr": {"dtype": {"type": "DT_FLOAT"}, "value": {"tensor": {"dtype": "DT_FLOAT", "tensorShape": {}}}}}, {"name": "StatefulPartitionedCall/StarGANGenerator/instance_normalization_14/Reshape", "op": "Const", "attr": {"value": {"tensor": {"dtype": "DT_FLOAT", "tensorShape": {"dim": [{"size": "1"}, {"size": "1"}, {"size": "1"}, {"size": "256"}]}}}, "dtype": {"type": "DT_FLOAT"}}}, {"name": "StatefulPartitionedCall/StarGANGenerator/instance_normalization_15/moments/mean/reduction_indices", "op": "Const", "attr": {"dtype": {"type": "DT_INT32"}, "value": {"tensor": {"dtype": "DT_INT32", "tensorShape": {"dim": [{"size": "2"}]}}}}}, {"name": "StatefulPartitionedCall/StarGANGenerator/instance_normalization_15/moments/variance/reduction_indices", "op": "Const", "attr": {"value": {"tensor": {"dtype": "DT_INT32", "tensorShape": {"dim": [{"size": "2"}]}}}, "dtype": {"type": "DT_INT32"}}}, {"name": "StatefulPartitionedCall/StarGANGenerator/instance_normalization_15/batchnorm/add/y", "op": "Const", "attr": {"dtype": {"type": "DT_FLOAT"}, "value": {"tensor": {"dtype": "DT_FLOAT", "tensorShape": {}}}}}, {"name": "StatefulPartitionedCall/StarGANGenerator/instance_normalization_15/Reshape", "op": "Const", "attr": {"dtype": {"type": "DT_FLOAT"}, "value": {"tensor": {"dtype": "DT_FLOAT", "tensorShape": {"dim": [{"size": "1"}, {"size": "1"}, {"size": "1"}, {"size": "128"}]}}}}}, {"name": "StatefulPartitionedCall/StarGANGenerator/instance_normalization_16/moments/mean/reduction_indices", "op": "Const", "attr": {"value": {"tensor": {"dtype": "DT_INT32", "tensorShape": {"dim": [{"size": "2"}]}}}, "dtype": {"type": "DT_INT32"}}}, {"name": "StatefulPartitionedCall/StarGANGenerator/instance_normalization_16/moments/variance/reduction_indices", "op": "Const", "attr": {"dtype": {"type": "DT_INT32"}, "value": {"tensor": {"dtype": "DT_INT32", "tensorShape": {"dim": [{"size": "2"}]}}}}}, {"name": "StatefulPartitionedCall/StarGANGenerator/instance_normalization_16/batchnorm/add/y", "op": "Const", "attr": {"dtype": {"type": "DT_FLOAT"}, "value": {"tensor": {"dtype": "DT_FLOAT", "tensorShape": {}}}}}, {"name": "StatefulPartitionedCall/StarGANGenerator/instance_normalization_16/Reshape", "op": "Const", "attr": {"value": {"tensor": {"dtype": "DT_FLOAT", "tensorShape": {"dim": [{"size": "1"}, {"size": "1"}, {"size": "1"}, {"size": "64"}]}}}, "dtype": {"type": "DT_FLOAT"}}}, {"name": "StatefulPartitionedCall/StarGANGenerator/conv2d_109/Conv2D/ReadVariableOp", "op": "Const", "attr": {"dtype": {"type": "DT_FLOAT"}, "value": {"tensor": {"dtype": "DT_FLOAT", "tensorShape": {"dim": [{"size": "7"}, {"size": "7"}, {"size": "64"}, {"size": "4"}]}}}}}, {"name": "input_2", "op": "Placeholder", "attr": {"dtype": {"type": "DT_FLOAT"}, "shape": {"shape": {"dim": [{"size": "-1"}, {"size": "64"}, {"size": "64"}, {"size": "8"}]}}}}, {"name": "StatefulPartitionedCall/StarGANGenerator/conv2d_94/Conv2D", "op": "Conv2D", "input": ["input_2", "StatefulPartitionedCall/StarGANGenerator/conv2d_94/Conv2D/ReadVariableOp"], "device": "/device:CPU:0", "attr": {"dilations": {"list": {"i": ["1", "1", "1", "1"]}}, "data_format": {"s": "TkhXQw=="}, "strides": {"list": {"i": ["1", "1", "1", "1"]}}, "padding": {"s": "U0FNRQ=="}, "T": {"type": "DT_FLOAT"}, "explicit_paddings": {"list": {}}, "use_cudnn_on_gpu": {"b": true}}}, {"name": "StatefulPartitionedCall/StarGANGenerator/instance_normalization/moments/mean", "op": "Mean", "input": ["StatefulPartitionedCall/StarGANGenerator/conv2d_94/Conv2D", "StatefulPartitionedCall/StarGANGenerator/instance_normalization/moments/mean/reduction_indices"], "attr": {"T": {"type": "DT_FLOAT"}, "keep_dims": {"b": true}, "Tidx": {"type": "DT_INT32"}}}, {"name": "StatefulPartitionedCall/StarGANGenerator/instance_normalization/moments/SquaredDifference", "op": "SquaredDifference", "input": ["StatefulPartitionedCall/StarGANGenerator/conv2d_94/Conv2D", "StatefulPartitionedCall/StarGANGenerator/instance_normalization/moments/mean"], "attr": {"T": {"type": "DT_FLOAT"}}}, {"name": "StatefulPartitionedCall/StarGANGenerator/instance_normalization/moments/variance", "op": "Mean", "input": ["StatefulPartitionedCall/StarGANGenerator/instance_normalization/moments/SquaredDifference", "StatefulPartitionedCall/StarGANGenerator/instance_normalization/moments/variance/reduction_indices"], "attr": {"T": {"type": "DT_FLOAT"}, "Tidx": {"type": "DT_INT32"}, "keep_dims": {"b": true}}}, {"name": "StatefulPartitionedCall/StarGANGenerator/instance_normalization/batchnorm/add", "op": "AddV2", "input": ["StatefulPartitionedCall/StarGANGenerator/instance_normalization/moments/variance", "StatefulPartitionedCall/StarGANGenerator/instance_normalization/batchnorm/add/y"], "attr": {"T": {"type": "DT_FLOAT"}}}, {"name": "StatefulPartitionedCall/StarGANGenerator/instance_normalization/batchnorm/Rsqrt", "op": "Rsqrt", "input": ["StatefulPartitionedCall/StarGANGenerator/instance_normalization/batchnorm/add"], "attr": {"T": {"type": "DT_FLOAT"}}}, {"name": "StatefulPartitionedCall/StarGANGenerator/instance_normalization/batchnorm/mul", "op": "Mul", "input": ["StatefulPartitionedCall/StarGANGenerator/instance_normalization/batchnorm/Rsqrt", "StatefulPartitionedCall/StarGANGenerator/instance_normalization/Reshape"], "attr": {"T": {"type": "DT_FLOAT"}}}, {"name": "StatefulPartitionedCall/StarGANGenerator/instance_normalization/batchnorm/mul_2", "op": "Mul", "input": ["StatefulPartitionedCall/StarGANGenerator/instance_normalization/moments/mean", "StatefulPartitionedCall/StarGANGenerator/instance_normalization/batchnorm/mul"], "attr": {"T": {"type": "DT_FLOAT"}}}, {"name": "StatefulPartitionedCall/StarGANGenerator/instance_normalization/batchnorm/mul_1", "op": "Mul", "input": ["StatefulPartitionedCall/StarGANGenerator/conv2d_94/Conv2D", "StatefulPartitionedCall/StarGANGenerator/instance_normalization/batchnorm/mul"], "attr": {"T": {"type": "DT_FLOAT"}}}, {"name": "StatefulPartitionedCall/StarGANGenerator/instance_normalization/batchnorm/sub", "op": "Sub", "input": ["StatefulPartitionedCall/StarGANGenerator/instance_normalization/Reshape_1", "StatefulPartitionedCall/StarGANGenerator/instance_normalization/batchnorm/mul_2"], "attr": {"T": {"type": "DT_FLOAT"}}}, {"name": "StatefulPartitionedCall/StarGANGenerator/instance_normalization/batchnorm/add_1", "op": "AddV2", "input": ["StatefulPartitionedCall/StarGANGenerator/instance_normalization/batchnorm/mul_1", "StatefulPartitionedCall/StarGANGenerator/instance_normalization/batchnorm/sub"], "attr": {"T": {"type": "DT_FLOAT"}}}, {"name": "StatefulPartitionedCall/StarGANGenerator/re_lu/Relu", "op": "Relu", "input": ["StatefulPartitionedCall/StarGANGenerator/instance_normalization/batchnorm/add_1"], "attr": {"T": {"type": "DT_FLOAT"}}}, {"name": "StatefulPartitionedCall/StarGANGenerator/conv2d_95/Conv2D", "op": "Conv2D", "input": ["StatefulPartitionedCall/StarGANGenerator/re_lu/Relu", "StatefulPartitionedCall/StarGANGenerator/conv2d_95/Conv2D/ReadVariableOp"], "device": "/device:CPU:0", "attr": {"strides": {"list": {"i": ["1", "2", "2", "1"]}}, "explicit_paddings": {"list": {}}, "data_format": {"s": "TkhXQw=="}, "dilations": {"list": {"i": ["1", "1", "1", "1"]}}, "padding": {"s": "U0FNRQ=="}, "T": {"type": "DT_FLOAT"}, "use_cudnn_on_gpu": {"b": true}}}, {"name": "StatefulPartitionedCall/StarGANGenerator/instance_normalization_1/moments/mean", "op": "Mean", "input": ["StatefulPartitionedCall/StarGANGenerator/conv2d_95/Conv2D", "StatefulPartitionedCall/StarGANGenerator/instance_normalization_1/moments/mean/reduction_indices"], "attr": {"keep_dims": {"b": true}, "T": {"type": "DT_FLOAT"}, "Tidx": {"type": "DT_INT32"}}}, {"name": "StatefulPartitionedCall/StarGANGenerator/instance_normalization_1/moments/SquaredDifference", "op": "SquaredDifference", "input": ["StatefulPartitionedCall/StarGANGenerator/conv2d_95/Conv2D", "StatefulPartitionedCall/StarGANGenerator/instance_normalization_1/moments/mean"], "attr": {"T": {"type": "DT_FLOAT"}}}, {"name": "StatefulPartitionedCall/StarGANGenerator/instance_normalization_1/moments/variance", "op": "Mean", "input": ["StatefulPartitionedCall/StarGANGenerator/instance_normalization_1/moments/SquaredDifference", "StatefulPartitionedCall/StarGANGenerator/instance_normalization_1/moments/variance/reduction_indices"], "attr": {"Tidx": {"type": "DT_INT32"}, "T": {"type": "DT_FLOAT"}, "keep_dims": {"b": true}}}, {"name": "StatefulPartitionedCall/StarGANGenerator/instance_normalization_1/batchnorm/add", "op": "AddV2", "input": ["StatefulPartitionedCall/StarGANGenerator/instance_normalization_1/moments/variance", "StatefulPartitionedCall/StarGANGenerator/instance_normalization_1/batchnorm/add/y"], "attr": {"T": {"type": "DT_FLOAT"}}}, {"name": "StatefulPartitionedCall/StarGANGenerator/instance_normalization_1/batchnorm/Rsqrt", "op": "Rsqrt", "input": ["StatefulPartitionedCall/StarGANGenerator/instance_normalization_1/batchnorm/add"], "attr": {"T": {"type": "DT_FLOAT"}}}, {"name": "StatefulPartitionedCall/StarGANGenerator/instance_normalization_1/batchnorm/mul", "op": "Mul", "input": ["StatefulPartitionedCall/StarGANGenerator/instance_normalization_1/batchnorm/Rsqrt", "StatefulPartitionedCall/StarGANGenerator/instance_normalization_1/Reshape"], "attr": {"T": {"type": "DT_FLOAT"}}}, {"name": "StatefulPartitionedCall/StarGANGenerator/instance_normalization_1/batchnorm/mul_2", "op": "Mul", "input": ["StatefulPartitionedCall/StarGANGenerator/instance_normalization_1/moments/mean", "StatefulPartitionedCall/StarGANGenerator/instance_normalization_1/batchnorm/mul"], "attr": {"T": {"type": "DT_FLOAT"}}}, {"name": "StatefulPartitionedCall/StarGANGenerator/instance_normalization_1/batchnorm/mul_1", "op": "Mul", "input": ["StatefulPartitionedCall/StarGANGenerator/conv2d_95/Conv2D", "StatefulPartitionedCall/StarGANGenerator/instance_normalization_1/batchnorm/mul"], "attr": {"T": {"type": "DT_FLOAT"}}}, {"name": "StatefulPartitionedCall/StarGANGenerator/instance_normalization_1/batchnorm/sub", "op": "Sub", "input": ["StatefulPartitionedCall/StarGANGenerator/instance_normalization_1/Reshape_1", "StatefulPartitionedCall/StarGANGenerator/instance_normalization_1/batchnorm/mul_2"], "attr": {"T": {"type": "DT_FLOAT"}}}, {"name": "StatefulPartitionedCall/StarGANGenerator/instance_normalization_1/batchnorm/add_1", "op": "AddV2", "input": ["StatefulPartitionedCall/StarGANGenerator/instance_normalization_1/batchnorm/mul_1", "StatefulPartitionedCall/StarGANGenerator/instance_normalization_1/batchnorm/sub"], "attr": {"T": {"type": "DT_FLOAT"}}}, {"name": "StatefulPartitionedCall/StarGANGenerator/re_lu_1/Relu", "op": "Relu", "input": ["StatefulPartitionedCall/StarGANGenerator/instance_normalization_1/batchnorm/add_1"], "attr": {"T": {"type": "DT_FLOAT"}}}, {"name": "StatefulPartitionedCall/StarGANGenerator/conv2d_96/Conv2D", "op": "Conv2D", "input": ["StatefulPartitionedCall/StarGANGenerator/re_lu_1/Relu", "StatefulPartitionedCall/StarGANGenerator/conv2d_96/Conv2D/ReadVariableOp"], "device": "/device:CPU:0", "attr": {"use_cudnn_on_gpu": {"b": true}, "T": {"type": "DT_FLOAT"}, "padding": {"s": "U0FNRQ=="}, "strides": {"list": {"i": ["1", "2", "2", "1"]}}, "data_format": {"s": "TkhXQw=="}, "explicit_paddings": {"list": {}}, "dilations": {"list": {"i": ["1", "1", "1", "1"]}}}}, {"name": "StatefulPartitionedCall/StarGANGenerator/instance_normalization_2/moments/mean", "op": "Mean", "input": ["StatefulPartitionedCall/StarGANGenerator/conv2d_96/Conv2D", "StatefulPartitionedCall/StarGANGenerator/instance_normalization_2/moments/mean/reduction_indices"], "attr": {"Tidx": {"type": "DT_INT32"}, "T": {"type": "DT_FLOAT"}, "keep_dims": {"b": true}}}, {"name": "StatefulPartitionedCall/StarGANGenerator/instance_normalization_2/moments/SquaredDifference", "op": "SquaredDifference", "input": ["StatefulPartitionedCall/StarGANGenerator/conv2d_96/Conv2D", "StatefulPartitionedCall/StarGANGenerator/instance_normalization_2/moments/mean"], "attr": {"T": {"type": "DT_FLOAT"}}}, {"name": "StatefulPartitionedCall/StarGANGenerator/instance_normalization_2/moments/variance", "op": "Mean", "input": ["StatefulPartitionedCall/StarGANGenerator/instance_normalization_2/moments/SquaredDifference", "StatefulPartitionedCall/StarGANGenerator/instance_normalization_2/moments/variance/reduction_indices"], "attr": {"T": {"type": "DT_FLOAT"}, "Tidx": {"type": "DT_INT32"}, "keep_dims": {"b": true}}}, {"name": "StatefulPartitionedCall/StarGANGenerator/instance_normalization_2/batchnorm/add", "op": "AddV2", "input": ["StatefulPartitionedCall/StarGANGenerator/instance_normalization_2/moments/variance", "StatefulPartitionedCall/StarGANGenerator/instance_normalization_2/batchnorm/add/y"], "attr": {"T": {"type": "DT_FLOAT"}}}, {"name": "StatefulPartitionedCall/StarGANGenerator/instance_normalization_2/batchnorm/Rsqrt", "op": "Rsqrt", "input": ["StatefulPartitionedCall/StarGANGenerator/instance_normalization_2/batchnorm/add"], "attr": {"T": {"type": "DT_FLOAT"}}}, {"name": "StatefulPartitionedCall/StarGANGenerator/instance_normalization_2/batchnorm/mul", "op": "Mul", "input": ["StatefulPartitionedCall/StarGANGenerator/instance_normalization_2/batchnorm/Rsqrt", "StatefulPartitionedCall/StarGANGenerator/instance_normalization_2/Reshape"], "attr": {"T": {"type": "DT_FLOAT"}}}, {"name": "StatefulPartitionedCall/StarGANGenerator/instance_normalization_2/batchnorm/mul_2", "op": "Mul", "input": ["StatefulPartitionedCall/StarGANGenerator/instance_normalization_2/moments/mean", "StatefulPartitionedCall/StarGANGenerator/instance_normalization_2/batchnorm/mul"], "attr": {"T": {"type": "DT_FLOAT"}}}, {"name": "StatefulPartitionedCall/StarGANGenerator/instance_normalization_2/batchnorm/mul_1", "op": "Mul", "input": ["StatefulPartitionedCall/StarGANGenerator/conv2d_96/Conv2D", "StatefulPartitionedCall/StarGANGenerator/instance_normalization_2/batchnorm/mul"], "attr": {"T": {"type": "DT_FLOAT"}}}, {"name": "StatefulPartitionedCall/StarGANGenerator/instance_normalization_2/batchnorm/sub", "op": "Sub", "input": ["StatefulPartitionedCall/StarGANGenerator/instance_normalization_2/Reshape_1", "StatefulPartitionedCall/StarGANGenerator/instance_normalization_2/batchnorm/mul_2"], "attr": {"T": {"type": "DT_FLOAT"}}}, {"name": "StatefulPartitionedCall/StarGANGenerator/instance_normalization_2/batchnorm/add_1", "op": "AddV2", "input": ["StatefulPartitionedCall/StarGANGenerator/instance_normalization_2/batchnorm/mul_1", "StatefulPartitionedCall/StarGANGenerator/instance_normalization_2/batchnorm/sub"], "attr": {"T": {"type": "DT_FLOAT"}}}, {"name": "StatefulPartitionedCall/StarGANGenerator/re_lu_2/Relu", "op": "Relu", "input": ["StatefulPartitionedCall/StarGANGenerator/instance_normalization_2/batchnorm/add_1"], "attr": {"T": {"type": "DT_FLOAT"}}}, {"name": "StatefulPartitionedCall/StarGANGenerator/conv2d_97/Conv2D", "op": "Conv2D", "input": ["StatefulPartitionedCall/StarGANGenerator/re_lu_2/Relu", "StatefulPartitionedCall/StarGANGenerator/conv2d_97/Conv2D/ReadVariableOp"], "device": "/device:CPU:0", "attr": {"use_cudnn_on_gpu": {"b": true}, "padding": {"s": "U0FNRQ=="}, "data_format": {"s": "TkhXQw=="}, "dilations": {"list": {"i": ["1", "1", "1", "1"]}}, "T": {"type": "DT_FLOAT"}, "explicit_paddings": {"list": {}}, "strides": {"list": {"i": ["1", "1", "1", "1"]}}}}, {"name": "StatefulPartitionedCall/StarGANGenerator/instance_normalization_3/moments/mean", "op": "Mean", "input": ["StatefulPartitionedCall/StarGANGenerator/conv2d_97/Conv2D", "StatefulPartitionedCall/StarGANGenerator/instance_normalization_3/moments/mean/reduction_indices"], "attr": {"T": {"type": "DT_FLOAT"}, "Tidx": {"type": "DT_INT32"}, "keep_dims": {"b": true}}}, {"name": "StatefulPartitionedCall/StarGANGenerator/instance_normalization_3/moments/SquaredDifference", "op": "SquaredDifference", "input": ["StatefulPartitionedCall/StarGANGenerator/conv2d_97/Conv2D", "StatefulPartitionedCall/StarGANGenerator/instance_normalization_3/moments/mean"], "attr": {"T": {"type": "DT_FLOAT"}}}, {"name": "StatefulPartitionedCall/StarGANGenerator/instance_normalization_3/moments/variance", "op": "Mean", "input": ["StatefulPartitionedCall/StarGANGenerator/instance_normalization_3/moments/SquaredDifference", "StatefulPartitionedCall/StarGANGenerator/instance_normalization_3/moments/variance/reduction_indices"], "attr": {"keep_dims": {"b": true}, "T": {"type": "DT_FLOAT"}, "Tidx": {"type": "DT_INT32"}}}, {"name": "StatefulPartitionedCall/StarGANGenerator/instance_normalization_3/batchnorm/add", "op": "AddV2", "input": ["StatefulPartitionedCall/StarGANGenerator/instance_normalization_3/moments/variance", "StatefulPartitionedCall/StarGANGenerator/instance_normalization_3/batchnorm/add/y"], "attr": {"T": {"type": "DT_FLOAT"}}}, {"name": "StatefulPartitionedCall/StarGANGenerator/instance_normalization_3/batchnorm/Rsqrt", "op": "Rsqrt", "input": ["StatefulPartitionedCall/StarGANGenerator/instance_normalization_3/batchnorm/add"], "attr": {"T": {"type": "DT_FLOAT"}}}, {"name": "StatefulPartitionedCall/StarGANGenerator/instance_normalization_3/batchnorm/mul", "op": "Mul", "input": ["StatefulPartitionedCall/StarGANGenerator/instance_normalization_3/batchnorm/Rsqrt", "StatefulPartitionedCall/StarGANGenerator/instance_normalization_3/Reshape"], "attr": {"T": {"type": "DT_FLOAT"}}}, {"name": "StatefulPartitionedCall/StarGANGenerator/instance_normalization_3/batchnorm/mul_2", "op": "Mul", "input": ["StatefulPartitionedCall/StarGANGenerator/instance_normalization_3/moments/mean", "StatefulPartitionedCall/StarGANGenerator/instance_normalization_3/batchnorm/mul"], "attr": {"T": {"type": "DT_FLOAT"}}}, {"name": "StatefulPartitionedCall/StarGANGenerator/instance_normalization_3/batchnorm/mul_1", "op": "Mul", "input": ["StatefulPartitionedCall/StarGANGenerator/conv2d_97/Conv2D", "StatefulPartitionedCall/StarGANGenerator/instance_normalization_3/batchnorm/mul"], "attr": {"T": {"type": "DT_FLOAT"}}}, {"name": "StatefulPartitionedCall/StarGANGenerator/instance_normalization_3/batchnorm/sub", "op": "Sub", "input": ["StatefulPartitionedCall/StarGANGenerator/instance_normalization_3/Reshape_1", "StatefulPartitionedCall/StarGANGenerator/instance_normalization_3/batchnorm/mul_2"], "attr": {"T": {"type": "DT_FLOAT"}}}, {"name": "StatefulPartitionedCall/StarGANGenerator/instance_normalization_3/batchnorm/add_1", "op": "AddV2", "input": ["StatefulPartitionedCall/StarGANGenerator/instance_normalization_3/batchnorm/mul_1", "StatefulPartitionedCall/StarGANGenerator/instance_normalization_3/batchnorm/sub"], "attr": {"T": {"type": "DT_FLOAT"}}}, {"name": "StatefulPartitionedCall/StarGANGenerator/leaky_re_lu/LeakyRelu", "op": "LeakyRelu", "input": ["StatefulPartitionedCall/StarGANGenerator/instance_normalization_3/batchnorm/add_1"], "attr": {"alpha": {"f": 0.3}, "T": {"type": "DT_FLOAT"}}}, {"name": "StatefulPartitionedCall/StarGANGenerator/conv2d_98/Conv2D", "op": "Conv2D", "input": ["StatefulPartitionedCall/StarGANGenerator/leaky_re_lu/LeakyRelu", "StatefulPartitionedCall/StarGANGenerator/conv2d_98/Conv2D/ReadVariableOp"], "device": "/device:CPU:0", "attr": {"T": {"type": "DT_FLOAT"}, "padding": {"s": "U0FNRQ=="}, "use_cudnn_on_gpu": {"b": true}, "strides": {"list": {"i": ["1", "1", "1", "1"]}}, "data_format": {"s": "TkhXQw=="}, "dilations": {"list": {"i": ["1", "1", "1", "1"]}}, "explicit_paddings": {"list": {}}}}, {"name": "StatefulPartitionedCall/StarGANGenerator/instance_normalization_4/moments/mean", "op": "Mean", "input": ["StatefulPartitionedCall/StarGANGenerator/conv2d_98/Conv2D", "StatefulPartitionedCall/StarGANGenerator/instance_normalization_4/moments/mean/reduction_indices"], "attr": {"T": {"type": "DT_FLOAT"}, "Tidx": {"type": "DT_INT32"}, "keep_dims": {"b": true}}}, {"name": "StatefulPartitionedCall/StarGANGenerator/instance_normalization_4/moments/SquaredDifference", "op": "SquaredDifference", "input": ["StatefulPartitionedCall/StarGANGenerator/conv2d_98/Conv2D", "StatefulPartitionedCall/StarGANGenerator/instance_normalization_4/moments/mean"], "attr": {"T": {"type": "DT_FLOAT"}}}, {"name": "StatefulPartitionedCall/StarGANGenerator/instance_normalization_4/moments/variance", "op": "Mean", "input": ["StatefulPartitionedCall/StarGANGenerator/instance_normalization_4/moments/SquaredDifference", "StatefulPartitionedCall/StarGANGenerator/instance_normalization_4/moments/variance/reduction_indices"], "attr": {"T": {"type": "DT_FLOAT"}, "Tidx": {"type": "DT_INT32"}, "keep_dims": {"b": true}}}, {"name": "StatefulPartitionedCall/StarGANGenerator/instance_normalization_4/batchnorm/add", "op": "AddV2", "input": ["StatefulPartitionedCall/StarGANGenerator/instance_normalization_4/moments/variance", "StatefulPartitionedCall/StarGANGenerator/instance_normalization_4/batchnorm/add/y"], "attr": {"T": {"type": "DT_FLOAT"}}}, {"name": "StatefulPartitionedCall/StarGANGenerator/instance_normalization_4/batchnorm/Rsqrt", "op": "Rsqrt", "input": ["StatefulPartitionedCall/StarGANGenerator/instance_normalization_4/batchnorm/add"], "attr": {"T": {"type": "DT_FLOAT"}}}, {"name": "StatefulPartitionedCall/StarGANGenerator/instance_normalization_4/batchnorm/mul", "op": "Mul", "input": ["StatefulPartitionedCall/StarGANGenerator/instance_normalization_4/batchnorm/Rsqrt", "StatefulPartitionedCall/StarGANGenerator/instance_normalization_4/Reshape"], "attr": {"T": {"type": "DT_FLOAT"}}}, {"name": "StatefulPartitionedCall/StarGANGenerator/instance_normalization_4/batchnorm/mul_2", "op": "Mul", "input": ["StatefulPartitionedCall/StarGANGenerator/instance_normalization_4/moments/mean", "StatefulPartitionedCall/StarGANGenerator/instance_normalization_4/batchnorm/mul"], "attr": {"T": {"type": "DT_FLOAT"}}}, {"name": "StatefulPartitionedCall/StarGANGenerator/instance_normalization_4/batchnorm/mul_1", "op": "Mul", "input": ["StatefulPartitionedCall/StarGANGenerator/conv2d_98/Conv2D", "StatefulPartitionedCall/StarGANGenerator/instance_normalization_4/batchnorm/mul"], "attr": {"T": {"type": "DT_FLOAT"}}}, {"name": "StatefulPartitionedCall/StarGANGenerator/instance_normalization_4/batchnorm/sub", "op": "Sub", "input": ["StatefulPartitionedCall/StarGANGenerator/instance_normalization_4/Reshape_1", "StatefulPartitionedCall/StarGANGenerator/instance_normalization_4/batchnorm/mul_2"], "attr": {"T": {"type": "DT_FLOAT"}}}, {"name": "StatefulPartitionedCall/StarGANGenerator/add/ArithmeticOptimizer/AddOpsRewrite_Leaf_1_add", "op": "AddN", "input": ["StatefulPartitionedCall/StarGANGenerator/re_lu_2/Relu", "StatefulPartitionedCall/StarGANGenerator/instance_normalization_4/batchnorm/mul_1"], "attr": {"T": {"type": "DT_FLOAT"}, "N": {"i": "2"}, "_grappler_ArithmeticOptimizer_AddOpsRewriteStage": {"b": true}}}, {"name": "StatefulPartitionedCall/StarGANGenerator/add/ArithmeticOptimizer/AddOpsRewrite_add", "op": "AddV2", "input": ["StatefulPartitionedCall/StarGANGenerator/instance_normalization_4/batchnorm/sub", "StatefulPartitionedCall/StarGANGenerator/add/ArithmeticOptimizer/AddOpsRewrite_Leaf_1_add"], "attr": {"T": {"type": "DT_FLOAT"}, "_grappler_ArithmeticOptimizer_AddOpsRewriteStage": {"b": true}}}, {"name": "StatefulPartitionedCall/StarGANGenerator/conv2d_99/Conv2D", "op": "Conv2D", "input": ["StatefulPartitionedCall/StarGANGenerator/add/ArithmeticOptimizer/AddOpsRewrite_add", "StatefulPartitionedCall/StarGANGenerator/conv2d_99/Conv2D/ReadVariableOp"], "device": "/device:CPU:0", "attr": {"T": {"type": "DT_FLOAT"}, "use_cudnn_on_gpu": {"b": true}, "padding": {"s": "U0FNRQ=="}, "strides": {"list": {"i": ["1", "1", "1", "1"]}}, "data_format": {"s": "TkhXQw=="}, "dilations": {"list": {"i": ["1", "1", "1", "1"]}}, "explicit_paddings": {"list": {}}}}, {"name": "StatefulPartitionedCall/StarGANGenerator/instance_normalization_5/moments/mean", "op": "Mean", "input": ["StatefulPartitionedCall/StarGANGenerator/conv2d_99/Conv2D", "StatefulPartitionedCall/StarGANGenerator/instance_normalization_5/moments/mean/reduction_indices"], "attr": {"Tidx": {"type": "DT_INT32"}, "keep_dims": {"b": true}, "T": {"type": "DT_FLOAT"}}}, {"name": "StatefulPartitionedCall/StarGANGenerator/instance_normalization_5/moments/SquaredDifference", "op": "SquaredDifference", "input": ["StatefulPartitionedCall/StarGANGenerator/conv2d_99/Conv2D", "StatefulPartitionedCall/StarGANGenerator/instance_normalization_5/moments/mean"], "attr": {"T": {"type": "DT_FLOAT"}}}, {"name": "StatefulPartitionedCall/StarGANGenerator/instance_normalization_5/moments/variance", "op": "Mean", "input": ["StatefulPartitionedCall/StarGANGenerator/instance_normalization_5/moments/SquaredDifference", "StatefulPartitionedCall/StarGANGenerator/instance_normalization_5/moments/variance/reduction_indices"], "attr": {"Tidx": {"type": "DT_INT32"}, "keep_dims": {"b": true}, "T": {"type": "DT_FLOAT"}}}, {"name": "StatefulPartitionedCall/StarGANGenerator/instance_normalization_5/batchnorm/add", "op": "AddV2", "input": ["StatefulPartitionedCall/StarGANGenerator/instance_normalization_5/moments/variance", "StatefulPartitionedCall/StarGANGenerator/instance_normalization_5/batchnorm/add/y"], "attr": {"T": {"type": "DT_FLOAT"}}}, {"name": "StatefulPartitionedCall/StarGANGenerator/instance_normalization_5/batchnorm/Rsqrt", "op": "Rsqrt", "input": ["StatefulPartitionedCall/StarGANGenerator/instance_normalization_5/batchnorm/add"], "attr": {"T": {"type": "DT_FLOAT"}}}, {"name": "StatefulPartitionedCall/StarGANGenerator/instance_normalization_5/batchnorm/mul", "op": "Mul", "input": ["StatefulPartitionedCall/StarGANGenerator/instance_normalization_5/batchnorm/Rsqrt", "StatefulPartitionedCall/StarGANGenerator/instance_normalization_5/Reshape"], "attr": {"T": {"type": "DT_FLOAT"}}}, {"name": "StatefulPartitionedCall/StarGANGenerator/instance_normalization_5/batchnorm/mul_2", "op": "Mul", "input": ["StatefulPartitionedCall/StarGANGenerator/instance_normalization_5/moments/mean", "StatefulPartitionedCall/StarGANGenerator/instance_normalization_5/batchnorm/mul"], "attr": {"T": {"type": "DT_FLOAT"}}}, {"name": "StatefulPartitionedCall/StarGANGenerator/instance_normalization_5/batchnorm/mul_1", "op": "Mul", "input": ["StatefulPartitionedCall/StarGANGenerator/conv2d_99/Conv2D", "StatefulPartitionedCall/StarGANGenerator/instance_normalization_5/batchnorm/mul"], "attr": {"T": {"type": "DT_FLOAT"}}}, {"name": "StatefulPartitionedCall/StarGANGenerator/instance_normalization_5/batchnorm/sub", "op": "Sub", "input": ["StatefulPartitionedCall/StarGANGenerator/instance_normalization_5/Reshape_1", "StatefulPartitionedCall/StarGANGenerator/instance_normalization_5/batchnorm/mul_2"], "attr": {"T": {"type": "DT_FLOAT"}}}, {"name": "StatefulPartitionedCall/StarGANGenerator/instance_normalization_5/batchnorm/add_1", "op": "AddV2", "input": ["StatefulPartitionedCall/StarGANGenerator/instance_normalization_5/batchnorm/mul_1", "StatefulPartitionedCall/StarGANGenerator/instance_normalization_5/batchnorm/sub"], "attr": {"T": {"type": "DT_FLOAT"}}}, {"name": "StatefulPartitionedCall/StarGANGenerator/leaky_re_lu_1/LeakyRelu", "op": "LeakyRelu", "input": ["StatefulPartitionedCall/StarGANGenerator/instance_normalization_5/batchnorm/add_1"], "attr": {"alpha": {"f": 0.3}, "T": {"type": "DT_FLOAT"}}}, {"name": "StatefulPartitionedCall/StarGANGenerator/conv2d_100/Conv2D", "op": "Conv2D", "input": ["StatefulPartitionedCall/StarGANGenerator/leaky_re_lu_1/LeakyRelu", "StatefulPartitionedCall/StarGANGenerator/conv2d_100/Conv2D/ReadVariableOp"], "device": "/device:CPU:0", "attr": {"use_cudnn_on_gpu": {"b": true}, "T": {"type": "DT_FLOAT"}, "explicit_paddings": {"list": {}}, "data_format": {"s": "TkhXQw=="}, "dilations": {"list": {"i": ["1", "1", "1", "1"]}}, "padding": {"s": "U0FNRQ=="}, "strides": {"list": {"i": ["1", "1", "1", "1"]}}}}, {"name": "StatefulPartitionedCall/StarGANGenerator/instance_normalization_6/moments/mean", "op": "Mean", "input": ["StatefulPartitionedCall/StarGANGenerator/conv2d_100/Conv2D", "StatefulPartitionedCall/StarGANGenerator/instance_normalization_6/moments/mean/reduction_indices"], "attr": {"T": {"type": "DT_FLOAT"}, "keep_dims": {"b": true}, "Tidx": {"type": "DT_INT32"}}}, {"name": "StatefulPartitionedCall/StarGANGenerator/instance_normalization_6/moments/SquaredDifference", "op": "SquaredDifference", "input": ["StatefulPartitionedCall/StarGANGenerator/conv2d_100/Conv2D", "StatefulPartitionedCall/StarGANGenerator/instance_normalization_6/moments/mean"], "attr": {"T": {"type": "DT_FLOAT"}}}, {"name": "StatefulPartitionedCall/StarGANGenerator/instance_normalization_6/moments/variance", "op": "Mean", "input": ["StatefulPartitionedCall/StarGANGenerator/instance_normalization_6/moments/SquaredDifference", "StatefulPartitionedCall/StarGANGenerator/instance_normalization_6/moments/variance/reduction_indices"], "attr": {"keep_dims": {"b": true}, "T": {"type": "DT_FLOAT"}, "Tidx": {"type": "DT_INT32"}}}, {"name": "StatefulPartitionedCall/StarGANGenerator/instance_normalization_6/batchnorm/add", "op": "AddV2", "input": ["StatefulPartitionedCall/StarGANGenerator/instance_normalization_6/moments/variance", "StatefulPartitionedCall/StarGANGenerator/instance_normalization_6/batchnorm/add/y"], "attr": {"T": {"type": "DT_FLOAT"}}}, {"name": "StatefulPartitionedCall/StarGANGenerator/instance_normalization_6/batchnorm/Rsqrt", "op": "Rsqrt", "input": ["StatefulPartitionedCall/StarGANGenerator/instance_normalization_6/batchnorm/add"], "attr": {"T": {"type": "DT_FLOAT"}}}, {"name": "StatefulPartitionedCall/StarGANGenerator/instance_normalization_6/batchnorm/mul", "op": "Mul", "input": ["StatefulPartitionedCall/StarGANGenerator/instance_normalization_6/batchnorm/Rsqrt", "StatefulPartitionedCall/StarGANGenerator/instance_normalization_6/Reshape"], "attr": {"T": {"type": "DT_FLOAT"}}}, {"name": "StatefulPartitionedCall/StarGANGenerator/instance_normalization_6/batchnorm/mul_2", "op": "Mul", "input": ["StatefulPartitionedCall/StarGANGenerator/instance_normalization_6/moments/mean", "StatefulPartitionedCall/StarGANGenerator/instance_normalization_6/batchnorm/mul"], "attr": {"T": {"type": "DT_FLOAT"}}}, {"name": "StatefulPartitionedCall/StarGANGenerator/instance_normalization_6/batchnorm/mul_1", "op": "Mul", "input": ["StatefulPartitionedCall/StarGANGenerator/conv2d_100/Conv2D", "StatefulPartitionedCall/StarGANGenerator/instance_normalization_6/batchnorm/mul"], "attr": {"T": {"type": "DT_FLOAT"}}}, {"name": "StatefulPartitionedCall/StarGANGenerator/instance_normalization_6/batchnorm/sub", "op": "Sub", "input": ["StatefulPartitionedCall/StarGANGenerator/instance_normalization_6/Reshape_1", "StatefulPartitionedCall/StarGANGenerator/instance_normalization_6/batchnorm/mul_2"], "attr": {"T": {"type": "DT_FLOAT"}}}, {"name": "StatefulPartitionedCall/StarGANGenerator/add_1/ArithmeticOptimizer/AddOpsRewrite_Leaf_1_add", "op": "AddN", "input": ["StatefulPartitionedCall/StarGANGenerator/add/ArithmeticOptimizer/AddOpsRewrite_add", "StatefulPartitionedCall/StarGANGenerator/instance_normalization_6/batchnorm/mul_1"], "attr": {"_grappler_ArithmeticOptimizer_AddOpsRewriteStage": {"b": true}, "N": {"i": "2"}, "T": {"type": "DT_FLOAT"}}}, {"name": "StatefulPartitionedCall/StarGANGenerator/add_1/ArithmeticOptimizer/AddOpsRewrite_add", "op": "AddV2", "input": ["StatefulPartitionedCall/StarGANGenerator/instance_normalization_6/batchnorm/sub", "StatefulPartitionedCall/StarGANGenerator/add_1/ArithmeticOptimizer/AddOpsRewrite_Leaf_1_add"], "attr": {"_grappler_ArithmeticOptimizer_AddOpsRewriteStage": {"b": true}, "T": {"type": "DT_FLOAT"}}}, {"name": "StatefulPartitionedCall/StarGANGenerator/conv2d_101/Conv2D", "op": "Conv2D", "input": ["StatefulPartitionedCall/StarGANGenerator/add_1/ArithmeticOptimizer/AddOpsRewrite_add", "StatefulPartitionedCall/StarGANGenerator/conv2d_101/Conv2D/ReadVariableOp"], "device": "/device:CPU:0", "attr": {"use_cudnn_on_gpu": {"b": true}, "explicit_paddings": {"list": {}}, "dilations": {"list": {"i": ["1", "1", "1", "1"]}}, "padding": {"s": "U0FNRQ=="}, "T": {"type": "DT_FLOAT"}, "data_format": {"s": "TkhXQw=="}, "strides": {"list": {"i": ["1", "1", "1", "1"]}}}}, {"name": "StatefulPartitionedCall/StarGANGenerator/instance_normalization_7/moments/mean", "op": "Mean", "input": ["StatefulPartitionedCall/StarGANGenerator/conv2d_101/Conv2D", "StatefulPartitionedCall/StarGANGenerator/instance_normalization_7/moments/mean/reduction_indices"], "attr": {"T": {"type": "DT_FLOAT"}, "keep_dims": {"b": true}, "Tidx": {"type": "DT_INT32"}}}, {"name": "StatefulPartitionedCall/StarGANGenerator/instance_normalization_7/moments/SquaredDifference", "op": "SquaredDifference", "input": ["StatefulPartitionedCall/StarGANGenerator/conv2d_101/Conv2D", "StatefulPartitionedCall/StarGANGenerator/instance_normalization_7/moments/mean"], "attr": {"T": {"type": "DT_FLOAT"}}}, {"name": "StatefulPartitionedCall/StarGANGenerator/instance_normalization_7/moments/variance", "op": "Mean", "input": ["StatefulPartitionedCall/StarGANGenerator/instance_normalization_7/moments/SquaredDifference", "StatefulPartitionedCall/StarGANGenerator/instance_normalization_7/moments/variance/reduction_indices"], "attr": {"keep_dims": {"b": true}, "T": {"type": "DT_FLOAT"}, "Tidx": {"type": "DT_INT32"}}}, {"name": "StatefulPartitionedCall/StarGANGenerator/instance_normalization_7/batchnorm/add", "op": "AddV2", "input": ["StatefulPartitionedCall/StarGANGenerator/instance_normalization_7/moments/variance", "StatefulPartitionedCall/StarGANGenerator/instance_normalization_7/batchnorm/add/y"], "attr": {"T": {"type": "DT_FLOAT"}}}, {"name": "StatefulPartitionedCall/StarGANGenerator/instance_normalization_7/batchnorm/Rsqrt", "op": "Rsqrt", "input": ["StatefulPartitionedCall/StarGANGenerator/instance_normalization_7/batchnorm/add"], "attr": {"T": {"type": "DT_FLOAT"}}}, {"name": "StatefulPartitionedCall/StarGANGenerator/instance_normalization_7/batchnorm/mul", "op": "Mul", "input": ["StatefulPartitionedCall/StarGANGenerator/instance_normalization_7/batchnorm/Rsqrt", "StatefulPartitionedCall/StarGANGenerator/instance_normalization_7/Reshape"], "attr": {"T": {"type": "DT_FLOAT"}}}, {"name": "StatefulPartitionedCall/StarGANGenerator/instance_normalization_7/batchnorm/mul_2", "op": "Mul", "input": ["StatefulPartitionedCall/StarGANGenerator/instance_normalization_7/moments/mean", "StatefulPartitionedCall/StarGANGenerator/instance_normalization_7/batchnorm/mul"], "attr": {"T": {"type": "DT_FLOAT"}}}, {"name": "StatefulPartitionedCall/StarGANGenerator/instance_normalization_7/batchnorm/mul_1", "op": "Mul", "input": ["StatefulPartitionedCall/StarGANGenerator/conv2d_101/Conv2D", "StatefulPartitionedCall/StarGANGenerator/instance_normalization_7/batchnorm/mul"], "attr": {"T": {"type": "DT_FLOAT"}}}, {"name": "StatefulPartitionedCall/StarGANGenerator/instance_normalization_7/batchnorm/sub", "op": "Sub", "input": ["StatefulPartitionedCall/StarGANGenerator/instance_normalization_7/Reshape_1", "StatefulPartitionedCall/StarGANGenerator/instance_normalization_7/batchnorm/mul_2"], "attr": {"T": {"type": "DT_FLOAT"}}}, {"name": "StatefulPartitionedCall/StarGANGenerator/instance_normalization_7/batchnorm/add_1", "op": "AddV2", "input": ["StatefulPartitionedCall/StarGANGenerator/instance_normalization_7/batchnorm/mul_1", "StatefulPartitionedCall/StarGANGenerator/instance_normalization_7/batchnorm/sub"], "attr": {"T": {"type": "DT_FLOAT"}}}, {"name": "StatefulPartitionedCall/StarGANGenerator/leaky_re_lu_2/LeakyRelu", "op": "LeakyRelu", "input": ["StatefulPartitionedCall/StarGANGenerator/instance_normalization_7/batchnorm/add_1"], "attr": {"alpha": {"f": 0.3}, "T": {"type": "DT_FLOAT"}}}, {"name": "StatefulPartitionedCall/StarGANGenerator/conv2d_102/Conv2D", "op": "Conv2D", "input": ["StatefulPartitionedCall/StarGANGenerator/leaky_re_lu_2/LeakyRelu", "StatefulPartitionedCall/StarGANGenerator/conv2d_102/Conv2D/ReadVariableOp"], "device": "/device:CPU:0", "attr": {"T": {"type": "DT_FLOAT"}, "data_format": {"s": "TkhXQw=="}, "strides": {"list": {"i": ["1", "1", "1", "1"]}}, "explicit_paddings": {"list": {}}, "use_cudnn_on_gpu": {"b": true}, "padding": {"s": "U0FNRQ=="}, "dilations": {"list": {"i": ["1", "1", "1", "1"]}}}}, {"name": "StatefulPartitionedCall/StarGANGenerator/instance_normalization_8/moments/mean", "op": "Mean", "input": ["StatefulPartitionedCall/StarGANGenerator/conv2d_102/Conv2D", "StatefulPartitionedCall/StarGANGenerator/instance_normalization_8/moments/mean/reduction_indices"], "attr": {"T": {"type": "DT_FLOAT"}, "keep_dims": {"b": true}, "Tidx": {"type": "DT_INT32"}}}, {"name": "StatefulPartitionedCall/StarGANGenerator/instance_normalization_8/moments/SquaredDifference", "op": "SquaredDifference", "input": ["StatefulPartitionedCall/StarGANGenerator/conv2d_102/Conv2D", "StatefulPartitionedCall/StarGANGenerator/instance_normalization_8/moments/mean"], "attr": {"T": {"type": "DT_FLOAT"}}}, {"name": "StatefulPartitionedCall/StarGANGenerator/instance_normalization_8/moments/variance", "op": "Mean", "input": ["StatefulPartitionedCall/StarGANGenerator/instance_normalization_8/moments/SquaredDifference", "StatefulPartitionedCall/StarGANGenerator/instance_normalization_8/moments/variance/reduction_indices"], "attr": {"T": {"type": "DT_FLOAT"}, "Tidx": {"type": "DT_INT32"}, "keep_dims": {"b": true}}}, {"name": "StatefulPartitionedCall/StarGANGenerator/instance_normalization_8/batchnorm/add", "op": "AddV2", "input": ["StatefulPartitionedCall/StarGANGenerator/instance_normalization_8/moments/variance", "StatefulPartitionedCall/StarGANGenerator/instance_normalization_8/batchnorm/add/y"], "attr": {"T": {"type": "DT_FLOAT"}}}, {"name": "StatefulPartitionedCall/StarGANGenerator/instance_normalization_8/batchnorm/Rsqrt", "op": "Rsqrt", "input": ["StatefulPartitionedCall/StarGANGenerator/instance_normalization_8/batchnorm/add"], "attr": {"T": {"type": "DT_FLOAT"}}}, {"name": "StatefulPartitionedCall/StarGANGenerator/instance_normalization_8/batchnorm/mul", "op": "Mul", "input": ["StatefulPartitionedCall/StarGANGenerator/instance_normalization_8/batchnorm/Rsqrt", "StatefulPartitionedCall/StarGANGenerator/instance_normalization_8/Reshape"], "attr": {"T": {"type": "DT_FLOAT"}}}, {"name": "StatefulPartitionedCall/StarGANGenerator/instance_normalization_8/batchnorm/mul_2", "op": "Mul", "input": ["StatefulPartitionedCall/StarGANGenerator/instance_normalization_8/moments/mean", "StatefulPartitionedCall/StarGANGenerator/instance_normalization_8/batchnorm/mul"], "attr": {"T": {"type": "DT_FLOAT"}}}, {"name": "StatefulPartitionedCall/StarGANGenerator/instance_normalization_8/batchnorm/mul_1", "op": "Mul", "input": ["StatefulPartitionedCall/StarGANGenerator/conv2d_102/Conv2D", "StatefulPartitionedCall/StarGANGenerator/instance_normalization_8/batchnorm/mul"], "attr": {"T": {"type": "DT_FLOAT"}}}, {"name": "StatefulPartitionedCall/StarGANGenerator/instance_normalization_8/batchnorm/sub", "op": "Sub", "input": ["StatefulPartitionedCall/StarGANGenerator/instance_normalization_8/Reshape_1", "StatefulPartitionedCall/StarGANGenerator/instance_normalization_8/batchnorm/mul_2"], "attr": {"T": {"type": "DT_FLOAT"}}}, {"name": "StatefulPartitionedCall/StarGANGenerator/add_2/ArithmeticOptimizer/AddOpsRewrite_Leaf_1_add", "op": "AddN", "input": ["StatefulPartitionedCall/StarGANGenerator/add_1/ArithmeticOptimizer/AddOpsRewrite_add", "StatefulPartitionedCall/StarGANGenerator/instance_normalization_8/batchnorm/mul_1"], "attr": {"N": {"i": "2"}, "_grappler_ArithmeticOptimizer_AddOpsRewriteStage": {"b": true}, "T": {"type": "DT_FLOAT"}}}, {"name": "StatefulPartitionedCall/StarGANGenerator/add_2/ArithmeticOptimizer/AddOpsRewrite_add", "op": "AddV2", "input": ["StatefulPartitionedCall/StarGANGenerator/instance_normalization_8/batchnorm/sub", "StatefulPartitionedCall/StarGANGenerator/add_2/ArithmeticOptimizer/AddOpsRewrite_Leaf_1_add"], "attr": {"T": {"type": "DT_FLOAT"}, "_grappler_ArithmeticOptimizer_AddOpsRewriteStage": {"b": true}}}, {"name": "StatefulPartitionedCall/StarGANGenerator/conv2d_103/Conv2D", "op": "Conv2D", "input": ["StatefulPartitionedCall/StarGANGenerator/add_2/ArithmeticOptimizer/AddOpsRewrite_add", "StatefulPartitionedCall/StarGANGenerator/conv2d_103/Conv2D/ReadVariableOp"], "device": "/device:CPU:0", "attr": {"T": {"type": "DT_FLOAT"}, "use_cudnn_on_gpu": {"b": true}, "padding": {"s": "U0FNRQ=="}, "data_format": {"s": "TkhXQw=="}, "dilations": {"list": {"i": ["1", "1", "1", "1"]}}, "strides": {"list": {"i": ["1", "1", "1", "1"]}}, "explicit_paddings": {"list": {}}}}, {"name": "StatefulPartitionedCall/StarGANGenerator/instance_normalization_9/moments/mean", "op": "Mean", "input": ["StatefulPartitionedCall/StarGANGenerator/conv2d_103/Conv2D", "StatefulPartitionedCall/StarGANGenerator/instance_normalization_9/moments/mean/reduction_indices"], "attr": {"T": {"type": "DT_FLOAT"}, "Tidx": {"type": "DT_INT32"}, "keep_dims": {"b": true}}}, {"name": "StatefulPartitionedCall/StarGANGenerator/instance_normalization_9/moments/SquaredDifference", "op": "SquaredDifference", "input": ["StatefulPartitionedCall/StarGANGenerator/conv2d_103/Conv2D", "StatefulPartitionedCall/StarGANGenerator/instance_normalization_9/moments/mean"], "attr": {"T": {"type": "DT_FLOAT"}}}, {"name": "StatefulPartitionedCall/StarGANGenerator/instance_normalization_9/moments/variance", "op": "Mean", "input": ["StatefulPartitionedCall/StarGANGenerator/instance_normalization_9/moments/SquaredDifference", "StatefulPartitionedCall/StarGANGenerator/instance_normalization_9/moments/variance/reduction_indices"], "attr": {"T": {"type": "DT_FLOAT"}, "Tidx": {"type": "DT_INT32"}, "keep_dims": {"b": true}}}, {"name": "StatefulPartitionedCall/StarGANGenerator/instance_normalization_9/batchnorm/add", "op": "AddV2", "input": ["StatefulPartitionedCall/StarGANGenerator/instance_normalization_9/moments/variance", "StatefulPartitionedCall/StarGANGenerator/instance_normalization_9/batchnorm/add/y"], "attr": {"T": {"type": "DT_FLOAT"}}}, {"name": "StatefulPartitionedCall/StarGANGenerator/instance_normalization_9/batchnorm/Rsqrt", "op": "Rsqrt", "input": ["StatefulPartitionedCall/StarGANGenerator/instance_normalization_9/batchnorm/add"], "attr": {"T": {"type": "DT_FLOAT"}}}, {"name": "StatefulPartitionedCall/StarGANGenerator/instance_normalization_9/batchnorm/mul", "op": "Mul", "input": ["StatefulPartitionedCall/StarGANGenerator/instance_normalization_9/batchnorm/Rsqrt", "StatefulPartitionedCall/StarGANGenerator/instance_normalization_9/Reshape"], "attr": {"T": {"type": "DT_FLOAT"}}}, {"name": "StatefulPartitionedCall/StarGANGenerator/instance_normalization_9/batchnorm/mul_2", "op": "Mul", "input": ["StatefulPartitionedCall/StarGANGenerator/instance_normalization_9/moments/mean", "StatefulPartitionedCall/StarGANGenerator/instance_normalization_9/batchnorm/mul"], "attr": {"T": {"type": "DT_FLOAT"}}}, {"name": "StatefulPartitionedCall/StarGANGenerator/instance_normalization_9/batchnorm/mul_1", "op": "Mul", "input": ["StatefulPartitionedCall/StarGANGenerator/conv2d_103/Conv2D", "StatefulPartitionedCall/StarGANGenerator/instance_normalization_9/batchnorm/mul"], "attr": {"T": {"type": "DT_FLOAT"}}}, {"name": "StatefulPartitionedCall/StarGANGenerator/instance_normalization_9/batchnorm/sub", "op": "Sub", "input": ["StatefulPartitionedCall/StarGANGenerator/instance_normalization_9/Reshape_1", "StatefulPartitionedCall/StarGANGenerator/instance_normalization_9/batchnorm/mul_2"], "attr": {"T": {"type": "DT_FLOAT"}}}, {"name": "StatefulPartitionedCall/StarGANGenerator/instance_normalization_9/batchnorm/add_1", "op": "AddV2", "input": ["StatefulPartitionedCall/StarGANGenerator/instance_normalization_9/batchnorm/mul_1", "StatefulPartitionedCall/StarGANGenerator/instance_normalization_9/batchnorm/sub"], "attr": {"T": {"type": "DT_FLOAT"}}}, {"name": "StatefulPartitionedCall/StarGANGenerator/leaky_re_lu_3/LeakyRelu", "op": "LeakyRelu", "input": ["StatefulPartitionedCall/StarGANGenerator/instance_normalization_9/batchnorm/add_1"], "attr": {"alpha": {"f": 0.3}, "T": {"type": "DT_FLOAT"}}}, {"name": "StatefulPartitionedCall/StarGANGenerator/conv2d_104/Conv2D", "op": "Conv2D", "input": ["StatefulPartitionedCall/StarGANGenerator/leaky_re_lu_3/LeakyRelu", "StatefulPartitionedCall/StarGANGenerator/conv2d_104/Conv2D/ReadVariableOp"], "device": "/device:CPU:0", "attr": {"dilations": {"list": {"i": ["1", "1", "1", "1"]}}, "data_format": {"s": "TkhXQw=="}, "strides": {"list": {"i": ["1", "1", "1", "1"]}}, "explicit_paddings": {"list": {}}, "use_cudnn_on_gpu": {"b": true}, "T": {"type": "DT_FLOAT"}, "padding": {"s": "U0FNRQ=="}}}, {"name": "StatefulPartitionedCall/StarGANGenerator/instance_normalization_10/moments/mean", "op": "Mean", "input": ["StatefulPartitionedCall/StarGANGenerator/conv2d_104/Conv2D", "StatefulPartitionedCall/StarGANGenerator/instance_normalization_10/moments/mean/reduction_indices"], "attr": {"T": {"type": "DT_FLOAT"}, "Tidx": {"type": "DT_INT32"}, "keep_dims": {"b": true}}}, {"name": "StatefulPartitionedCall/StarGANGenerator/instance_normalization_10/moments/SquaredDifference", "op": "SquaredDifference", "input": ["StatefulPartitionedCall/StarGANGenerator/conv2d_104/Conv2D", "StatefulPartitionedCall/StarGANGenerator/instance_normalization_10/moments/mean"], "attr": {"T": {"type": "DT_FLOAT"}}}, {"name": "StatefulPartitionedCall/StarGANGenerator/instance_normalization_10/moments/variance", "op": "Mean", "input": ["StatefulPartitionedCall/StarGANGenerator/instance_normalization_10/moments/SquaredDifference", "StatefulPartitionedCall/StarGANGenerator/instance_normalization_10/moments/variance/reduction_indices"], "attr": {"keep_dims": {"b": true}, "T": {"type": "DT_FLOAT"}, "Tidx": {"type": "DT_INT32"}}}, {"name": "StatefulPartitionedCall/StarGANGenerator/instance_normalization_10/batchnorm/add", "op": "AddV2", "input": ["StatefulPartitionedCall/StarGANGenerator/instance_normalization_10/moments/variance", "StatefulPartitionedCall/StarGANGenerator/instance_normalization_10/batchnorm/add/y"], "attr": {"T": {"type": "DT_FLOAT"}}}, {"name": "StatefulPartitionedCall/StarGANGenerator/instance_normalization_10/batchnorm/Rsqrt", "op": "Rsqrt", "input": ["StatefulPartitionedCall/StarGANGenerator/instance_normalization_10/batchnorm/add"], "attr": {"T": {"type": "DT_FLOAT"}}}, {"name": "StatefulPartitionedCall/StarGANGenerator/instance_normalization_10/batchnorm/mul", "op": "Mul", "input": ["StatefulPartitionedCall/StarGANGenerator/instance_normalization_10/batchnorm/Rsqrt", "StatefulPartitionedCall/StarGANGenerator/instance_normalization_10/Reshape"], "attr": {"T": {"type": "DT_FLOAT"}}}, {"name": "StatefulPartitionedCall/StarGANGenerator/instance_normalization_10/batchnorm/mul_2", "op": "Mul", "input": ["StatefulPartitionedCall/StarGANGenerator/instance_normalization_10/moments/mean", "StatefulPartitionedCall/StarGANGenerator/instance_normalization_10/batchnorm/mul"], "attr": {"T": {"type": "DT_FLOAT"}}}, {"name": "StatefulPartitionedCall/StarGANGenerator/instance_normalization_10/batchnorm/mul_1", "op": "Mul", "input": ["StatefulPartitionedCall/StarGANGenerator/conv2d_104/Conv2D", "StatefulPartitionedCall/StarGANGenerator/instance_normalization_10/batchnorm/mul"], "attr": {"T": {"type": "DT_FLOAT"}}}, {"name": "StatefulPartitionedCall/StarGANGenerator/instance_normalization_10/batchnorm/sub", "op": "Sub", "input": ["StatefulPartitionedCall/StarGANGenerator/instance_normalization_10/Reshape_1", "StatefulPartitionedCall/StarGANGenerator/instance_normalization_10/batchnorm/mul_2"], "attr": {"T": {"type": "DT_FLOAT"}}}, {"name": "StatefulPartitionedCall/StarGANGenerator/add_3/ArithmeticOptimizer/AddOpsRewrite_Leaf_1_add", "op": "AddN", "input": ["StatefulPartitionedCall/StarGANGenerator/add_2/ArithmeticOptimizer/AddOpsRewrite_add", "StatefulPartitionedCall/StarGANGenerator/instance_normalization_10/batchnorm/mul_1"], "attr": {"T": {"type": "DT_FLOAT"}, "_grappler_ArithmeticOptimizer_AddOpsRewriteStage": {"b": true}, "N": {"i": "2"}}}, {"name": "StatefulPartitionedCall/StarGANGenerator/add_3/ArithmeticOptimizer/AddOpsRewrite_add", "op": "AddV2", "input": ["StatefulPartitionedCall/StarGANGenerator/instance_normalization_10/batchnorm/sub", "StatefulPartitionedCall/StarGANGenerator/add_3/ArithmeticOptimizer/AddOpsRewrite_Leaf_1_add"], "attr": {"T": {"type": "DT_FLOAT"}, "_grappler_ArithmeticOptimizer_AddOpsRewriteStage": {"b": true}}}, {"name": "StatefulPartitionedCall/StarGANGenerator/conv2d_105/Conv2D", "op": "Conv2D", "input": ["StatefulPartitionedCall/StarGANGenerator/add_3/ArithmeticOptimizer/AddOpsRewrite_add", "StatefulPartitionedCall/StarGANGenerator/conv2d_105/Conv2D/ReadVariableOp"], "device": "/device:CPU:0", "attr": {"data_format": {"s": "TkhXQw=="}, "padding": {"s": "U0FNRQ=="}, "dilations": {"list": {"i": ["1", "1", "1", "1"]}}, "explicit_paddings": {"list": {}}, "strides": {"list": {"i": ["1", "1", "1", "1"]}}, "use_cudnn_on_gpu": {"b": true}, "T": {"type": "DT_FLOAT"}}}, {"name": "StatefulPartitionedCall/StarGANGenerator/instance_normalization_11/moments/mean", "op": "Mean", "input": ["StatefulPartitionedCall/StarGANGenerator/conv2d_105/Conv2D", "StatefulPartitionedCall/StarGANGenerator/instance_normalization_11/moments/mean/reduction_indices"], "attr": {"T": {"type": "DT_FLOAT"}, "keep_dims": {"b": true}, "Tidx": {"type": "DT_INT32"}}}, {"name": "StatefulPartitionedCall/StarGANGenerator/instance_normalization_11/moments/SquaredDifference", "op": "SquaredDifference", "input": ["StatefulPartitionedCall/StarGANGenerator/conv2d_105/Conv2D", "StatefulPartitionedCall/StarGANGenerator/instance_normalization_11/moments/mean"], "attr": {"T": {"type": "DT_FLOAT"}}}, {"name": "StatefulPartitionedCall/StarGANGenerator/instance_normalization_11/moments/variance", "op": "Mean", "input": ["StatefulPartitionedCall/StarGANGenerator/instance_normalization_11/moments/SquaredDifference", "StatefulPartitionedCall/StarGANGenerator/instance_normalization_11/moments/variance/reduction_indices"], "attr": {"Tidx": {"type": "DT_INT32"}, "T": {"type": "DT_FLOAT"}, "keep_dims": {"b": true}}}, {"name": "StatefulPartitionedCall/StarGANGenerator/instance_normalization_11/batchnorm/add", "op": "AddV2", "input": ["StatefulPartitionedCall/StarGANGenerator/instance_normalization_11/moments/variance", "StatefulPartitionedCall/StarGANGenerator/instance_normalization_11/batchnorm/add/y"], "attr": {"T": {"type": "DT_FLOAT"}}}, {"name": "StatefulPartitionedCall/StarGANGenerator/instance_normalization_11/batchnorm/Rsqrt", "op": "Rsqrt", "input": ["StatefulPartitionedCall/StarGANGenerator/instance_normalization_11/batchnorm/add"], "attr": {"T": {"type": "DT_FLOAT"}}}, {"name": "StatefulPartitionedCall/StarGANGenerator/instance_normalization_11/batchnorm/mul", "op": "Mul", "input": ["StatefulPartitionedCall/StarGANGenerator/instance_normalization_11/batchnorm/Rsqrt", "StatefulPartitionedCall/StarGANGenerator/instance_normalization_11/Reshape"], "attr": {"T": {"type": "DT_FLOAT"}}}, {"name": "StatefulPartitionedCall/StarGANGenerator/instance_normalization_11/batchnorm/mul_2", "op": "Mul", "input": ["StatefulPartitionedCall/StarGANGenerator/instance_normalization_11/moments/mean", "StatefulPartitionedCall/StarGANGenerator/instance_normalization_11/batchnorm/mul"], "attr": {"T": {"type": "DT_FLOAT"}}}, {"name": "StatefulPartitionedCall/StarGANGenerator/instance_normalization_11/batchnorm/mul_1", "op": "Mul", "input": ["StatefulPartitionedCall/StarGANGenerator/conv2d_105/Conv2D", "StatefulPartitionedCall/StarGANGenerator/instance_normalization_11/batchnorm/mul"], "attr": {"T": {"type": "DT_FLOAT"}}}, {"name": "StatefulPartitionedCall/StarGANGenerator/instance_normalization_11/batchnorm/sub", "op": "Sub", "input": ["StatefulPartitionedCall/StarGANGenerator/instance_normalization_11/Reshape_1", "StatefulPartitionedCall/StarGANGenerator/instance_normalization_11/batchnorm/mul_2"], "attr": {"T": {"type": "DT_FLOAT"}}}, {"name": "StatefulPartitionedCall/StarGANGenerator/instance_normalization_11/batchnorm/add_1", "op": "AddV2", "input": ["StatefulPartitionedCall/StarGANGenerator/instance_normalization_11/batchnorm/mul_1", "StatefulPartitionedCall/StarGANGenerator/instance_normalization_11/batchnorm/sub"], "attr": {"T": {"type": "DT_FLOAT"}}}, {"name": "StatefulPartitionedCall/StarGANGenerator/leaky_re_lu_4/LeakyRelu", "op": "LeakyRelu", "input": ["StatefulPartitionedCall/StarGANGenerator/instance_normalization_11/batchnorm/add_1"], "attr": {"T": {"type": "DT_FLOAT"}, "alpha": {"f": 0.3}}}, {"name": "StatefulPartitionedCall/StarGANGenerator/conv2d_106/Conv2D", "op": "Conv2D", "input": ["StatefulPartitionedCall/StarGANGenerator/leaky_re_lu_4/LeakyRelu", "StatefulPartitionedCall/StarGANGenerator/conv2d_106/Conv2D/ReadVariableOp"], "device": "/device:CPU:0", "attr": {"padding": {"s": "U0FNRQ=="}, "T": {"type": "DT_FLOAT"}, "strides": {"list": {"i": ["1", "1", "1", "1"]}}, "dilations": {"list": {"i": ["1", "1", "1", "1"]}}, "data_format": {"s": "TkhXQw=="}, "use_cudnn_on_gpu": {"b": true}, "explicit_paddings": {"list": {}}}}, {"name": "StatefulPartitionedCall/StarGANGenerator/instance_normalization_12/moments/mean", "op": "Mean", "input": ["StatefulPartitionedCall/StarGANGenerator/conv2d_106/Conv2D", "StatefulPartitionedCall/StarGANGenerator/instance_normalization_12/moments/mean/reduction_indices"], "attr": {"Tidx": {"type": "DT_INT32"}, "keep_dims": {"b": true}, "T": {"type": "DT_FLOAT"}}}, {"name": "StatefulPartitionedCall/StarGANGenerator/instance_normalization_12/moments/SquaredDifference", "op": "SquaredDifference", "input": ["StatefulPartitionedCall/StarGANGenerator/conv2d_106/Conv2D", "StatefulPartitionedCall/StarGANGenerator/instance_normalization_12/moments/mean"], "attr": {"T": {"type": "DT_FLOAT"}}}, {"name": "StatefulPartitionedCall/StarGANGenerator/instance_normalization_12/moments/variance", "op": "Mean", "input": ["StatefulPartitionedCall/StarGANGenerator/instance_normalization_12/moments/SquaredDifference", "StatefulPartitionedCall/StarGANGenerator/instance_normalization_12/moments/variance/reduction_indices"], "attr": {"T": {"type": "DT_FLOAT"}, "keep_dims": {"b": true}, "Tidx": {"type": "DT_INT32"}}}, {"name": "StatefulPartitionedCall/StarGANGenerator/instance_normalization_12/batchnorm/add", "op": "AddV2", "input": ["StatefulPartitionedCall/StarGANGenerator/instance_normalization_12/moments/variance", "StatefulPartitionedCall/StarGANGenerator/instance_normalization_12/batchnorm/add/y"], "attr": {"T": {"type": "DT_FLOAT"}}}, {"name": "StatefulPartitionedCall/StarGANGenerator/instance_normalization_12/batchnorm/Rsqrt", "op": "Rsqrt", "input": ["StatefulPartitionedCall/StarGANGenerator/instance_normalization_12/batchnorm/add"], "attr": {"T": {"type": "DT_FLOAT"}}}, {"name": "StatefulPartitionedCall/StarGANGenerator/instance_normalization_12/batchnorm/mul", "op": "Mul", "input": ["StatefulPartitionedCall/StarGANGenerator/instance_normalization_12/batchnorm/Rsqrt", "StatefulPartitionedCall/StarGANGenerator/instance_normalization_12/Reshape"], "attr": {"T": {"type": "DT_FLOAT"}}}, {"name": "StatefulPartitionedCall/StarGANGenerator/instance_normalization_12/batchnorm/mul_2", "op": "Mul", "input": ["StatefulPartitionedCall/StarGANGenerator/instance_normalization_12/moments/mean", "StatefulPartitionedCall/StarGANGenerator/instance_normalization_12/batchnorm/mul"], "attr": {"T": {"type": "DT_FLOAT"}}}, {"name": "StatefulPartitionedCall/StarGANGenerator/instance_normalization_12/batchnorm/mul_1", "op": "Mul", "input": ["StatefulPartitionedCall/StarGANGenerator/conv2d_106/Conv2D", "StatefulPartitionedCall/StarGANGenerator/instance_normalization_12/batchnorm/mul"], "attr": {"T": {"type": "DT_FLOAT"}}}, {"name": "StatefulPartitionedCall/StarGANGenerator/instance_normalization_12/batchnorm/sub", "op": "Sub", "input": ["StatefulPartitionedCall/StarGANGenerator/instance_normalization_12/Reshape_1", "StatefulPartitionedCall/StarGANGenerator/instance_normalization_12/batchnorm/mul_2"], "attr": {"T": {"type": "DT_FLOAT"}}}, {"name": "StatefulPartitionedCall/StarGANGenerator/add_4/ArithmeticOptimizer/AddOpsRewrite_Leaf_1_add", "op": "AddN", "input": ["StatefulPartitionedCall/StarGANGenerator/add_3/ArithmeticOptimizer/AddOpsRewrite_add", "StatefulPartitionedCall/StarGANGenerator/instance_normalization_12/batchnorm/mul_1"], "attr": {"_grappler_ArithmeticOptimizer_AddOpsRewriteStage": {"b": true}, "N": {"i": "2"}, "T": {"type": "DT_FLOAT"}}}, {"name": "StatefulPartitionedCall/StarGANGenerator/add_4/ArithmeticOptimizer/AddOpsRewrite_add", "op": "AddV2", "input": ["StatefulPartitionedCall/StarGANGenerator/instance_normalization_12/batchnorm/sub", "StatefulPartitionedCall/StarGANGenerator/add_4/ArithmeticOptimizer/AddOpsRewrite_Leaf_1_add"], "attr": {"T": {"type": "DT_FLOAT"}, "_grappler_ArithmeticOptimizer_AddOpsRewriteStage": {"b": true}}}, {"name": "StatefulPartitionedCall/StarGANGenerator/conv2d_107/Conv2D", "op": "Conv2D", "input": ["StatefulPartitionedCall/StarGANGenerator/add_4/ArithmeticOptimizer/AddOpsRewrite_add", "StatefulPartitionedCall/StarGANGenerator/conv2d_107/Conv2D/ReadVariableOp"], "device": "/device:CPU:0", "attr": {"dilations": {"list": {"i": ["1", "1", "1", "1"]}}, "data_format": {"s": "TkhXQw=="}, "use_cudnn_on_gpu": {"b": true}, "strides": {"list": {"i": ["1", "1", "1", "1"]}}, "T": {"type": "DT_FLOAT"}, "padding": {"s": "U0FNRQ=="}, "explicit_paddings": {"list": {}}}}, {"name": "StatefulPartitionedCall/StarGANGenerator/instance_normalization_13/moments/mean", "op": "Mean", "input": ["StatefulPartitionedCall/StarGANGenerator/conv2d_107/Conv2D", "StatefulPartitionedCall/StarGANGenerator/instance_normalization_13/moments/mean/reduction_indices"], "attr": {"Tidx": {"type": "DT_INT32"}, "T": {"type": "DT_FLOAT"}, "keep_dims": {"b": true}}}, {"name": "StatefulPartitionedCall/StarGANGenerator/instance_normalization_13/moments/SquaredDifference", "op": "SquaredDifference", "input": ["StatefulPartitionedCall/StarGANGenerator/conv2d_107/Conv2D", "StatefulPartitionedCall/StarGANGenerator/instance_normalization_13/moments/mean"], "attr": {"T": {"type": "DT_FLOAT"}}}, {"name": "StatefulPartitionedCall/StarGANGenerator/instance_normalization_13/moments/variance", "op": "Mean", "input": ["StatefulPartitionedCall/StarGANGenerator/instance_normalization_13/moments/SquaredDifference", "StatefulPartitionedCall/StarGANGenerator/instance_normalization_13/moments/variance/reduction_indices"], "attr": {"keep_dims": {"b": true}, "T": {"type": "DT_FLOAT"}, "Tidx": {"type": "DT_INT32"}}}, {"name": "StatefulPartitionedCall/StarGANGenerator/instance_normalization_13/batchnorm/add", "op": "AddV2", "input": ["StatefulPartitionedCall/StarGANGenerator/instance_normalization_13/moments/variance", "StatefulPartitionedCall/StarGANGenerator/instance_normalization_13/batchnorm/add/y"], "attr": {"T": {"type": "DT_FLOAT"}}}, {"name": "StatefulPartitionedCall/StarGANGenerator/instance_normalization_13/batchnorm/Rsqrt", "op": "Rsqrt", "input": ["StatefulPartitionedCall/StarGANGenerator/instance_normalization_13/batchnorm/add"], "attr": {"T": {"type": "DT_FLOAT"}}}, {"name": "StatefulPartitionedCall/StarGANGenerator/instance_normalization_13/batchnorm/mul", "op": "Mul", "input": ["StatefulPartitionedCall/StarGANGenerator/instance_normalization_13/batchnorm/Rsqrt", "StatefulPartitionedCall/StarGANGenerator/instance_normalization_13/Reshape"], "attr": {"T": {"type": "DT_FLOAT"}}}, {"name": "StatefulPartitionedCall/StarGANGenerator/instance_normalization_13/batchnorm/mul_2", "op": "Mul", "input": ["StatefulPartitionedCall/StarGANGenerator/instance_normalization_13/moments/mean", "StatefulPartitionedCall/StarGANGenerator/instance_normalization_13/batchnorm/mul"], "attr": {"T": {"type": "DT_FLOAT"}}}, {"name": "StatefulPartitionedCall/StarGANGenerator/instance_normalization_13/batchnorm/mul_1", "op": "Mul", "input": ["StatefulPartitionedCall/StarGANGenerator/conv2d_107/Conv2D", "StatefulPartitionedCall/StarGANGenerator/instance_normalization_13/batchnorm/mul"], "attr": {"T": {"type": "DT_FLOAT"}}}, {"name": "StatefulPartitionedCall/StarGANGenerator/instance_normalization_13/batchnorm/sub", "op": "Sub", "input": ["StatefulPartitionedCall/StarGANGenerator/instance_normalization_13/Reshape_1", "StatefulPartitionedCall/StarGANGenerator/instance_normalization_13/batchnorm/mul_2"], "attr": {"T": {"type": "DT_FLOAT"}}}, {"name": "StatefulPartitionedCall/StarGANGenerator/instance_normalization_13/batchnorm/add_1", "op": "AddV2", "input": ["StatefulPartitionedCall/StarGANGenerator/instance_normalization_13/batchnorm/mul_1", "StatefulPartitionedCall/StarGANGenerator/instance_normalization_13/batchnorm/sub"], "attr": {"T": {"type": "DT_FLOAT"}}}, {"name": "StatefulPartitionedCall/StarGANGenerator/leaky_re_lu_5/LeakyRelu", "op": "LeakyRelu", "input": ["StatefulPartitionedCall/StarGANGenerator/instance_normalization_13/batchnorm/add_1"], "attr": {"alpha": {"f": 0.3}, "T": {"type": "DT_FLOAT"}}}, {"name": "StatefulPartitionedCall/StarGANGenerator/conv2d_108/Conv2D", "op": "Conv2D", "input": ["StatefulPartitionedCall/StarGANGenerator/leaky_re_lu_5/LeakyRelu", "StatefulPartitionedCall/StarGANGenerator/conv2d_108/Conv2D/ReadVariableOp"], "device": "/device:CPU:0", "attr": {"dilations": {"list": {"i": ["1", "1", "1", "1"]}}, "data_format": {"s": "TkhXQw=="}, "strides": {"list": {"i": ["1", "1", "1", "1"]}}, "use_cudnn_on_gpu": {"b": true}, "padding": {"s": "U0FNRQ=="}, "explicit_paddings": {"list": {}}, "T": {"type": "DT_FLOAT"}}}, {"name": "StatefulPartitionedCall/StarGANGenerator/instance_normalization_14/moments/mean", "op": "Mean", "input": ["StatefulPartitionedCall/StarGANGenerator/conv2d_108/Conv2D", "StatefulPartitionedCall/StarGANGenerator/instance_normalization_14/moments/mean/reduction_indices"], "attr": {"keep_dims": {"b": true}, "Tidx": {"type": "DT_INT32"}, "T": {"type": "DT_FLOAT"}}}, {"name": "StatefulPartitionedCall/StarGANGenerator/instance_normalization_14/moments/SquaredDifference", "op": "SquaredDifference", "input": ["StatefulPartitionedCall/StarGANGenerator/conv2d_108/Conv2D", "StatefulPartitionedCall/StarGANGenerator/instance_normalization_14/moments/mean"], "attr": {"T": {"type": "DT_FLOAT"}}}, {"name": "StatefulPartitionedCall/StarGANGenerator/instance_normalization_14/moments/variance", "op": "Mean", "input": ["StatefulPartitionedCall/StarGANGenerator/instance_normalization_14/moments/SquaredDifference", "StatefulPartitionedCall/StarGANGenerator/instance_normalization_14/moments/variance/reduction_indices"], "attr": {"keep_dims": {"b": true}, "T": {"type": "DT_FLOAT"}, "Tidx": {"type": "DT_INT32"}}}, {"name": "StatefulPartitionedCall/StarGANGenerator/instance_normalization_14/batchnorm/add", "op": "AddV2", "input": ["StatefulPartitionedCall/StarGANGenerator/instance_normalization_14/moments/variance", "StatefulPartitionedCall/StarGANGenerator/instance_normalization_14/batchnorm/add/y"], "attr": {"T": {"type": "DT_FLOAT"}}}, {"name": "StatefulPartitionedCall/StarGANGenerator/instance_normalization_14/batchnorm/Rsqrt", "op": "Rsqrt", "input": ["StatefulPartitionedCall/StarGANGenerator/instance_normalization_14/batchnorm/add"], "attr": {"T": {"type": "DT_FLOAT"}}}, {"name": "StatefulPartitionedCall/StarGANGenerator/instance_normalization_14/batchnorm/mul", "op": "Mul", "input": ["StatefulPartitionedCall/StarGANGenerator/instance_normalization_14/batchnorm/Rsqrt", "StatefulPartitionedCall/StarGANGenerator/instance_normalization_14/Reshape"], "attr": {"T": {"type": "DT_FLOAT"}}}, {"name": "StatefulPartitionedCall/StarGANGenerator/instance_normalization_14/batchnorm/mul_2", "op": "Mul", "input": ["StatefulPartitionedCall/StarGANGenerator/instance_normalization_14/moments/mean", "StatefulPartitionedCall/StarGANGenerator/instance_normalization_14/batchnorm/mul"], "attr": {"T": {"type": "DT_FLOAT"}}}, {"name": "StatefulPartitionedCall/StarGANGenerator/instance_normalization_14/batchnorm/mul_1", "op": "Mul", "input": ["StatefulPartitionedCall/StarGANGenerator/conv2d_108/Conv2D", "StatefulPartitionedCall/StarGANGenerator/instance_normalization_14/batchnorm/mul"], "attr": {"T": {"type": "DT_FLOAT"}}}, {"name": "StatefulPartitionedCall/StarGANGenerator/instance_normalization_14/batchnorm/sub", "op": "Sub", "input": ["StatefulPartitionedCall/StarGANGenerator/instance_normalization_14/Reshape_1", "StatefulPartitionedCall/StarGANGenerator/instance_normalization_14/batchnorm/mul_2"], "attr": {"T": {"type": "DT_FLOAT"}}}, {"name": "StatefulPartitionedCall/StarGANGenerator/add_5/ArithmeticOptimizer/AddOpsRewrite_Leaf_1_add", "op": "AddN", "input": ["StatefulPartitionedCall/StarGANGenerator/add_4/ArithmeticOptimizer/AddOpsRewrite_add", "StatefulPartitionedCall/StarGANGenerator/instance_normalization_14/batchnorm/mul_1"], "attr": {"T": {"type": "DT_FLOAT"}, "_grappler_ArithmeticOptimizer_AddOpsRewriteStage": {"b": true}, "N": {"i": "2"}}}, {"name": "StatefulPartitionedCall/StarGANGenerator/add_5/ArithmeticOptimizer/AddOpsRewrite_add", "op": "AddV2", "input": ["StatefulPartitionedCall/StarGANGenerator/instance_normalization_14/batchnorm/sub", "StatefulPartitionedCall/StarGANGenerator/add_5/ArithmeticOptimizer/AddOpsRewrite_Leaf_1_add"], "attr": {"_grappler_ArithmeticOptimizer_AddOpsRewriteStage": {"b": true}, "T": {"type": "DT_FLOAT"}}}, {"name": "StatefulPartitionedCall/StarGANGenerator/conv2d_transpose/Shape", "op": "Shape", "input": ["StatefulPartitionedCall/StarGANGenerator/add_5/ArithmeticOptimizer/AddOpsRewrite_add"], "attr": {"out_type": {"type": "DT_INT32"}, "T": {"type": "DT_FLOAT"}}}, {"name": "StatefulPartitionedCall/StarGANGenerator/conv2d_transpose/strided_slice", "op": "StridedSlice", "input": ["StatefulPartitionedCall/StarGANGenerator/conv2d_transpose/Shape", "StatefulPartitionedCall/StarGANGenerator/conv2d_transpose/strided_slice/stack", "StatefulPartitionedCall/StarGANGenerator/conv2d_transpose/strided_slice/stack_1", "StatefulPartitionedCall/StarGANGenerator/conv2d_transpose/strided_slice/stack_2"], "attr": {"end_mask": {"i": "0"}, "ellipsis_mask": {"i": "0"}, "new_axis_mask": {"i": "0"}, "Index": {"type": "DT_INT32"}, "begin_mask": {"i": "0"}, "shrink_axis_mask": {"i": "1"}, "T": {"type": "DT_INT32"}}}, {"name": "StatefulPartitionedCall/StarGANGenerator/conv2d_transpose/stack", "op": "Pack", "input": ["StatefulPartitionedCall/StarGANGenerator/conv2d_transpose/strided_slice", "StatefulPartitionedCall/StarGANGenerator/conv2d_transpose/stack/1", "StatefulPartitionedCall/StarGANGenerator/conv2d_transpose/stack/2", "StatefulPartitionedCall/StarGANGenerator/conv2d_transpose/stack/3"], "attr": {"axis": {"i": "0"}, "T": {"type": "DT_INT32"}, "N": {"i": "4"}}}, {"name": "StatefulPartitionedCall/StarGANGenerator/conv2d_transpose/conv2d_transpose", "op": "Conv2DBackpropInput", "input": ["StatefulPartitionedCall/StarGANGenerator/conv2d_transpose/stack", "StatefulPartitionedCall/StarGANGenerator/conv2d_transpose/conv2d_transpose/ReadVariableOp", "StatefulPartitionedCall/StarGANGenerator/add_5/ArithmeticOptimizer/AddOpsRewrite_add"], "attr": {"T": {"type": "DT_FLOAT"}, "use_cudnn_on_gpu": {"b": true}, "explicit_paddings": {"list": {}}, "strides": {"list": {"i": ["1", "2", "2", "1"]}}, "dilations": {"list": {"i": ["1", "1", "1", "1"]}}, "padding": {"s": "U0FNRQ=="}, "data_format": {"s": "TkhXQw=="}}}, {"name": "StatefulPartitionedCall/StarGANGenerator/instance_normalization_15/moments/mean", "op": "Mean", "input": ["StatefulPartitionedCall/StarGANGenerator/conv2d_transpose/conv2d_transpose", "StatefulPartitionedCall/StarGANGenerator/instance_normalization_15/moments/mean/reduction_indices"], "attr": {"T": {"type": "DT_FLOAT"}, "keep_dims": {"b": true}, "Tidx": {"type": "DT_INT32"}}}, {"name": "StatefulPartitionedCall/StarGANGenerator/instance_normalization_15/moments/SquaredDifference", "op": "SquaredDifference", "input": ["StatefulPartitionedCall/StarGANGenerator/conv2d_transpose/conv2d_transpose", "StatefulPartitionedCall/StarGANGenerator/instance_normalization_15/moments/mean"], "attr": {"T": {"type": "DT_FLOAT"}}}, {"name": "StatefulPartitionedCall/StarGANGenerator/instance_normalization_15/moments/variance", "op": "Mean", "input": ["StatefulPartitionedCall/StarGANGenerator/instance_normalization_15/moments/SquaredDifference", "StatefulPartitionedCall/StarGANGenerator/instance_normalization_15/moments/variance/reduction_indices"], "attr": {"keep_dims": {"b": true}, "Tidx": {"type": "DT_INT32"}, "T": {"type": "DT_FLOAT"}}}, {"name": "StatefulPartitionedCall/StarGANGenerator/instance_normalization_15/batchnorm/add", "op": "AddV2", "input": ["StatefulPartitionedCall/StarGANGenerator/instance_normalization_15/moments/variance", "StatefulPartitionedCall/StarGANGenerator/instance_normalization_15/batchnorm/add/y"], "attr": {"T": {"type": "DT_FLOAT"}}}, {"name": "StatefulPartitionedCall/StarGANGenerator/instance_normalization_15/batchnorm/Rsqrt", "op": "Rsqrt", "input": ["StatefulPartitionedCall/StarGANGenerator/instance_normalization_15/batchnorm/add"], "attr": {"T": {"type": "DT_FLOAT"}}}, {"name": "StatefulPartitionedCall/StarGANGenerator/instance_normalization_15/batchnorm/mul", "op": "Mul", "input": ["StatefulPartitionedCall/StarGANGenerator/instance_normalization_15/batchnorm/Rsqrt", "StatefulPartitionedCall/StarGANGenerator/instance_normalization_15/Reshape"], "attr": {"T": {"type": "DT_FLOAT"}}}, {"name": "StatefulPartitionedCall/StarGANGenerator/instance_normalization_15/batchnorm/mul_2", "op": "Mul", "input": ["StatefulPartitionedCall/StarGANGenerator/instance_normalization_15/moments/mean", "StatefulPartitionedCall/StarGANGenerator/instance_normalization_15/batchnorm/mul"], "attr": {"T": {"type": "DT_FLOAT"}}}, {"name": "StatefulPartitionedCall/StarGANGenerator/instance_normalization_15/batchnorm/mul_1", "op": "Mul", "input": ["StatefulPartitionedCall/StarGANGenerator/conv2d_transpose/conv2d_transpose", "StatefulPartitionedCall/StarGANGenerator/instance_normalization_15/batchnorm/mul"], "attr": {"T": {"type": "DT_FLOAT"}}}, {"name": "StatefulPartitionedCall/StarGANGenerator/instance_normalization_15/batchnorm/sub", "op": "Sub", "input": ["StatefulPartitionedCall/StarGANGenerator/instance_normalization_15/Reshape_1", "StatefulPartitionedCall/StarGANGenerator/instance_normalization_15/batchnorm/mul_2"], "attr": {"T": {"type": "DT_FLOAT"}}}, {"name": "StatefulPartitionedCall/StarGANGenerator/instance_normalization_15/batchnorm/add_1", "op": "AddV2", "input": ["StatefulPartitionedCall/StarGANGenerator/instance_normalization_15/batchnorm/mul_1", "StatefulPartitionedCall/StarGANGenerator/instance_normalization_15/batchnorm/sub"], "attr": {"T": {"type": "DT_FLOAT"}}}, {"name": "StatefulPartitionedCall/StarGANGenerator/re_lu_3/Relu", "op": "Relu", "input": ["StatefulPartitionedCall/StarGANGenerator/instance_normalization_15/batchnorm/add_1"], "attr": {"T": {"type": "DT_FLOAT"}}}, {"name": "StatefulPartitionedCall/StarGANGenerator/conv2d_transpose_1/Shape", "op": "Shape", "input": ["StatefulPartitionedCall/StarGANGenerator/re_lu_3/Relu"], "attr": {"out_type": {"type": "DT_INT32"}, "T": {"type": "DT_FLOAT"}}}, {"name": "StatefulPartitionedCall/StarGANGenerator/conv2d_transpose_1/strided_slice", "op": "StridedSlice", "input": ["StatefulPartitionedCall/StarGANGenerator/conv2d_transpose_1/Shape", "StatefulPartitionedCall/StarGANGenerator/conv2d_transpose_1/strided_slice/stack", "StatefulPartitionedCall/StarGANGenerator/conv2d_transpose_1/strided_slice/stack_1", "StatefulPartitionedCall/StarGANGenerator/conv2d_transpose_1/strided_slice/stack_2"], "attr": {"T": {"type": "DT_INT32"}, "begin_mask": {"i": "0"}, "end_mask": {"i": "0"}, "ellipsis_mask": {"i": "0"}, "shrink_axis_mask": {"i": "1"}, "new_axis_mask": {"i": "0"}, "Index": {"type": "DT_INT32"}}}, {"name": "StatefulPartitionedCall/StarGANGenerator/conv2d_transpose_1/stack", "op": "Pack", "input": ["StatefulPartitionedCall/StarGANGenerator/conv2d_transpose_1/strided_slice", "StatefulPartitionedCall/StarGANGenerator/conv2d_transpose_1/stack/1", "StatefulPartitionedCall/StarGANGenerator/conv2d_transpose_1/stack/2", "StatefulPartitionedCall/StarGANGenerator/conv2d_transpose_1/stack/3"], "attr": {"axis": {"i": "0"}, "T": {"type": "DT_INT32"}, "N": {"i": "4"}}}, {"name": "StatefulPartitionedCall/StarGANGenerator/conv2d_transpose_1/conv2d_transpose", "op": "Conv2DBackpropInput", "input": ["StatefulPartitionedCall/StarGANGenerator/conv2d_transpose_1/stack", "StatefulPartitionedCall/StarGANGenerator/conv2d_transpose_1/conv2d_transpose/ReadVariableOp", "StatefulPartitionedCall/StarGANGenerator/re_lu_3/Relu"], "attr": {"padding": {"s": "U0FNRQ=="}, "T": {"type": "DT_FLOAT"}, "use_cudnn_on_gpu": {"b": true}, "explicit_paddings": {"list": {}}, "strides": {"list": {"i": ["1", "2", "2", "1"]}}, "dilations": {"list": {"i": ["1", "1", "1", "1"]}}, "data_format": {"s": "TkhXQw=="}}}, {"name": "StatefulPartitionedCall/StarGANGenerator/instance_normalization_16/moments/mean", "op": "Mean", "input": ["StatefulPartitionedCall/StarGANGenerator/conv2d_transpose_1/conv2d_transpose", "StatefulPartitionedCall/StarGANGenerator/instance_normalization_16/moments/mean/reduction_indices"], "attr": {"T": {"type": "DT_FLOAT"}, "keep_dims": {"b": true}, "Tidx": {"type": "DT_INT32"}}}, {"name": "StatefulPartitionedCall/StarGANGenerator/instance_normalization_16/moments/SquaredDifference", "op": "SquaredDifference", "input": ["StatefulPartitionedCall/StarGANGenerator/conv2d_transpose_1/conv2d_transpose", "StatefulPartitionedCall/StarGANGenerator/instance_normalization_16/moments/mean"], "attr": {"T": {"type": "DT_FLOAT"}}}, {"name": "StatefulPartitionedCall/StarGANGenerator/instance_normalization_16/moments/variance", "op": "Mean", "input": ["StatefulPartitionedCall/StarGANGenerator/instance_normalization_16/moments/SquaredDifference", "StatefulPartitionedCall/StarGANGenerator/instance_normalization_16/moments/variance/reduction_indices"], "attr": {"T": {"type": "DT_FLOAT"}, "Tidx": {"type": "DT_INT32"}, "keep_dims": {"b": true}}}, {"name": "StatefulPartitionedCall/StarGANGenerator/instance_normalization_16/batchnorm/add", "op": "AddV2", "input": ["StatefulPartitionedCall/StarGANGenerator/instance_normalization_16/moments/variance", "StatefulPartitionedCall/StarGANGenerator/instance_normalization_16/batchnorm/add/y"], "attr": {"T": {"type": "DT_FLOAT"}}}, {"name": "StatefulPartitionedCall/StarGANGenerator/instance_normalization_16/batchnorm/Rsqrt", "op": "Rsqrt", "input": ["StatefulPartitionedCall/StarGANGenerator/instance_normalization_16/batchnorm/add"], "attr": {"T": {"type": "DT_FLOAT"}}}, {"name": "StatefulPartitionedCall/StarGANGenerator/instance_normalization_16/batchnorm/mul", "op": "Mul", "input": ["StatefulPartitionedCall/StarGANGenerator/instance_normalization_16/batchnorm/Rsqrt", "StatefulPartitionedCall/StarGANGenerator/instance_normalization_16/Reshape"], "attr": {"T": {"type": "DT_FLOAT"}}}, {"name": "StatefulPartitionedCall/StarGANGenerator/instance_normalization_16/batchnorm/mul_2", "op": "Mul", "input": ["StatefulPartitionedCall/StarGANGenerator/instance_normalization_16/moments/mean", "StatefulPartitionedCall/StarGANGenerator/instance_normalization_16/batchnorm/mul"], "attr": {"T": {"type": "DT_FLOAT"}}}, {"name": "StatefulPartitionedCall/StarGANGenerator/instance_normalization_16/batchnorm/mul_1", "op": "Mul", "input": ["StatefulPartitionedCall/StarGANGenerator/conv2d_transpose_1/conv2d_transpose", "StatefulPartitionedCall/StarGANGenerator/instance_normalization_16/batchnorm/mul"], "attr": {"T": {"type": "DT_FLOAT"}}}, {"name": "StatefulPartitionedCall/StarGANGenerator/instance_normalization_16/batchnorm/sub", "op": "Sub", "input": ["StatefulPartitionedCall/StarGANGenerator/instance_normalization_16/Reshape_1", "StatefulPartitionedCall/StarGANGenerator/instance_normalization_16/batchnorm/mul_2"], "attr": {"T": {"type": "DT_FLOAT"}}}, {"name": "StatefulPartitionedCall/StarGANGenerator/instance_normalization_16/batchnorm/add_1", "op": "AddV2", "input": ["StatefulPartitionedCall/StarGANGenerator/instance_normalization_16/batchnorm/mul_1", "StatefulPartitionedCall/StarGANGenerator/instance_normalization_16/batchnorm/sub"], "attr": {"T": {"type": "DT_FLOAT"}}}, {"name": "StatefulPartitionedCall/StarGANGenerator/re_lu_4/Relu", "op": "Relu", "input": ["StatefulPartitionedCall/StarGANGenerator/instance_normalization_16/batchnorm/add_1"], "attr": {"T": {"type": "DT_FLOAT"}}}, {"name": "StatefulPartitionedCall/StarGANGenerator/conv2d_109/Conv2D", "op": "Conv2D", "input": ["StatefulPartitionedCall/StarGANGenerator/re_lu_4/Relu", "StatefulPartitionedCall/StarGANGenerator/conv2d_109/Conv2D/ReadVariableOp"], "device": "/device:CPU:0", "attr": {"use_cudnn_on_gpu": {"b": true}, "data_format": {"s": "TkhXQw=="}, "strides": {"list": {"i": ["1", "1", "1", "1"]}}, "explicit_paddings": {"list": {}}, "dilations": {"list": {"i": ["1", "1", "1", "1"]}}, "T": {"type": "DT_FLOAT"}, "padding": {"s": "U0FNRQ=="}}}, {"name": "StatefulPartitionedCall/StarGANGenerator/generated_image/Tanh", "op": "Tanh", "input": ["StatefulPartitionedCall/StarGANGenerator/conv2d_109/Conv2D"], "attr": {"T": {"type": "DT_FLOAT"}}}, {"name": "Identity", "op": "Identity", "input": ["StatefulPartitionedCall/StarGANGenerator/generated_image/Tanh"], "attr": {"T": {"type": "DT_FLOAT"}}}], "library": {}, "versions": {"producer": 1087}}, "weightsManifest": [{"paths": ["group1-shard1of9.bin", "group1-shard2of9.bin", "group1-shard3of9.bin", "group1-shard4of9.bin", "group1-shard5of9.bin", "group1-shard6of9.bin", "group1-shard7of9.bin", "group1-shard8of9.bin", "group1-shard9of9.bin"], "weights": [{"name": "StatefulPartitionedCall/StarGANGenerator/instance_normalization_16/Reshape_1", "shape": [1, 1, 1, 64], "dtype": "float32"}, {"name": "StatefulPartitionedCall/StarGANGenerator/conv2d_transpose_1/strided_slice/stack", "shape": [1], "dtype": "int32"}, {"name": "StatefulPartitionedCall/StarGANGenerator/conv2d_transpose_1/strided_slice/stack_1", "shape": [1], "dtype": "int32"}, {"name": "StatefulPartitionedCall/StarGANGenerator/conv2d_transpose_1/strided_slice/stack_2", "shape": [1], "dtype": "int32"}, {"name": "StatefulPartitionedCall/StarGANGenerator/conv2d_transpose_1/stack/1", "shape": [], "dtype": "int32"}, {"name": "StatefulPartitionedCall/StarGANGenerator/conv2d_transpose_1/stack/2", "shape": [], "dtype": "int32"}, {"name": "StatefulPartitionedCall/StarGANGenerator/conv2d_transpose_1/stack/3", "shape": [], "dtype": "int32"}, {"name": "StatefulPartitionedCall/StarGANGenerator/conv2d_transpose_1/conv2d_transpose/ReadVariableOp", "shape": [4, 4, 64, 128], "dtype": "float32"}, {"name": "StatefulPartitionedCall/StarGANGenerator/instance_normalization_15/Reshape_1", "shape": [1, 1, 1, 128], "dtype": "float32"}, {"name": "StatefulPartitionedCall/StarGANGenerator/conv2d_transpose/strided_slice/stack", "shape": [1], "dtype": "int32"}, {"name": "StatefulPartitionedCall/StarGANGenerator/conv2d_transpose/strided_slice/stack_1", "shape": [1], "dtype": "int32"}, {"name": "StatefulPartitionedCall/StarGANGenerator/conv2d_transpose/strided_slice/stack_2", "shape": [1], "dtype": "int32"}, {"name": "StatefulPartitionedCall/StarGANGenerator/conv2d_transpose/stack/1", "shape": [], "dtype": "int32"}, {"name": "StatefulPartitionedCall/StarGANGenerator/conv2d_transpose/stack/2", "shape": [], "dtype": "int32"}, {"name": "StatefulPartitionedCall/StarGANGenerator/conv2d_transpose/stack/3", "shape": [], "dtype": "int32"}, {"name": "StatefulPartitionedCall/StarGANGenerator/conv2d_transpose/conv2d_transpose/ReadVariableOp", "shape": [4, 4, 128, 256], "dtype": "float32"}, {"name": "StatefulPartitionedCall/StarGANGenerator/instance_normalization_14/Reshape_1", "shape": [1, 1, 1, 256], "dtype": "float32"}, {"name": "StatefulPartitionedCall/StarGANGenerator/instance_normalization_13/Reshape_1", "shape": [1, 1, 1, 256], "dtype": "float32"}, {"name": "StatefulPartitionedCall/StarGANGenerator/instance_normalization_12/Reshape_1", "shape": [1, 1, 1, 256], "dtype": "float32"}, {"name": "StatefulPartitionedCall/StarGANGenerator/instance_normalization_11/Reshape_1", "shape": [1, 1, 1, 256], "dtype": "float32"}, {"name": "StatefulPartitionedCall/StarGANGenerator/instance_normalization_10/Reshape_1", "shape": [1, 1, 1, 256], "dtype": "float32"}, {"name": "StatefulPartitionedCall/StarGANGenerator/instance_normalization_9/Reshape_1", "shape": [1, 1, 1, 256], "dtype": "float32"}, {"name": "StatefulPartitionedCall/StarGANGenerator/instance_normalization_8/Reshape_1", "shape": [1, 1, 1, 256], "dtype": "float32"}, {"name": "StatefulPartitionedCall/StarGANGenerator/instance_normalization_7/Reshape_1", "shape": [1, 1, 1, 256], "dtype": "float32"}, {"name": "StatefulPartitionedCall/StarGANGenerator/instance_normalization_6/Reshape_1", "shape": [1, 1, 1, 256], "dtype": "float32"}, {"name": "StatefulPartitionedCall/StarGANGenerator/instance_normalization_5/Reshape_1", "shape": [1, 1, 1, 256], "dtype": "float32"}, {"name": "StatefulPartitionedCall/StarGANGenerator/instance_normalization_4/Reshape_1", "shape": [1, 1, 1, 256], "dtype": "float32"}, {"name": "StatefulPartitionedCall/StarGANGenerator/instance_normalization_3/Reshape_1", "shape": [1, 1, 1, 256], "dtype": "float32"}, {"name": "StatefulPartitionedCall/StarGANGenerator/instance_normalization_2/Reshape_1", "shape": [1, 1, 1, 256], "dtype": "float32"}, {"name": "StatefulPartitionedCall/StarGANGenerator/instance_normalization_1/Reshape_1", "shape": [1, 1, 1, 128], "dtype": "float32"}, {"name": "StatefulPartitionedCall/StarGANGenerator/instance_normalization/Reshape_1", "shape": [1, 1, 1, 64], "dtype": "float32"}, {"name": "StatefulPartitionedCall/StarGANGenerator/conv2d_94/Conv2D/ReadVariableOp", "shape": [7, 7, 8, 64], "dtype": "float32"}, {"name": "StatefulPartitionedCall/StarGANGenerator/instance_normalization/moments/mean/reduction_indices", "shape": [2], "dtype": "int32"}, {"name": "StatefulPartitionedCall/StarGANGenerator/instance_normalization/moments/variance/reduction_indices", "shape": [2], "dtype": "int32"}, {"name": "StatefulPartitionedCall/StarGANGenerator/instance_normalization/batchnorm/add/y", "shape": [], "dtype": "float32"}, {"name": "StatefulPartitionedCall/StarGANGenerator/instance_normalization/Reshape", "shape": [1, 1, 1, 64], "dtype": "float32"}, {"name": "StatefulPartitionedCall/StarGANGenerator/conv2d_95/Conv2D/ReadVariableOp", "shape": [4, 4, 64, 128], "dtype": "float32"}, {"name": "StatefulPartitionedCall/StarGANGenerator/instance_normalization_1/moments/mean/reduction_indices", "shape": [2], "dtype": "int32"}, {"name": "StatefulPartitionedCall/StarGANGenerator/instance_normalization_1/moments/variance/reduction_indices", "shape": [2], "dtype": "int32"}, {"name": "StatefulPartitionedCall/StarGANGenerator/instance_normalization_1/batchnorm/add/y", "shape": [], "dtype": "float32"}, {"name": "StatefulPartitionedCall/StarGANGenerator/instance_normalization_1/Reshape", "shape": [1, 1, 1, 128], "dtype": "float32"}, {"name": "StatefulPartitionedCall/StarGANGenerator/conv2d_96/Conv2D/ReadVariableOp", "shape": [4, 4, 128, 256], "dtype": "float32"}, {"name": "StatefulPartitionedCall/StarGANGenerator/instance_normalization_2/moments/mean/reduction_indices", "shape": [2], "dtype": "int32"}, {"name": "StatefulPartitionedCall/StarGANGenerator/instance_normalization_2/moments/variance/reduction_indices", "shape": [2], "dtype": "int32"}, {"name": "StatefulPartitionedCall/StarGANGenerator/instance_normalization_2/batchnorm/add/y", "shape": [], "dtype": "float32"}, {"name": "StatefulPartitionedCall/StarGANGenerator/instance_normalization_2/Reshape", "shape": [1, 1, 1, 256], "dtype": "float32"}, {"name": "StatefulPartitionedCall/StarGANGenerator/conv2d_97/Conv2D/ReadVariableOp", "shape": [3, 3, 256, 256], "dtype": "float32"}, {"name": "StatefulPartitionedCall/StarGANGenerator/instance_normalization_3/moments/mean/reduction_indices", "shape": [2], "dtype": "int32"}, {"name": "StatefulPartitionedCall/StarGANGenerator/instance_normalization_3/moments/variance/reduction_indices", "shape": [2], "dtype": "int32"}, {"name": "StatefulPartitionedCall/StarGANGenerator/instance_normalization_3/batchnorm/add/y", "shape": [], "dtype": "float32"}, {"name": "StatefulPartitionedCall/StarGANGenerator/instance_normalization_3/Reshape", "shape": [1, 1, 1, 256], "dtype": "float32"}, {"name": "StatefulPartitionedCall/StarGANGenerator/conv2d_98/Conv2D/ReadVariableOp", "shape": [3, 3, 256, 256], "dtype": "float32"}, {"name": "StatefulPartitionedCall/StarGANGenerator/instance_normalization_4/moments/mean/reduction_indices", "shape": [2], "dtype": "int32"}, {"name": "StatefulPartitionedCall/StarGANGenerator/instance_normalization_4/moments/variance/reduction_indices", "shape": [2], "dtype": "int32"}, {"name": "StatefulPartitionedCall/StarGANGenerator/instance_normalization_4/batchnorm/add/y", "shape": [], "dtype": "float32"}, {"name": "StatefulPartitionedCall/StarGANGenerator/instance_normalization_4/Reshape", "shape": [1, 1, 1, 256], "dtype": "float32"}, {"name": "StatefulPartitionedCall/StarGANGenerator/conv2d_99/Conv2D/ReadVariableOp", "shape": [3, 3, 256, 256], "dtype": "float32"}, {"name": "StatefulPartitionedCall/StarGANGenerator/instance_normalization_5/moments/mean/reduction_indices", "shape": [2], "dtype": "int32"}, {"name": "StatefulPartitionedCall/StarGANGenerator/instance_normalization_5/moments/variance/reduction_indices", "shape": [2], "dtype": "int32"}, {"name": "StatefulPartitionedCall/StarGANGenerator/instance_normalization_5/batchnorm/add/y", "shape": [], "dtype": "float32"}, {"name": "StatefulPartitionedCall/StarGANGenerator/instance_normalization_5/Reshape", "shape": [1, 1, 1, 256], "dtype": "float32"}, {"name": "StatefulPartitionedCall/StarGANGenerator/conv2d_100/Conv2D/ReadVariableOp", "shape": [3, 3, 256, 256], "dtype": "float32"}, {"name": "StatefulPartitionedCall/StarGANGenerator/instance_normalization_6/moments/mean/reduction_indices", "shape": [2], "dtype": "int32"}, {"name": "StatefulPartitionedCall/StarGANGenerator/instance_normalization_6/moments/variance/reduction_indices", "shape": [2], "dtype": "int32"}, {"name": "StatefulPartitionedCall/StarGANGenerator/instance_normalization_6/batchnorm/add/y", "shape": [], "dtype": "float32"}, {"name": "StatefulPartitionedCall/StarGANGenerator/instance_normalization_6/Reshape", "shape": [1, 1, 1, 256], "dtype": "float32"}, {"name": "StatefulPartitionedCall/StarGANGenerator/conv2d_101/Conv2D/ReadVariableOp", "shape": [3, 3, 256, 256], "dtype": "float32"}, {"name": "StatefulPartitionedCall/StarGANGenerator/instance_normalization_7/moments/mean/reduction_indices", "shape": [2], "dtype": "int32"}, {"name": "StatefulPartitionedCall/StarGANGenerator/instance_normalization_7/moments/variance/reduction_indices", "shape": [2], "dtype": "int32"}, {"name": "StatefulPartitionedCall/StarGANGenerator/instance_normalization_7/batchnorm/add/y", "shape": [], "dtype": "float32"}, {"name": "StatefulPartitionedCall/StarGANGenerator/instance_normalization_7/Reshape", "shape": [1, 1, 1, 256], "dtype": "float32"}, {"name": "StatefulPartitionedCall/StarGANGenerator/conv2d_102/Conv2D/ReadVariableOp", "shape": [3, 3, 256, 256], "dtype": "float32"}, {"name": "StatefulPartitionedCall/StarGANGenerator/instance_normalization_8/moments/mean/reduction_indices", "shape": [2], "dtype": "int32"}, {"name": "StatefulPartitionedCall/StarGANGenerator/instance_normalization_8/moments/variance/reduction_indices", "shape": [2], "dtype": "int32"}, {"name": "StatefulPartitionedCall/StarGANGenerator/instance_normalization_8/batchnorm/add/y", "shape": [], "dtype": "float32"}, {"name": "StatefulPartitionedCall/StarGANGenerator/instance_normalization_8/Reshape", "shape": [1, 1, 1, 256], "dtype": "float32"}, {"name": "StatefulPartitionedCall/StarGANGenerator/conv2d_103/Conv2D/ReadVariableOp", "shape": [3, 3, 256, 256], "dtype": "float32"}, {"name": "StatefulPartitionedCall/StarGANGenerator/instance_normalization_9/moments/mean/reduction_indices", "shape": [2], "dtype": "int32"}, {"name": "StatefulPartitionedCall/StarGANGenerator/instance_normalization_9/moments/variance/reduction_indices", "shape": [2], "dtype": "int32"}, {"name": "StatefulPartitionedCall/StarGANGenerator/instance_normalization_9/batchnorm/add/y", "shape": [], "dtype": "float32"}, {"name": "StatefulPartitionedCall/StarGANGenerator/instance_normalization_9/Reshape", "shape": [1, 1, 1, 256], "dtype": "float32"}, {"name": "StatefulPartitionedCall/StarGANGenerator/conv2d_104/Conv2D/ReadVariableOp", "shape": [3, 3, 256, 256], "dtype": "float32"}, {"name": "StatefulPartitionedCall/StarGANGenerator/instance_normalization_10/moments/mean/reduction_indices", "shape": [2], "dtype": "int32"}, {"name": "StatefulPartitionedCall/StarGANGenerator/instance_normalization_10/moments/variance/reduction_indices", "shape": [2], "dtype": "int32"}, {"name": "StatefulPartitionedCall/StarGANGenerator/instance_normalization_10/batchnorm/add/y", "shape": [], "dtype": "float32"}, {"name": "StatefulPartitionedCall/StarGANGenerator/instance_normalization_10/Reshape", "shape": [1, 1, 1, 256], "dtype": "float32"}, {"name": "StatefulPartitionedCall/StarGANGenerator/conv2d_105/Conv2D/ReadVariableOp", "shape": [3, 3, 256, 256], "dtype": "float32"}, {"name": "StatefulPartitionedCall/StarGANGenerator/instance_normalization_11/moments/mean/reduction_indices", "shape": [2], "dtype": "int32"}, {"name": "StatefulPartitionedCall/StarGANGenerator/instance_normalization_11/moments/variance/reduction_indices", "shape": [2], "dtype": "int32"}, {"name": "StatefulPartitionedCall/StarGANGenerator/instance_normalization_11/batchnorm/add/y", "shape": [], "dtype": "float32"}, {"name": "StatefulPartitionedCall/StarGANGenerator/instance_normalization_11/Reshape", "shape": [1, 1, 1, 256], "dtype": "float32"}, {"name": "StatefulPartitionedCall/StarGANGenerator/conv2d_106/Conv2D/ReadVariableOp", "shape": [3, 3, 256, 256], "dtype": "float32"}, {"name": "StatefulPartitionedCall/StarGANGenerator/instance_normalization_12/moments/mean/reduction_indices", "shape": [2], "dtype": "int32"}, {"name": "StatefulPartitionedCall/StarGANGenerator/instance_normalization_12/moments/variance/reduction_indices", "shape": [2], "dtype": "int32"}, {"name": "StatefulPartitionedCall/StarGANGenerator/instance_normalization_12/batchnorm/add/y", "shape": [], "dtype": "float32"}, {"name": "StatefulPartitionedCall/StarGANGenerator/instance_normalization_12/Reshape", "shape": [1, 1, 1, 256], "dtype": "float32"}, {"name": "StatefulPartitionedCall/StarGANGenerator/conv2d_107/Conv2D/ReadVariableOp", "shape": [3, 3, 256, 256], "dtype": "float32"}, {"name": "StatefulPartitionedCall/StarGANGenerator/instance_normalization_13/moments/mean/reduction_indices", "shape": [2], "dtype": "int32"}, {"name": "StatefulPartitionedCall/StarGANGenerator/instance_normalization_13/moments/variance/reduction_indices", "shape": [2], "dtype": "int32"}, {"name": "StatefulPartitionedCall/StarGANGenerator/instance_normalization_13/batchnorm/add/y", "shape": [], "dtype": "float32"}, {"name": "StatefulPartitionedCall/StarGANGenerator/instance_normalization_13/Reshape", "shape": [1, 1, 1, 256], "dtype": "float32"}, {"name": "StatefulPartitionedCall/StarGANGenerator/conv2d_108/Conv2D/ReadVariableOp", "shape": [3, 3, 256, 256], "dtype": "float32"}, {"name": "StatefulPartitionedCall/StarGANGenerator/instance_normalization_14/moments/mean/reduction_indices", "shape": [2], "dtype": "int32"}, {"name": "StatefulPartitionedCall/StarGANGenerator/instance_normalization_14/moments/variance/reduction_indices", "shape": [2], "dtype": "int32"}, {"name": "StatefulPartitionedCall/StarGANGenerator/instance_normalization_14/batchnorm/add/y", "shape": [], "dtype": "float32"}, {"name": "StatefulPartitionedCall/StarGANGenerator/instance_normalization_14/Reshape", "shape": [1, 1, 1, 256], "dtype": "float32"}, {"name": "StatefulPartitionedCall/StarGANGenerator/instance_normalization_15/moments/mean/reduction_indices", "shape": [2], "dtype": "int32"}, {"name": "StatefulPartitionedCall/StarGANGenerator/instance_normalization_15/moments/variance/reduction_indices", "shape": [2], "dtype": "int32"}, {"name": "StatefulPartitionedCall/StarGANGenerator/instance_normalization_15/batchnorm/add/y", "shape": [], "dtype": "float32"}, {"name": "StatefulPartitionedCall/StarGANGenerator/instance_normalization_15/Reshape", "shape": [1, 1, 1, 128], "dtype": "float32"}, {"name": "StatefulPartitionedCall/StarGANGenerator/instance_normalization_16/moments/mean/reduction_indices", "shape": [2], "dtype": "int32"}, {"name": "StatefulPartitionedCall/StarGANGenerator/instance_normalization_16/moments/variance/reduction_indices", "shape": [2], "dtype": "int32"}, {"name": "StatefulPartitionedCall/StarGANGenerator/instance_normalization_16/batchnorm/add/y", "shape": [], "dtype": "float32"}, {"name": "StatefulPartitionedCall/StarGANGenerator/instance_normalization_16/Reshape", "shape": [1, 1, 1, 64], "dtype": "float32"}, {"name": "StatefulPartitionedCall/StarGANGenerator/conv2d_109/Conv2D/ReadVariableOp", "shape": [7, 7, 64, 4], "dtype": "float32"}]}]}