{"format": "graph-model", "generatedBy": "2.10.1", "convertedBy": "TensorFlow.js Converter v3.21.0", "signature": {"inputs": {"input_2": {"name": "input_2:0", "dtype": "DT_FLOAT", "tensorShape": {"dim": [{"size": "-1"}, {"size": "64"}, {"size": "64"}, {"size": "4"}]}}}, "outputs": {"conv2d_100": {"name": "Identity:0", "dtype": "DT_FLOAT", "tensorShape": {"dim": [{"size": "-1"}, {"size": "64"}, {"size": "64"}, {"size": "4"}]}}}}, "modelTopology": {"node": [{"name": "StatefulPartitionedCall/unet-gen/sequential_11/instance_normalization_10/Reshape_1", "op": "Const", "attr": {"value": {"tensor": {"dtype": "DT_FLOAT", "tensorShape": {"dim": [{"size": "1"}, {"size": "1"}, {"size": "1"}, {"size": "32"}]}}}, "dtype": {"type": "DT_FLOAT"}}}, {"name": "StatefulPartitionedCall/unet-gen/sequential_11/conv2d_transpose_5/strided_slice/stack", "op": "Const", "attr": {"value": {"tensor": {"dtype": "DT_INT32", "tensorShape": {"dim": [{"size": "1"}]}}}, "dtype": {"type": "DT_INT32"}}}, {"name": "StatefulPartitionedCall/unet-gen/sequential_11/conv2d_transpose_5/strided_slice/stack_1", "op": "Const", "attr": {"dtype": {"type": "DT_INT32"}, "value": {"tensor": {"dtype": "DT_INT32", "tensorShape": {"dim": [{"size": "1"}]}}}}}, {"name": "StatefulPartitionedCall/unet-gen/sequential_11/conv2d_transpose_5/strided_slice/stack_2", "op": "Const", "attr": {"dtype": {"type": "DT_INT32"}, "value": {"tensor": {"dtype": "DT_INT32", "tensorShape": {"dim": [{"size": "1"}]}}}}}, {"name": "StatefulPartitionedCall/unet-gen/sequential_11/conv2d_transpose_5/stack/1", "op": "Const", "attr": {"dtype": {"type": "DT_INT32"}, "value": {"tensor": {"dtype": "DT_INT32", "tensorShape": {}}}}}, {"name": "StatefulPartitionedCall/unet-gen/sequential_11/conv2d_transpose_5/stack/2", "op": "Const", "attr": {"value": {"tensor": {"dtype": "DT_INT32", "tensorShape": {}}}, "dtype": {"type": "DT_INT32"}}}, {"name": "StatefulPartitionedCall/unet-gen/sequential_11/conv2d_transpose_5/stack/3", "op": "Const", "attr": {"value": {"tensor": {"dtype": "DT_INT32", "tensorShape": {}}}, "dtype": {"type": "DT_INT32"}}}, {"name": "StatefulPartitionedCall/unet-gen/sequential_11/conv2d_transpose_5/conv2d_transpose/ReadVariableOp", "op": "Const", "attr": {"value": {"tensor": {"dtype": "DT_FLOAT", "tensorShape": {"dim": [{"size": "4"}, {"size": "4"}, {"size": "32"}, {"size": "128"}]}}}, "dtype": {"type": "DT_FLOAT"}}}, {"name": "StatefulPartitionedCall/unet-gen/sequential_10/instance_normalization_9/Reshape_1", "op": "Const", "attr": {"dtype": {"type": "DT_FLOAT"}, "value": {"tensor": {"dtype": "DT_FLOAT", "tensorShape": {"dim": [{"size": "1"}, {"size": "1"}, {"size": "1"}, {"size": "64"}]}}}}}, {"name": "StatefulPartitionedCall/unet-gen/sequential_10/conv2d_transpose_4/strided_slice/stack", "op": "Const", "attr": {"dtype": {"type": "DT_INT32"}, "value": {"tensor": {"dtype": "DT_INT32", "tensorShape": {"dim": [{"size": "1"}]}}}}}, {"name": "StatefulPartitionedCall/unet-gen/sequential_10/conv2d_transpose_4/strided_slice/stack_1", "op": "Const", "attr": {"value": {"tensor": {"dtype": "DT_INT32", "tensorShape": {"dim": [{"size": "1"}]}}}, "dtype": {"type": "DT_INT32"}}}, {"name": "StatefulPartitionedCall/unet-gen/sequential_10/conv2d_transpose_4/strided_slice/stack_2", "op": "Const", "attr": {"value": {"tensor": {"dtype": "DT_INT32", "tensorShape": {"dim": [{"size": "1"}]}}}, "dtype": {"type": "DT_INT32"}}}, {"name": "StatefulPartitionedCall/unet-gen/sequential_10/conv2d_transpose_4/stack/1", "op": "Const", "attr": {"dtype": {"type": "DT_INT32"}, "value": {"tensor": {"dtype": "DT_INT32", "tensorShape": {}}}}}, {"name": "StatefulPartitionedCall/unet-gen/sequential_10/conv2d_transpose_4/stack/2", "op": "Const", "attr": {"value": {"tensor": {"dtype": "DT_INT32", "tensorShape": {}}}, "dtype": {"type": "DT_INT32"}}}, {"name": "StatefulPartitionedCall/unet-gen/sequential_10/conv2d_transpose_4/stack/3", "op": "Const", "attr": {"value": {"tensor": {"dtype": "DT_INT32", "tensorShape": {}}}, "dtype": {"type": "DT_INT32"}}}, {"name": "StatefulPartitionedCall/unet-gen/sequential_10/conv2d_transpose_4/conv2d_transpose/ReadVariableOp", "op": "Const", "attr": {"value": {"tensor": {"dtype": "DT_FLOAT", "tensorShape": {"dim": [{"size": "4"}, {"size": "4"}, {"size": "64"}, {"size": "256"}]}}}, "dtype": {"type": "DT_FLOAT"}}}, {"name": "StatefulPartitionedCall/unet-gen/sequential_9/instance_normalization_8/Reshape_1", "op": "Const", "attr": {"dtype": {"type": "DT_FLOAT"}, "value": {"tensor": {"dtype": "DT_FLOAT", "tensorShape": {"dim": [{"size": "1"}, {"size": "1"}, {"size": "1"}, {"size": "128"}]}}}}}, {"name": "StatefulPartitionedCall/unet-gen/sequential_9/conv2d_transpose_3/strided_slice/stack", "op": "Const", "attr": {"value": {"tensor": {"dtype": "DT_INT32", "tensorShape": {"dim": [{"size": "1"}]}}}, "dtype": {"type": "DT_INT32"}}}, {"name": "StatefulPartitionedCall/unet-gen/sequential_9/conv2d_transpose_3/strided_slice/stack_1", "op": "Const", "attr": {"value": {"tensor": {"dtype": "DT_INT32", "tensorShape": {"dim": [{"size": "1"}]}}}, "dtype": {"type": "DT_INT32"}}}, {"name": "StatefulPartitionedCall/unet-gen/sequential_9/conv2d_transpose_3/strided_slice/stack_2", "op": "Const", "attr": {"dtype": {"type": "DT_INT32"}, "value": {"tensor": {"dtype": "DT_INT32", "tensorShape": {"dim": [{"size": "1"}]}}}}}, {"name": "StatefulPartitionedCall/unet-gen/sequential_9/conv2d_transpose_3/stack/1", "op": "Const", "attr": {"value": {"tensor": {"dtype": "DT_INT32", "tensorShape": {}}}, "dtype": {"type": "DT_INT32"}}}, {"name": "StatefulPartitionedCall/unet-gen/sequential_9/conv2d_transpose_3/stack/2", "op": "Const", "attr": {"value": {"tensor": {"dtype": "DT_INT32", "tensorShape": {}}}, "dtype": {"type": "DT_INT32"}}}, {"name": "StatefulPartitionedCall/unet-gen/sequential_9/conv2d_transpose_3/stack/3", "op": "Const", "attr": {"dtype": {"type": "DT_INT32"}, "value": {"tensor": {"dtype": "DT_INT32", "tensorShape": {}}}}}, {"name": "StatefulPartitionedCall/unet-gen/sequential_9/conv2d_transpose_3/conv2d_transpose/ReadVariableOp", "op": "Const", "attr": {"dtype": {"type": "DT_FLOAT"}, "value": {"tensor": {"dtype": "DT_FLOAT", "tensorShape": {"dim": [{"size": "4"}, {"size": "4"}, {"size": "128"}, {"size": "512"}]}}}}}, {"name": "StatefulPartitionedCall/unet-gen/sequential_8/instance_normalization_7/Reshape_1", "op": "Const", "attr": {"value": {"tensor": {"dtype": "DT_FLOAT", "tensorShape": {"dim": [{"size": "1"}, {"size": "1"}, {"size": "1"}, {"size": "256"}]}}}, "dtype": {"type": "DT_FLOAT"}}}, {"name": "StatefulPartitionedCall/unet-gen/sequential_8/conv2d_transpose_2/strided_slice/stack", "op": "Const", "attr": {"dtype": {"type": "DT_INT32"}, "value": {"tensor": {"dtype": "DT_INT32", "tensorShape": {"dim": [{"size": "1"}]}}}}}, {"name": "StatefulPartitionedCall/unet-gen/sequential_8/conv2d_transpose_2/strided_slice/stack_1", "op": "Const", "attr": {"value": {"tensor": {"dtype": "DT_INT32", "tensorShape": {"dim": [{"size": "1"}]}}}, "dtype": {"type": "DT_INT32"}}}, {"name": "StatefulPartitionedCall/unet-gen/sequential_8/conv2d_transpose_2/strided_slice/stack_2", "op": "Const", "attr": {"dtype": {"type": "DT_INT32"}, "value": {"tensor": {"dtype": "DT_INT32", "tensorShape": {"dim": [{"size": "1"}]}}}}}, {"name": "StatefulPartitionedCall/unet-gen/sequential_8/conv2d_transpose_2/stack/1", "op": "Const", "attr": {"value": {"tensor": {"dtype": "DT_INT32", "tensorShape": {}}}, "dtype": {"type": "DT_INT32"}}}, {"name": "StatefulPartitionedCall/unet-gen/sequential_8/conv2d_transpose_2/stack/2", "op": "Const", "attr": {"value": {"tensor": {"dtype": "DT_INT32", "tensorShape": {}}}, "dtype": {"type": "DT_INT32"}}}, {"name": "StatefulPartitionedCall/unet-gen/sequential_8/conv2d_transpose_2/stack/3", "op": "Const", "attr": {"dtype": {"type": "DT_INT32"}, "value": {"tensor": {"dtype": "DT_INT32", "tensorShape": {}}}}}, {"name": "StatefulPartitionedCall/unet-gen/sequential_8/conv2d_transpose_2/conv2d_transpose/ReadVariableOp", "op": "Const", "attr": {"dtype": {"type": "DT_FLOAT"}, "value": {"tensor": {"dtype": "DT_FLOAT", "tensorShape": {"dim": [{"size": "4"}, {"size": "4"}, {"size": "256"}, {"size": "1024"}]}}}}}, {"name": "StatefulPartitionedCall/unet-gen/sequential_7/instance_normalization_6/Reshape_1", "op": "Const", "attr": {"dtype": {"type": "DT_FLOAT"}, "value": {"tensor": {"dtype": "DT_FLOAT", "tensorShape": {"dim": [{"size": "1"}, {"size": "1"}, {"size": "1"}, {"size": "512"}]}}}}}, {"name": "StatefulPartitionedCall/unet-gen/sequential_7/conv2d_transpose_1/strided_slice/stack", "op": "Const", "attr": {"value": {"tensor": {"dtype": "DT_INT32", "tensorShape": {"dim": [{"size": "1"}]}}}, "dtype": {"type": "DT_INT32"}}}, {"name": "StatefulPartitionedCall/unet-gen/sequential_7/conv2d_transpose_1/strided_slice/stack_1", "op": "Const", "attr": {"dtype": {"type": "DT_INT32"}, "value": {"tensor": {"dtype": "DT_INT32", "tensorShape": {"dim": [{"size": "1"}]}}}}}, {"name": "StatefulPartitionedCall/unet-gen/sequential_7/conv2d_transpose_1/strided_slice/stack_2", "op": "Const", "attr": {"value": {"tensor": {"dtype": "DT_INT32", "tensorShape": {"dim": [{"size": "1"}]}}}, "dtype": {"type": "DT_INT32"}}}, {"name": "StatefulPartitionedCall/unet-gen/sequential_7/conv2d_transpose_1/stack/1", "op": "Const", "attr": {"value": {"tensor": {"dtype": "DT_INT32", "tensorShape": {}}}, "dtype": {"type": "DT_INT32"}}}, {"name": "StatefulPartitionedCall/unet-gen/sequential_7/conv2d_transpose_1/stack/2", "op": "Const", "attr": {"value": {"tensor": {"dtype": "DT_INT32", "tensorShape": {}}}, "dtype": {"type": "DT_INT32"}}}, {"name": "StatefulPartitionedCall/unet-gen/sequential_7/conv2d_transpose_1/stack/3", "op": "Const", "attr": {"dtype": {"type": "DT_INT32"}, "value": {"tensor": {"dtype": "DT_INT32", "tensorShape": {}}}}}, {"name": "StatefulPartitionedCall/unet-gen/sequential_7/conv2d_transpose_1/conv2d_transpose/ReadVariableOp", "op": "Const", "attr": {"dtype": {"type": "DT_FLOAT"}, "value": {"tensor": {"dtype": "DT_FLOAT", "tensorShape": {"dim": [{"size": "4"}, {"size": "4"}, {"size": "512"}, {"size": "1024"}]}}}}}, {"name": "StatefulPartitionedCall/unet-gen/sequential_6/conv2d_transpose/strided_slice/stack", "op": "Const", "attr": {"value": {"tensor": {"dtype": "DT_INT32", "tensorShape": {"dim": [{"size": "1"}]}}}, "dtype": {"type": "DT_INT32"}}}, {"name": "StatefulPartitionedCall/unet-gen/sequential_6/conv2d_transpose/strided_slice/stack_1", "op": "Const", "attr": {"value": {"tensor": {"dtype": "DT_INT32", "tensorShape": {"dim": [{"size": "1"}]}}}, "dtype": {"type": "DT_INT32"}}}, {"name": "StatefulPartitionedCall/unet-gen/sequential_6/conv2d_transpose/strided_slice/stack_2", "op": "Const", "attr": {"value": {"tensor": {"dtype": "DT_INT32", "tensorShape": {"dim": [{"size": "1"}]}}}, "dtype": {"type": "DT_INT32"}}}, {"name": "StatefulPartitionedCall/unet-gen/sequential_6/conv2d_transpose/stack/1", "op": "Const", "attr": {"value": {"tensor": {"dtype": "DT_INT32", "tensorShape": {}}}, "dtype": {"type": "DT_INT32"}}}, {"name": "StatefulPartitionedCall/unet-gen/sequential_6/conv2d_transpose/stack/2", "op": "Const", "attr": {"dtype": {"type": "DT_INT32"}, "value": {"tensor": {"dtype": "DT_INT32", "tensorShape": {}}}}}, {"name": "StatefulPartitionedCall/unet-gen/sequential_6/conv2d_transpose/stack/3", "op": "Const", "attr": {"value": {"tensor": {"dtype": "DT_INT32", "tensorShape": {}}}, "dtype": {"type": "DT_INT32"}}}, {"name": "StatefulPartitionedCall/unet-gen/sequential_6/conv2d_transpose/conv2d_transpose/ReadVariableOp", "op": "Const", "attr": {"value": {"tensor": {"dtype": "DT_FLOAT", "tensorShape": {"dim": [{"size": "4"}, {"size": "4"}, {"size": "512"}, {"size": "512"}]}}}, "dtype": {"type": "DT_FLOAT"}}}, {"name": "StatefulPartitionedCall/unet-gen/sequential_5/conv2d_99/Conv2D/ReadVariableOp", "op": "Const", "attr": {"dtype": {"type": "DT_FLOAT"}, "value": {"tensor": {"dtype": "DT_FLOAT", "tensorShape": {"dim": [{"size": "4"}, {"size": "4"}, {"size": "512"}, {"size": "512"}]}}}}}, {"name": "StatefulPartitionedCall/unet-gen/sequential_5/instance_normalization_4/moments/mean/reduction_indices", "op": "Const", "attr": {"value": {"tensor": {"dtype": "DT_INT32", "tensorShape": {"dim": [{"size": "2"}]}}}, "dtype": {"type": "DT_INT32"}}}, {"name": "StatefulPartitionedCall/unet-gen/sequential_5/instance_normalization_4/moments/variance/reduction_indices", "op": "Const", "attr": {"dtype": {"type": "DT_INT32"}, "value": {"tensor": {"dtype": "DT_INT32", "tensorShape": {"dim": [{"size": "2"}]}}}}}, {"name": "StatefulPartitionedCall/unet-gen/sequential_5/instance_normalization_4/batchnorm/add/y", "op": "Const", "attr": {"dtype": {"type": "DT_FLOAT"}, "value": {"tensor": {"dtype": "DT_FLOAT", "tensorShape": {}}}}}, {"name": "StatefulPartitionedCall/unet-gen/sequential_6/instance_normalization_5/moments/mean/reduction_indices", "op": "Const", "attr": {"value": {"tensor": {"dtype": "DT_INT32", "tensorShape": {"dim": [{"size": "2"}]}}}, "dtype": {"type": "DT_INT32"}}}, {"name": "StatefulPartitionedCall/unet-gen/sequential_6/instance_normalization_5/moments/variance/reduction_indices", "op": "Const", "attr": {"dtype": {"type": "DT_INT32"}, "value": {"tensor": {"dtype": "DT_INT32", "tensorShape": {"dim": [{"size": "2"}]}}}}}, {"name": "StatefulPartitionedCall/unet-gen/sequential_6/instance_normalization_5/batchnorm/add/y", "op": "Const", "attr": {"value": {"tensor": {"dtype": "DT_FLOAT", "tensorShape": {}}}, "dtype": {"type": "DT_FLOAT"}}}, {"name": "StatefulPartitionedCall/unet-gen/sequential_4/instance_normalization_3/Reshape_1", "op": "Const", "attr": {"value": {"tensor": {"dtype": "DT_FLOAT", "tensorShape": {"dim": [{"size": "1"}, {"size": "1"}, {"size": "1"}, {"size": "512"}]}}}, "dtype": {"type": "DT_FLOAT"}}}, {"name": "StatefulPartitionedCall/unet-gen/sequential_4/conv2d_98/Conv2D/ReadVariableOp", "op": "Const", "attr": {"dtype": {"type": "DT_FLOAT"}, "value": {"tensor": {"dtype": "DT_FLOAT", "tensorShape": {"dim": [{"size": "4"}, {"size": "4"}, {"size": "512"}, {"size": "512"}]}}}}}, {"name": "StatefulPartitionedCall/unet-gen/sequential_4/instance_normalization_3/moments/mean/reduction_indices", "op": "Const", "attr": {"dtype": {"type": "DT_INT32"}, "value": {"tensor": {"dtype": "DT_INT32", "tensorShape": {"dim": [{"size": "2"}]}}}}}, {"name": "StatefulPartitionedCall/unet-gen/sequential_4/instance_normalization_3/moments/variance/reduction_indices", "op": "Const", "attr": {"value": {"tensor": {"dtype": "DT_INT32", "tensorShape": {"dim": [{"size": "2"}]}}}, "dtype": {"type": "DT_INT32"}}}, {"name": "StatefulPartitionedCall/unet-gen/sequential_4/instance_normalization_3/batchnorm/add/y", "op": "Const", "attr": {"value": {"tensor": {"dtype": "DT_FLOAT", "tensorShape": {}}}, "dtype": {"type": "DT_FLOAT"}}}, {"name": "StatefulPartitionedCall/unet-gen/sequential_4/instance_normalization_3/Reshape", "op": "Const", "attr": {"value": {"tensor": {"dtype": "DT_FLOAT", "tensorShape": {"dim": [{"size": "1"}, {"size": "1"}, {"size": "1"}, {"size": "512"}]}}}, "dtype": {"type": "DT_FLOAT"}}}, {"name": "StatefulPartitionedCall/unet-gen/concatenate_2/concat/axis", "op": "Const", "attr": {"dtype": {"type": "DT_INT32"}, "value": {"tensor": {"dtype": "DT_INT32", "tensorShape": {}}}}}, {"name": "StatefulPartitionedCall/unet-gen/sequential_7/instance_normalization_6/moments/mean/reduction_indices", "op": "Const", "attr": {"dtype": {"type": "DT_INT32"}, "value": {"tensor": {"dtype": "DT_INT32", "tensorShape": {"dim": [{"size": "2"}]}}}}}, {"name": "StatefulPartitionedCall/unet-gen/sequential_7/instance_normalization_6/moments/variance/reduction_indices", "op": "Const", "attr": {"dtype": {"type": "DT_INT32"}, "value": {"tensor": {"dtype": "DT_INT32", "tensorShape": {"dim": [{"size": "2"}]}}}}}, {"name": "StatefulPartitionedCall/unet-gen/sequential_7/instance_normalization_6/batchnorm/add/y", "op": "Const", "attr": {"value": {"tensor": {"dtype": "DT_FLOAT", "tensorShape": {}}}, "dtype": {"type": "DT_FLOAT"}}}, {"name": "StatefulPartitionedCall/unet-gen/sequential_7/instance_normalization_6/Reshape", "op": "Const", "attr": {"dtype": {"type": "DT_FLOAT"}, "value": {"tensor": {"dtype": "DT_FLOAT", "tensorShape": {"dim": [{"size": "1"}, {"size": "1"}, {"size": "1"}, {"size": "512"}]}}}}}, {"name": "StatefulPartitionedCall/unet-gen/sequential_3/instance_normalization_2/Reshape_1", "op": "Const", "attr": {"value": {"tensor": {"dtype": "DT_FLOAT", "tensorShape": {"dim": [{"size": "1"}, {"size": "1"}, {"size": "1"}, {"size": "512"}]}}}, "dtype": {"type": "DT_FLOAT"}}}, {"name": "StatefulPartitionedCall/unet-gen/sequential_3/conv2d_97/Conv2D/ReadVariableOp", "op": "Const", "attr": {"dtype": {"type": "DT_FLOAT"}, "value": {"tensor": {"dtype": "DT_FLOAT", "tensorShape": {"dim": [{"size": "4"}, {"size": "4"}, {"size": "256"}, {"size": "512"}]}}}}}, {"name": "StatefulPartitionedCall/unet-gen/sequential_3/instance_normalization_2/moments/mean/reduction_indices", "op": "Const", "attr": {"value": {"tensor": {"dtype": "DT_INT32", "tensorShape": {"dim": [{"size": "2"}]}}}, "dtype": {"type": "DT_INT32"}}}, {"name": "StatefulPartitionedCall/unet-gen/sequential_3/instance_normalization_2/moments/variance/reduction_indices", "op": "Const", "attr": {"value": {"tensor": {"dtype": "DT_INT32", "tensorShape": {"dim": [{"size": "2"}]}}}, "dtype": {"type": "DT_INT32"}}}, {"name": "StatefulPartitionedCall/unet-gen/sequential_3/instance_normalization_2/batchnorm/add/y", "op": "Const", "attr": {"dtype": {"type": "DT_FLOAT"}, "value": {"tensor": {"dtype": "DT_FLOAT", "tensorShape": {}}}}}, {"name": "StatefulPartitionedCall/unet-gen/sequential_3/instance_normalization_2/Reshape", "op": "Const", "attr": {"dtype": {"type": "DT_FLOAT"}, "value": {"tensor": {"dtype": "DT_FLOAT", "tensorShape": {"dim": [{"size": "1"}, {"size": "1"}, {"size": "1"}, {"size": "512"}]}}}}}, {"name": "StatefulPartitionedCall/unet-gen/concatenate_3/concat/axis", "op": "Const", "attr": {"dtype": {"type": "DT_INT32"}, "value": {"tensor": {"dtype": "DT_INT32", "tensorShape": {}}}}}, {"name": "StatefulPartitionedCall/unet-gen/sequential_8/instance_normalization_7/moments/mean/reduction_indices", "op": "Const", "attr": {"dtype": {"type": "DT_INT32"}, "value": {"tensor": {"dtype": "DT_INT32", "tensorShape": {"dim": [{"size": "2"}]}}}}}, {"name": "StatefulPartitionedCall/unet-gen/sequential_8/instance_normalization_7/moments/variance/reduction_indices", "op": "Const", "attr": {"value": {"tensor": {"dtype": "DT_INT32", "tensorShape": {"dim": [{"size": "2"}]}}}, "dtype": {"type": "DT_INT32"}}}, {"name": "StatefulPartitionedCall/unet-gen/sequential_8/instance_normalization_7/batchnorm/add/y", "op": "Const", "attr": {"value": {"tensor": {"dtype": "DT_FLOAT", "tensorShape": {}}}, "dtype": {"type": "DT_FLOAT"}}}, {"name": "StatefulPartitionedCall/unet-gen/sequential_8/instance_normalization_7/Reshape", "op": "Const", "attr": {"dtype": {"type": "DT_FLOAT"}, "value": {"tensor": {"dtype": "DT_FLOAT", "tensorShape": {"dim": [{"size": "1"}, {"size": "1"}, {"size": "1"}, {"size": "256"}]}}}}}, {"name": "StatefulPartitionedCall/unet-gen/sequential_2/instance_normalization_1/Reshape_1", "op": "Const", "attr": {"dtype": {"type": "DT_FLOAT"}, "value": {"tensor": {"dtype": "DT_FLOAT", "tensorShape": {"dim": [{"size": "1"}, {"size": "1"}, {"size": "1"}, {"size": "256"}]}}}}}, {"name": "StatefulPartitionedCall/unet-gen/sequential_2/conv2d_96/Conv2D/ReadVariableOp", "op": "Const", "attr": {"dtype": {"type": "DT_FLOAT"}, "value": {"tensor": {"dtype": "DT_FLOAT", "tensorShape": {"dim": [{"size": "4"}, {"size": "4"}, {"size": "128"}, {"size": "256"}]}}}}}, {"name": "StatefulPartitionedCall/unet-gen/sequential_2/instance_normalization_1/moments/mean/reduction_indices", "op": "Const", "attr": {"value": {"tensor": {"dtype": "DT_INT32", "tensorShape": {"dim": [{"size": "2"}]}}}, "dtype": {"type": "DT_INT32"}}}, {"name": "StatefulPartitionedCall/unet-gen/sequential_2/instance_normalization_1/moments/variance/reduction_indices", "op": "Const", "attr": {"dtype": {"type": "DT_INT32"}, "value": {"tensor": {"dtype": "DT_INT32", "tensorShape": {"dim": [{"size": "2"}]}}}}}, {"name": "StatefulPartitionedCall/unet-gen/sequential_2/instance_normalization_1/batchnorm/add/y", "op": "Const", "attr": {"dtype": {"type": "DT_FLOAT"}, "value": {"tensor": {"dtype": "DT_FLOAT", "tensorShape": {}}}}}, {"name": "StatefulPartitionedCall/unet-gen/sequential_2/instance_normalization_1/Reshape", "op": "Const", "attr": {"value": {"tensor": {"dtype": "DT_FLOAT", "tensorShape": {"dim": [{"size": "1"}, {"size": "1"}, {"size": "1"}, {"size": "256"}]}}}, "dtype": {"type": "DT_FLOAT"}}}, {"name": "StatefulPartitionedCall/unet-gen/concatenate_4/concat/axis", "op": "Const", "attr": {"value": {"tensor": {"dtype": "DT_INT32", "tensorShape": {}}}, "dtype": {"type": "DT_INT32"}}}, {"name": "StatefulPartitionedCall/unet-gen/sequential_9/instance_normalization_8/moments/mean/reduction_indices", "op": "Const", "attr": {"dtype": {"type": "DT_INT32"}, "value": {"tensor": {"dtype": "DT_INT32", "tensorShape": {"dim": [{"size": "2"}]}}}}}, {"name": "StatefulPartitionedCall/unet-gen/sequential_9/instance_normalization_8/moments/variance/reduction_indices", "op": "Const", "attr": {"dtype": {"type": "DT_INT32"}, "value": {"tensor": {"dtype": "DT_INT32", "tensorShape": {"dim": [{"size": "2"}]}}}}}, {"name": "StatefulPartitionedCall/unet-gen/sequential_9/instance_normalization_8/batchnorm/add/y", "op": "Const", "attr": {"dtype": {"type": "DT_FLOAT"}, "value": {"tensor": {"dtype": "DT_FLOAT", "tensorShape": {}}}}}, {"name": "StatefulPartitionedCall/unet-gen/sequential_9/instance_normalization_8/Reshape", "op": "Const", "attr": {"value": {"tensor": {"dtype": "DT_FLOAT", "tensorShape": {"dim": [{"size": "1"}, {"size": "1"}, {"size": "1"}, {"size": "128"}]}}}, "dtype": {"type": "DT_FLOAT"}}}, {"name": "StatefulPartitionedCall/unet-gen/sequential_1/instance_normalization/Reshape_1", "op": "Const", "attr": {"dtype": {"type": "DT_FLOAT"}, "value": {"tensor": {"dtype": "DT_FLOAT", "tensorShape": {"dim": [{"size": "1"}, {"size": "1"}, {"size": "1"}, {"size": "128"}]}}}}}, {"name": "StatefulPartitionedCall/unet-gen/sequential_1/conv2d_95/Conv2D/ReadVariableOp", "op": "Const", "attr": {"value": {"tensor": {"dtype": "DT_FLOAT", "tensorShape": {"dim": [{"size": "4"}, {"size": "4"}, {"size": "64"}, {"size": "128"}]}}}, "dtype": {"type": "DT_FLOAT"}}}, {"name": "StatefulPartitionedCall/unet-gen/sequential_1/instance_normalization/moments/mean/reduction_indices", "op": "Const", "attr": {"dtype": {"type": "DT_INT32"}, "value": {"tensor": {"dtype": "DT_INT32", "tensorShape": {"dim": [{"size": "2"}]}}}}}, {"name": "StatefulPartitionedCall/unet-gen/sequential_1/instance_normalization/moments/variance/reduction_indices", "op": "Const", "attr": {"dtype": {"type": "DT_INT32"}, "value": {"tensor": {"dtype": "DT_INT32", "tensorShape": {"dim": [{"size": "2"}]}}}}}, {"name": "StatefulPartitionedCall/unet-gen/sequential_1/instance_normalization/batchnorm/add/y", "op": "Const", "attr": {"dtype": {"type": "DT_FLOAT"}, "value": {"tensor": {"dtype": "DT_FLOAT", "tensorShape": {}}}}}, {"name": "StatefulPartitionedCall/unet-gen/sequential_1/instance_normalization/Reshape", "op": "Const", "attr": {"value": {"tensor": {"dtype": "DT_FLOAT", "tensorShape": {"dim": [{"size": "1"}, {"size": "1"}, {"size": "1"}, {"size": "128"}]}}}, "dtype": {"type": "DT_FLOAT"}}}, {"name": "StatefulPartitionedCall/unet-gen/concatenate_5/concat/axis", "op": "Const", "attr": {"dtype": {"type": "DT_INT32"}, "value": {"tensor": {"dtype": "DT_INT32", "tensorShape": {}}}}}, {"name": "StatefulPartitionedCall/unet-gen/sequential_10/instance_normalization_9/moments/mean/reduction_indices", "op": "Const", "attr": {"dtype": {"type": "DT_INT32"}, "value": {"tensor": {"dtype": "DT_INT32", "tensorShape": {"dim": [{"size": "2"}]}}}}}, {"name": "StatefulPartitionedCall/unet-gen/sequential_10/instance_normalization_9/moments/variance/reduction_indices", "op": "Const", "attr": {"value": {"tensor": {"dtype": "DT_INT32", "tensorShape": {"dim": [{"size": "2"}]}}}, "dtype": {"type": "DT_INT32"}}}, {"name": "StatefulPartitionedCall/unet-gen/sequential_10/instance_normalization_9/batchnorm/add/y", "op": "Const", "attr": {"value": {"tensor": {"dtype": "DT_FLOAT", "tensorShape": {}}}, "dtype": {"type": "DT_FLOAT"}}}, {"name": "StatefulPartitionedCall/unet-gen/sequential_10/instance_normalization_9/Reshape", "op": "Const", "attr": {"dtype": {"type": "DT_FLOAT"}, "value": {"tensor": {"dtype": "DT_FLOAT", "tensorShape": {"dim": [{"size": "1"}, {"size": "1"}, {"size": "1"}, {"size": "64"}]}}}}}, {"name": "StatefulPartitionedCall/unet-gen/sequential/conv2d_94/Conv2D/ReadVariableOp", "op": "Const", "attr": {"value": {"tensor": {"dtype": "DT_FLOAT", "tensorShape": {"dim": [{"size": "4"}, {"size": "4"}, {"size": "4"}, {"size": "64"}]}}}, "dtype": {"type": "DT_FLOAT"}}}, {"name": "StatefulPartitionedCall/unet-gen/concatenate_6/concat/axis", "op": "Const", "attr": {"dtype": {"type": "DT_INT32"}, "value": {"tensor": {"dtype": "DT_INT32", "tensorShape": {}}}}}, {"name": "StatefulPartitionedCall/unet-gen/sequential_11/instance_normalization_10/moments/mean/reduction_indices", "op": "Const", "attr": {"dtype": {"type": "DT_INT32"}, "value": {"tensor": {"dtype": "DT_INT32", "tensorShape": {"dim": [{"size": "2"}]}}}}}, {"name": "StatefulPartitionedCall/unet-gen/sequential_11/instance_normalization_10/moments/variance/reduction_indices", "op": "Const", "attr": {"dtype": {"type": "DT_INT32"}, "value": {"tensor": {"dtype": "DT_INT32", "tensorShape": {"dim": [{"size": "2"}]}}}}}, {"name": "StatefulPartitionedCall/unet-gen/sequential_11/instance_normalization_10/batchnorm/add/y", "op": "Const", "attr": {"value": {"tensor": {"dtype": "DT_FLOAT", "tensorShape": {}}}, "dtype": {"type": "DT_FLOAT"}}}, {"name": "StatefulPartitionedCall/unet-gen/sequential_11/instance_normalization_10/Reshape", "op": "Const", "attr": {"dtype": {"type": "DT_FLOAT"}, "value": {"tensor": {"dtype": "DT_FLOAT", "tensorShape": {"dim": [{"size": "1"}, {"size": "1"}, {"size": "1"}, {"size": "32"}]}}}}}, {"name": "StatefulPartitionedCall/unet-gen/concatenate_7/concat/axis", "op": "Const", "attr": {"value": {"tensor": {"dtype": "DT_INT32", "tensorShape": {}}}, "dtype": {"type": "DT_INT32"}}}, {"name": "StatefulPartitionedCall/unet-gen/conv2d_100/Conv2D/ReadVariableOp", "op": "Const", "attr": {"value": {"tensor": {"dtype": "DT_FLOAT", "tensorShape": {"dim": [{"size": "4"}, {"size": "4"}, {"size": "36"}, {"size": "4"}]}}}, "dtype": {"type": "DT_FLOAT"}}}, {"name": "StatefulPartitionedCall/unet-gen/conv2d_100/BiasAdd/ReadVariableOp", "op": "Const", "attr": {"dtype": {"type": "DT_FLOAT"}, "value": {"tensor": {"dtype": "DT_FLOAT", "tensorShape": {"dim": [{"size": "4"}]}}}}}, {"name": "input_2", "op": "Placeholder", "attr": {"dtype": {"type": "DT_FLOAT"}, "shape": {"shape": {"dim": [{"size": "-1"}, {"size": "64"}, {"size": "64"}, {"size": "4"}]}}}}, {"name": "StatefulPartitionedCall/unet-gen/sequential/conv2d_94/Conv2D", "op": "Conv2D", "input": ["input_2", "StatefulPartitionedCall/unet-gen/sequential/conv2d_94/Conv2D/ReadVariableOp"], "device": "/device:CPU:0", "attr": {"data_format": {"s": "TkhXQw=="}, "dilations": {"list": {"i": ["1", "1", "1", "1"]}}, "padding": {"s": "U0FNRQ=="}, "use_cudnn_on_gpu": {"b": true}, "T": {"type": "DT_FLOAT"}, "strides": {"list": {"i": ["1", "2", "2", "1"]}}, "explicit_paddings": {"list": {}}}}, {"name": "StatefulPartitionedCall/unet-gen/sequential/leaky_re_lu/LeakyRelu", "op": "LeakyRelu", "input": ["StatefulPartitionedCall/unet-gen/sequential/conv2d_94/Conv2D"], "attr": {"T": {"type": "DT_FLOAT"}, "alpha": {"f": 0.3}}}, {"name": "StatefulPartitionedCall/unet-gen/sequential_1/conv2d_95/Conv2D", "op": "Conv2D", "input": ["StatefulPartitionedCall/unet-gen/sequential/leaky_re_lu/LeakyRelu", "StatefulPartitionedCall/unet-gen/sequential_1/conv2d_95/Conv2D/ReadVariableOp"], "device": "/device:CPU:0", "attr": {"strides": {"list": {"i": ["1", "2", "2", "1"]}}, "padding": {"s": "U0FNRQ=="}, "dilations": {"list": {"i": ["1", "1", "1", "1"]}}, "explicit_paddings": {"list": {}}, "data_format": {"s": "TkhXQw=="}, "T": {"type": "DT_FLOAT"}, "use_cudnn_on_gpu": {"b": true}}}, {"name": "StatefulPartitionedCall/unet-gen/sequential_1/instance_normalization/moments/mean", "op": "Mean", "input": ["StatefulPartitionedCall/unet-gen/sequential_1/conv2d_95/Conv2D", "StatefulPartitionedCall/unet-gen/sequential_1/instance_normalization/moments/mean/reduction_indices"], "attr": {"T": {"type": "DT_FLOAT"}, "Tidx": {"type": "DT_INT32"}, "keep_dims": {"b": true}}}, {"name": "StatefulPartitionedCall/unet-gen/sequential_1/instance_normalization/moments/SquaredDifference", "op": "SquaredDifference", "input": ["StatefulPartitionedCall/unet-gen/sequential_1/conv2d_95/Conv2D", "StatefulPartitionedCall/unet-gen/sequential_1/instance_normalization/moments/mean"], "attr": {"T": {"type": "DT_FLOAT"}}}, {"name": "StatefulPartitionedCall/unet-gen/sequential_1/instance_normalization/moments/variance", "op": "Mean", "input": ["StatefulPartitionedCall/unet-gen/sequential_1/instance_normalization/moments/SquaredDifference", "StatefulPartitionedCall/unet-gen/sequential_1/instance_normalization/moments/variance/reduction_indices"], "attr": {"Tidx": {"type": "DT_INT32"}, "T": {"type": "DT_FLOAT"}, "keep_dims": {"b": true}}}, {"name": "StatefulPartitionedCall/unet-gen/sequential_1/instance_normalization/batchnorm/add", "op": "AddV2", "input": ["StatefulPartitionedCall/unet-gen/sequential_1/instance_normalization/moments/variance", "StatefulPartitionedCall/unet-gen/sequential_1/instance_normalization/batchnorm/add/y"], "attr": {"T": {"type": "DT_FLOAT"}}}, {"name": "StatefulPartitionedCall/unet-gen/sequential_1/instance_normalization/batchnorm/Rsqrt", "op": "Rsqrt", "input": ["StatefulPartitionedCall/unet-gen/sequential_1/instance_normalization/batchnorm/add"], "attr": {"T": {"type": "DT_FLOAT"}}}, {"name": "StatefulPartitionedCall/unet-gen/sequential_1/instance_normalization/batchnorm/mul", "op": "Mul", "input": ["StatefulPartitionedCall/unet-gen/sequential_1/instance_normalization/batchnorm/Rsqrt", "StatefulPartitionedCall/unet-gen/sequential_1/instance_normalization/Reshape"], "attr": {"T": {"type": "DT_FLOAT"}}}, {"name": "StatefulPartitionedCall/unet-gen/sequential_1/instance_normalization/batchnorm/mul_2", "op": "Mul", "input": ["StatefulPartitionedCall/unet-gen/sequential_1/instance_normalization/moments/mean", "StatefulPartitionedCall/unet-gen/sequential_1/instance_normalization/batchnorm/mul"], "attr": {"T": {"type": "DT_FLOAT"}}}, {"name": "StatefulPartitionedCall/unet-gen/sequential_1/instance_normalization/batchnorm/mul_1", "op": "Mul", "input": ["StatefulPartitionedCall/unet-gen/sequential_1/conv2d_95/Conv2D", "StatefulPartitionedCall/unet-gen/sequential_1/instance_normalization/batchnorm/mul"], "attr": {"T": {"type": "DT_FLOAT"}}}, {"name": "StatefulPartitionedCall/unet-gen/sequential_1/instance_normalization/batchnorm/sub", "op": "Sub", "input": ["StatefulPartitionedCall/unet-gen/sequential_1/instance_normalization/Reshape_1", "StatefulPartitionedCall/unet-gen/sequential_1/instance_normalization/batchnorm/mul_2"], "attr": {"T": {"type": "DT_FLOAT"}}}, {"name": "StatefulPartitionedCall/unet-gen/sequential_1/instance_normalization/batchnorm/add_1", "op": "AddV2", "input": ["StatefulPartitionedCall/unet-gen/sequential_1/instance_normalization/batchnorm/mul_1", "StatefulPartitionedCall/unet-gen/sequential_1/instance_normalization/batchnorm/sub"], "attr": {"T": {"type": "DT_FLOAT"}}}, {"name": "StatefulPartitionedCall/unet-gen/sequential_1/leaky_re_lu_1/LeakyRelu", "op": "LeakyRelu", "input": ["StatefulPartitionedCall/unet-gen/sequential_1/instance_normalization/batchnorm/add_1"], "attr": {"T": {"type": "DT_FLOAT"}, "alpha": {"f": 0.3}}}, {"name": "StatefulPartitionedCall/unet-gen/sequential_2/conv2d_96/Conv2D", "op": "Conv2D", "input": ["StatefulPartitionedCall/unet-gen/sequential_1/leaky_re_lu_1/LeakyRelu", "StatefulPartitionedCall/unet-gen/sequential_2/conv2d_96/Conv2D/ReadVariableOp"], "device": "/device:CPU:0", "attr": {"strides": {"list": {"i": ["1", "2", "2", "1"]}}, "use_cudnn_on_gpu": {"b": true}, "data_format": {"s": "TkhXQw=="}, "padding": {"s": "U0FNRQ=="}, "dilations": {"list": {"i": ["1", "1", "1", "1"]}}, "T": {"type": "DT_FLOAT"}, "explicit_paddings": {"list": {}}}}, {"name": "StatefulPartitionedCall/unet-gen/sequential_2/instance_normalization_1/moments/mean", "op": "Mean", "input": ["StatefulPartitionedCall/unet-gen/sequential_2/conv2d_96/Conv2D", "StatefulPartitionedCall/unet-gen/sequential_2/instance_normalization_1/moments/mean/reduction_indices"], "attr": {"keep_dims": {"b": true}, "T": {"type": "DT_FLOAT"}, "Tidx": {"type": "DT_INT32"}}}, {"name": "StatefulPartitionedCall/unet-gen/sequential_2/instance_normalization_1/moments/SquaredDifference", "op": "SquaredDifference", "input": ["StatefulPartitionedCall/unet-gen/sequential_2/conv2d_96/Conv2D", "StatefulPartitionedCall/unet-gen/sequential_2/instance_normalization_1/moments/mean"], "attr": {"T": {"type": "DT_FLOAT"}}}, {"name": "StatefulPartitionedCall/unet-gen/sequential_2/instance_normalization_1/moments/variance", "op": "Mean", "input": ["StatefulPartitionedCall/unet-gen/sequential_2/instance_normalization_1/moments/SquaredDifference", "StatefulPartitionedCall/unet-gen/sequential_2/instance_normalization_1/moments/variance/reduction_indices"], "attr": {"keep_dims": {"b": true}, "Tidx": {"type": "DT_INT32"}, "T": {"type": "DT_FLOAT"}}}, {"name": "StatefulPartitionedCall/unet-gen/sequential_2/instance_normalization_1/batchnorm/add", "op": "AddV2", "input": ["StatefulPartitionedCall/unet-gen/sequential_2/instance_normalization_1/moments/variance", "StatefulPartitionedCall/unet-gen/sequential_2/instance_normalization_1/batchnorm/add/y"], "attr": {"T": {"type": "DT_FLOAT"}}}, {"name": "StatefulPartitionedCall/unet-gen/sequential_2/instance_normalization_1/batchnorm/Rsqrt", "op": "Rsqrt", "input": ["StatefulPartitionedCall/unet-gen/sequential_2/instance_normalization_1/batchnorm/add"], "attr": {"T": {"type": "DT_FLOAT"}}}, {"name": "StatefulPartitionedCall/unet-gen/sequential_2/instance_normalization_1/batchnorm/mul", "op": "Mul", "input": ["StatefulPartitionedCall/unet-gen/sequential_2/instance_normalization_1/batchnorm/Rsqrt", "StatefulPartitionedCall/unet-gen/sequential_2/instance_normalization_1/Reshape"], "attr": {"T": {"type": "DT_FLOAT"}}}, {"name": "StatefulPartitionedCall/unet-gen/sequential_2/instance_normalization_1/batchnorm/mul_2", "op": "Mul", "input": ["StatefulPartitionedCall/unet-gen/sequential_2/instance_normalization_1/moments/mean", "StatefulPartitionedCall/unet-gen/sequential_2/instance_normalization_1/batchnorm/mul"], "attr": {"T": {"type": "DT_FLOAT"}}}, {"name": "StatefulPartitionedCall/unet-gen/sequential_2/instance_normalization_1/batchnorm/mul_1", "op": "Mul", "input": ["StatefulPartitionedCall/unet-gen/sequential_2/conv2d_96/Conv2D", "StatefulPartitionedCall/unet-gen/sequential_2/instance_normalization_1/batchnorm/mul"], "attr": {"T": {"type": "DT_FLOAT"}}}, {"name": "StatefulPartitionedCall/unet-gen/sequential_2/instance_normalization_1/batchnorm/sub", "op": "Sub", "input": ["StatefulPartitionedCall/unet-gen/sequential_2/instance_normalization_1/Reshape_1", "StatefulPartitionedCall/unet-gen/sequential_2/instance_normalization_1/batchnorm/mul_2"], "attr": {"T": {"type": "DT_FLOAT"}}}, {"name": "StatefulPartitionedCall/unet-gen/sequential_2/instance_normalization_1/batchnorm/add_1", "op": "AddV2", "input": ["StatefulPartitionedCall/unet-gen/sequential_2/instance_normalization_1/batchnorm/mul_1", "StatefulPartitionedCall/unet-gen/sequential_2/instance_normalization_1/batchnorm/sub"], "attr": {"T": {"type": "DT_FLOAT"}}}, {"name": "StatefulPartitionedCall/unet-gen/sequential_2/leaky_re_lu_2/LeakyRelu", "op": "LeakyRelu", "input": ["StatefulPartitionedCall/unet-gen/sequential_2/instance_normalization_1/batchnorm/add_1"], "attr": {"alpha": {"f": 0.3}, "T": {"type": "DT_FLOAT"}}}, {"name": "StatefulPartitionedCall/unet-gen/sequential_3/conv2d_97/Conv2D", "op": "Conv2D", "input": ["StatefulPartitionedCall/unet-gen/sequential_2/leaky_re_lu_2/LeakyRelu", "StatefulPartitionedCall/unet-gen/sequential_3/conv2d_97/Conv2D/ReadVariableOp"], "device": "/device:CPU:0", "attr": {"padding": {"s": "U0FNRQ=="}, "explicit_paddings": {"list": {}}, "use_cudnn_on_gpu": {"b": true}, "data_format": {"s": "TkhXQw=="}, "dilations": {"list": {"i": ["1", "1", "1", "1"]}}, "strides": {"list": {"i": ["1", "2", "2", "1"]}}, "T": {"type": "DT_FLOAT"}}}, {"name": "StatefulPartitionedCall/unet-gen/sequential_3/instance_normalization_2/moments/mean", "op": "Mean", "input": ["StatefulPartitionedCall/unet-gen/sequential_3/conv2d_97/Conv2D", "StatefulPartitionedCall/unet-gen/sequential_3/instance_normalization_2/moments/mean/reduction_indices"], "attr": {"Tidx": {"type": "DT_INT32"}, "keep_dims": {"b": true}, "T": {"type": "DT_FLOAT"}}}, {"name": "StatefulPartitionedCall/unet-gen/sequential_3/instance_normalization_2/moments/SquaredDifference", "op": "SquaredDifference", "input": ["StatefulPartitionedCall/unet-gen/sequential_3/conv2d_97/Conv2D", "StatefulPartitionedCall/unet-gen/sequential_3/instance_normalization_2/moments/mean"], "attr": {"T": {"type": "DT_FLOAT"}}}, {"name": "StatefulPartitionedCall/unet-gen/sequential_3/instance_normalization_2/moments/variance", "op": "Mean", "input": ["StatefulPartitionedCall/unet-gen/sequential_3/instance_normalization_2/moments/SquaredDifference", "StatefulPartitionedCall/unet-gen/sequential_3/instance_normalization_2/moments/variance/reduction_indices"], "attr": {"keep_dims": {"b": true}, "T": {"type": "DT_FLOAT"}, "Tidx": {"type": "DT_INT32"}}}, {"name": "StatefulPartitionedCall/unet-gen/sequential_3/instance_normalization_2/batchnorm/add", "op": "AddV2", "input": ["StatefulPartitionedCall/unet-gen/sequential_3/instance_normalization_2/moments/variance", "StatefulPartitionedCall/unet-gen/sequential_3/instance_normalization_2/batchnorm/add/y"], "attr": {"T": {"type": "DT_FLOAT"}}}, {"name": "StatefulPartitionedCall/unet-gen/sequential_3/instance_normalization_2/batchnorm/Rsqrt", "op": "Rsqrt", "input": ["StatefulPartitionedCall/unet-gen/sequential_3/instance_normalization_2/batchnorm/add"], "attr": {"T": {"type": "DT_FLOAT"}}}, {"name": "StatefulPartitionedCall/unet-gen/sequential_3/instance_normalization_2/batchnorm/mul", "op": "Mul", "input": ["StatefulPartitionedCall/unet-gen/sequential_3/instance_normalization_2/batchnorm/Rsqrt", "StatefulPartitionedCall/unet-gen/sequential_3/instance_normalization_2/Reshape"], "attr": {"T": {"type": "DT_FLOAT"}}}, {"name": "StatefulPartitionedCall/unet-gen/sequential_3/instance_normalization_2/batchnorm/mul_2", "op": "Mul", "input": ["StatefulPartitionedCall/unet-gen/sequential_3/instance_normalization_2/moments/mean", "StatefulPartitionedCall/unet-gen/sequential_3/instance_normalization_2/batchnorm/mul"], "attr": {"T": {"type": "DT_FLOAT"}}}, {"name": "StatefulPartitionedCall/unet-gen/sequential_3/instance_normalization_2/batchnorm/mul_1", "op": "Mul", "input": ["StatefulPartitionedCall/unet-gen/sequential_3/conv2d_97/Conv2D", "StatefulPartitionedCall/unet-gen/sequential_3/instance_normalization_2/batchnorm/mul"], "attr": {"T": {"type": "DT_FLOAT"}}}, {"name": "StatefulPartitionedCall/unet-gen/sequential_3/instance_normalization_2/batchnorm/sub", "op": "Sub", "input": ["StatefulPartitionedCall/unet-gen/sequential_3/instance_normalization_2/Reshape_1", "StatefulPartitionedCall/unet-gen/sequential_3/instance_normalization_2/batchnorm/mul_2"], "attr": {"T": {"type": "DT_FLOAT"}}}, {"name": "StatefulPartitionedCall/unet-gen/sequential_3/instance_normalization_2/batchnorm/add_1", "op": "AddV2", "input": ["StatefulPartitionedCall/unet-gen/sequential_3/instance_normalization_2/batchnorm/mul_1", "StatefulPartitionedCall/unet-gen/sequential_3/instance_normalization_2/batchnorm/sub"], "attr": {"T": {"type": "DT_FLOAT"}}}, {"name": "StatefulPartitionedCall/unet-gen/sequential_3/leaky_re_lu_3/LeakyRelu", "op": "LeakyRelu", "input": ["StatefulPartitionedCall/unet-gen/sequential_3/instance_normalization_2/batchnorm/add_1"], "attr": {"alpha": {"f": 0.3}, "T": {"type": "DT_FLOAT"}}}, {"name": "StatefulPartitionedCall/unet-gen/sequential_4/conv2d_98/Conv2D", "op": "Conv2D", "input": ["StatefulPartitionedCall/unet-gen/sequential_3/leaky_re_lu_3/LeakyRelu", "StatefulPartitionedCall/unet-gen/sequential_4/conv2d_98/Conv2D/ReadVariableOp"], "device": "/device:CPU:0", "attr": {"data_format": {"s": "TkhXQw=="}, "padding": {"s": "U0FNRQ=="}, "T": {"type": "DT_FLOAT"}, "strides": {"list": {"i": ["1", "2", "2", "1"]}}, "use_cudnn_on_gpu": {"b": true}, "dilations": {"list": {"i": ["1", "1", "1", "1"]}}, "explicit_paddings": {"list": {}}}}, {"name": "StatefulPartitionedCall/unet-gen/sequential_4/instance_normalization_3/moments/mean", "op": "Mean", "input": ["StatefulPartitionedCall/unet-gen/sequential_4/conv2d_98/Conv2D", "StatefulPartitionedCall/unet-gen/sequential_4/instance_normalization_3/moments/mean/reduction_indices"], "attr": {"Tidx": {"type": "DT_INT32"}, "keep_dims": {"b": true}, "T": {"type": "DT_FLOAT"}}}, {"name": "StatefulPartitionedCall/unet-gen/sequential_4/instance_normalization_3/moments/SquaredDifference", "op": "SquaredDifference", "input": ["StatefulPartitionedCall/unet-gen/sequential_4/conv2d_98/Conv2D", "StatefulPartitionedCall/unet-gen/sequential_4/instance_normalization_3/moments/mean"], "attr": {"T": {"type": "DT_FLOAT"}}}, {"name": "StatefulPartitionedCall/unet-gen/sequential_4/instance_normalization_3/moments/variance", "op": "Mean", "input": ["StatefulPartitionedCall/unet-gen/sequential_4/instance_normalization_3/moments/SquaredDifference", "StatefulPartitionedCall/unet-gen/sequential_4/instance_normalization_3/moments/variance/reduction_indices"], "attr": {"T": {"type": "DT_FLOAT"}, "Tidx": {"type": "DT_INT32"}, "keep_dims": {"b": true}}}, {"name": "StatefulPartitionedCall/unet-gen/sequential_4/instance_normalization_3/batchnorm/add", "op": "AddV2", "input": ["StatefulPartitionedCall/unet-gen/sequential_4/instance_normalization_3/moments/variance", "StatefulPartitionedCall/unet-gen/sequential_4/instance_normalization_3/batchnorm/add/y"], "attr": {"T": {"type": "DT_FLOAT"}}}, {"name": "StatefulPartitionedCall/unet-gen/sequential_4/instance_normalization_3/batchnorm/Rsqrt", "op": "Rsqrt", "input": ["StatefulPartitionedCall/unet-gen/sequential_4/instance_normalization_3/batchnorm/add"], "attr": {"T": {"type": "DT_FLOAT"}}}, {"name": "StatefulPartitionedCall/unet-gen/sequential_4/instance_normalization_3/batchnorm/mul", "op": "Mul", "input": ["StatefulPartitionedCall/unet-gen/sequential_4/instance_normalization_3/batchnorm/Rsqrt", "StatefulPartitionedCall/unet-gen/sequential_4/instance_normalization_3/Reshape"], "attr": {"T": {"type": "DT_FLOAT"}}}, {"name": "StatefulPartitionedCall/unet-gen/sequential_4/instance_normalization_3/batchnorm/mul_2", "op": "Mul", "input": ["StatefulPartitionedCall/unet-gen/sequential_4/instance_normalization_3/moments/mean", "StatefulPartitionedCall/unet-gen/sequential_4/instance_normalization_3/batchnorm/mul"], "attr": {"T": {"type": "DT_FLOAT"}}}, {"name": "StatefulPartitionedCall/unet-gen/sequential_4/instance_normalization_3/batchnorm/mul_1", "op": "Mul", "input": ["StatefulPartitionedCall/unet-gen/sequential_4/conv2d_98/Conv2D", "StatefulPartitionedCall/unet-gen/sequential_4/instance_normalization_3/batchnorm/mul"], "attr": {"T": {"type": "DT_FLOAT"}}}, {"name": "StatefulPartitionedCall/unet-gen/sequential_4/instance_normalization_3/batchnorm/sub", "op": "Sub", "input": ["StatefulPartitionedCall/unet-gen/sequential_4/instance_normalization_3/Reshape_1", "StatefulPartitionedCall/unet-gen/sequential_4/instance_normalization_3/batchnorm/mul_2"], "attr": {"T": {"type": "DT_FLOAT"}}}, {"name": "StatefulPartitionedCall/unet-gen/sequential_4/instance_normalization_3/batchnorm/add_1", "op": "AddV2", "input": ["StatefulPartitionedCall/unet-gen/sequential_4/instance_normalization_3/batchnorm/mul_1", "StatefulPartitionedCall/unet-gen/sequential_4/instance_normalization_3/batchnorm/sub"], "attr": {"T": {"type": "DT_FLOAT"}}}, {"name": "StatefulPartitionedCall/unet-gen/sequential_4/leaky_re_lu_4/LeakyRelu", "op": "LeakyRelu", "input": ["StatefulPartitionedCall/unet-gen/sequential_4/instance_normalization_3/batchnorm/add_1"], "attr": {"alpha": {"f": 0.3}, "T": {"type": "DT_FLOAT"}}}, {"name": "StatefulPartitionedCall/unet-gen/sequential_5/conv2d_99/Conv2D", "op": "Conv2D", "input": ["StatefulPartitionedCall/unet-gen/sequential_4/leaky_re_lu_4/LeakyRelu", "StatefulPartitionedCall/unet-gen/sequential_5/conv2d_99/Conv2D/ReadVariableOp"], "device": "/device:CPU:0", "attr": {"explicit_paddings": {"list": {}}, "padding": {"s": "U0FNRQ=="}, "dilations": {"list": {"i": ["1", "1", "1", "1"]}}, "strides": {"list": {"i": ["1", "2", "2", "1"]}}, "data_format": {"s": "TkhXQw=="}, "use_cudnn_on_gpu": {"b": true}, "T": {"type": "DT_FLOAT"}}}, {"name": "StatefulPartitionedCall/unet-gen/sequential_5/instance_normalization_4/moments/mean", "op": "Mean", "input": ["StatefulPartitionedCall/unet-gen/sequential_5/conv2d_99/Conv2D", "StatefulPartitionedCall/unet-gen/sequential_5/instance_normalization_4/moments/mean/reduction_indices"], "attr": {"T": {"type": "DT_FLOAT"}, "Tidx": {"type": "DT_INT32"}, "keep_dims": {"b": true}}}, {"name": "StatefulPartitionedCall/unet-gen/sequential_5/instance_normalization_4/moments/SquaredDifference", "op": "SquaredDifference", "input": ["StatefulPartitionedCall/unet-gen/sequential_5/conv2d_99/Conv2D", "StatefulPartitionedCall/unet-gen/sequential_5/instance_normalization_4/moments/mean"], "attr": {"T": {"type": "DT_FLOAT"}}}, {"name": "StatefulPartitionedCall/unet-gen/sequential_5/instance_normalization_4/moments/variance", "op": "Mean", "input": ["StatefulPartitionedCall/unet-gen/sequential_5/instance_normalization_4/moments/SquaredDifference", "StatefulPartitionedCall/unet-gen/sequential_5/instance_normalization_4/moments/variance/reduction_indices"], "attr": {"T": {"type": "DT_FLOAT"}, "keep_dims": {"b": true}, "Tidx": {"type": "DT_INT32"}}}, {"name": "StatefulPartitionedCall/unet-gen/sequential_5/instance_normalization_4/batchnorm/add", "op": "AddV2", "input": ["StatefulPartitionedCall/unet-gen/sequential_5/instance_normalization_4/moments/variance", "StatefulPartitionedCall/unet-gen/sequential_5/instance_normalization_4/batchnorm/add/y"], "attr": {"T": {"type": "DT_FLOAT"}}}, {"name": "StatefulPartitionedCall/unet-gen/sequential_5/instance_normalization_4/batchnorm/Rsqrt", "op": "Rsqrt", "input": ["StatefulPartitionedCall/unet-gen/sequential_5/instance_normalization_4/batchnorm/add"], "attr": {"T": {"type": "DT_FLOAT"}}}, {"name": "StatefulPartitionedCall/unet-gen/sequential_5/instance_normalization_4/batchnorm/mul_2", "op": "Mul", "input": ["StatefulPartitionedCall/unet-gen/sequential_5/instance_normalization_4/moments/mean", "StatefulPartitionedCall/unet-gen/sequential_5/instance_normalization_4/batchnorm/Rsqrt"], "attr": {"T": {"type": "DT_FLOAT"}}}, {"name": "StatefulPartitionedCall/unet-gen/sequential_5/instance_normalization_4/batchnorm/mul_1", "op": "Mul", "input": ["StatefulPartitionedCall/unet-gen/sequential_5/conv2d_99/Conv2D", "StatefulPartitionedCall/unet-gen/sequential_5/instance_normalization_4/batchnorm/Rsqrt"], "attr": {"T": {"type": "DT_FLOAT"}}}, {"name": "StatefulPartitionedCall/unet-gen/sequential_5/instance_normalization_4/batchnorm/add_1", "op": "Sub", "input": ["StatefulPartitionedCall/unet-gen/sequential_5/instance_normalization_4/batchnorm/mul_1", "StatefulPartitionedCall/unet-gen/sequential_5/instance_normalization_4/batchnorm/mul_2"], "attr": {"T": {"type": "DT_FLOAT"}}}, {"name": "StatefulPartitionedCall/unet-gen/sequential_5/leaky_re_lu_5/LeakyRelu", "op": "LeakyRelu", "input": ["StatefulPartitionedCall/unet-gen/sequential_5/instance_normalization_4/batchnorm/add_1"], "attr": {"T": {"type": "DT_FLOAT"}, "alpha": {"f": 0.3}}}, {"name": "StatefulPartitionedCall/unet-gen/sequential_6/conv2d_transpose/Shape", "op": "Shape", "input": ["StatefulPartitionedCall/unet-gen/sequential_5/leaky_re_lu_5/LeakyRelu"], "attr": {"T": {"type": "DT_FLOAT"}, "out_type": {"type": "DT_INT32"}}}, {"name": "StatefulPartitionedCall/unet-gen/sequential_6/conv2d_transpose/strided_slice", "op": "StridedSlice", "input": ["StatefulPartitionedCall/unet-gen/sequential_6/conv2d_transpose/Shape", "StatefulPartitionedCall/unet-gen/sequential_6/conv2d_transpose/strided_slice/stack", "StatefulPartitionedCall/unet-gen/sequential_6/conv2d_transpose/strided_slice/stack_1", "StatefulPartitionedCall/unet-gen/sequential_6/conv2d_transpose/strided_slice/stack_2"], "attr": {"begin_mask": {"i": "0"}, "Index": {"type": "DT_INT32"}, "shrink_axis_mask": {"i": "1"}, "end_mask": {"i": "0"}, "ellipsis_mask": {"i": "0"}, "new_axis_mask": {"i": "0"}, "T": {"type": "DT_INT32"}}}, {"name": "StatefulPartitionedCall/unet-gen/sequential_6/conv2d_transpose/stack", "op": "Pack", "input": ["StatefulPartitionedCall/unet-gen/sequential_6/conv2d_transpose/strided_slice", "StatefulPartitionedCall/unet-gen/sequential_6/conv2d_transpose/stack/1", "StatefulPartitionedCall/unet-gen/sequential_6/conv2d_transpose/stack/2", "StatefulPartitionedCall/unet-gen/sequential_6/conv2d_transpose/stack/3"], "attr": {"N": {"i": "4"}, "axis": {"i": "0"}, "T": {"type": "DT_INT32"}}}, {"name": "StatefulPartitionedCall/unet-gen/sequential_6/conv2d_transpose/conv2d_transpose", "op": "Conv2DBackpropInput", "input": ["StatefulPartitionedCall/unet-gen/sequential_6/conv2d_transpose/stack", "StatefulPartitionedCall/unet-gen/sequential_6/conv2d_transpose/conv2d_transpose/ReadVariableOp", "StatefulPartitionedCall/unet-gen/sequential_5/leaky_re_lu_5/LeakyRelu"], "attr": {"padding": {"s": "U0FNRQ=="}, "use_cudnn_on_gpu": {"b": true}, "data_format": {"s": "TkhXQw=="}, "explicit_paddings": {"list": {}}, "dilations": {"list": {"i": ["1", "1", "1", "1"]}}, "strides": {"list": {"i": ["1", "2", "2", "1"]}}, "T": {"type": "DT_FLOAT"}}}, {"name": "StatefulPartitionedCall/unet-gen/sequential_6/instance_normalization_5/moments/mean", "op": "Mean", "input": ["StatefulPartitionedCall/unet-gen/sequential_6/conv2d_transpose/conv2d_transpose", "StatefulPartitionedCall/unet-gen/sequential_6/instance_normalization_5/moments/mean/reduction_indices"], "attr": {"keep_dims": {"b": true}, "T": {"type": "DT_FLOAT"}, "Tidx": {"type": "DT_INT32"}}}, {"name": "StatefulPartitionedCall/unet-gen/sequential_6/instance_normalization_5/moments/SquaredDifference", "op": "SquaredDifference", "input": ["StatefulPartitionedCall/unet-gen/sequential_6/conv2d_transpose/conv2d_transpose", "StatefulPartitionedCall/unet-gen/sequential_6/instance_normalization_5/moments/mean"], "attr": {"T": {"type": "DT_FLOAT"}}}, {"name": "StatefulPartitionedCall/unet-gen/sequential_6/instance_normalization_5/moments/variance", "op": "Mean", "input": ["StatefulPartitionedCall/unet-gen/sequential_6/instance_normalization_5/moments/SquaredDifference", "StatefulPartitionedCall/unet-gen/sequential_6/instance_normalization_5/moments/variance/reduction_indices"], "attr": {"keep_dims": {"b": true}, "T": {"type": "DT_FLOAT"}, "Tidx": {"type": "DT_INT32"}}}, {"name": "StatefulPartitionedCall/unet-gen/sequential_6/instance_normalization_5/batchnorm/add", "op": "AddV2", "input": ["StatefulPartitionedCall/unet-gen/sequential_6/instance_normalization_5/moments/variance", "StatefulPartitionedCall/unet-gen/sequential_6/instance_normalization_5/batchnorm/add/y"], "attr": {"T": {"type": "DT_FLOAT"}}}, {"name": "StatefulPartitionedCall/unet-gen/sequential_6/instance_normalization_5/batchnorm/Rsqrt", "op": "Rsqrt", "input": ["StatefulPartitionedCall/unet-gen/sequential_6/instance_normalization_5/batchnorm/add"], "attr": {"T": {"type": "DT_FLOAT"}}}, {"name": "StatefulPartitionedCall/unet-gen/sequential_6/instance_normalization_5/batchnorm/mul_2", "op": "Mul", "input": ["StatefulPartitionedCall/unet-gen/sequential_6/instance_normalization_5/moments/mean", "StatefulPartitionedCall/unet-gen/sequential_6/instance_normalization_5/batchnorm/Rsqrt"], "attr": {"T": {"type": "DT_FLOAT"}}}, {"name": "StatefulPartitionedCall/unet-gen/sequential_6/instance_normalization_5/batchnorm/mul_1", "op": "Mul", "input": ["StatefulPartitionedCall/unet-gen/sequential_6/conv2d_transpose/conv2d_transpose", "StatefulPartitionedCall/unet-gen/sequential_6/instance_normalization_5/batchnorm/Rsqrt"], "attr": {"T": {"type": "DT_FLOAT"}}}, {"name": "StatefulPartitionedCall/unet-gen/sequential_6/instance_normalization_5/batchnorm/add_1", "op": "Sub", "input": ["StatefulPartitionedCall/unet-gen/sequential_6/instance_normalization_5/batchnorm/mul_1", "StatefulPartitionedCall/unet-gen/sequential_6/instance_normalization_5/batchnorm/mul_2"], "attr": {"T": {"type": "DT_FLOAT"}}}, {"name": "StatefulPartitionedCall/unet-gen/sequential_6/re_lu/Relu", "op": "Relu", "input": ["StatefulPartitionedCall/unet-gen/sequential_6/instance_normalization_5/batchnorm/add_1"], "attr": {"T": {"type": "DT_FLOAT"}}}, {"name": "StatefulPartitionedCall/unet-gen/concatenate_2/concat", "op": "ConcatV2", "input": ["StatefulPartitionedCall/unet-gen/sequential_6/re_lu/Relu", "StatefulPartitionedCall/unet-gen/sequential_4/leaky_re_lu_4/LeakyRelu", "StatefulPartitionedCall/unet-gen/concatenate_2/concat/axis"], "attr": {"N": {"i": "2"}, "T": {"type": "DT_FLOAT"}, "Tidx": {"type": "DT_INT32"}}}, {"name": "StatefulPartitionedCall/unet-gen/sequential_7/conv2d_transpose_1/Shape", "op": "Shape", "input": ["StatefulPartitionedCall/unet-gen/concatenate_2/concat"], "attr": {"out_type": {"type": "DT_INT32"}, "T": {"type": "DT_FLOAT"}}}, {"name": "StatefulPartitionedCall/unet-gen/sequential_7/conv2d_transpose_1/strided_slice", "op": "StridedSlice", "input": ["StatefulPartitionedCall/unet-gen/sequential_7/conv2d_transpose_1/Shape", "StatefulPartitionedCall/unet-gen/sequential_7/conv2d_transpose_1/strided_slice/stack", "StatefulPartitionedCall/unet-gen/sequential_7/conv2d_transpose_1/strided_slice/stack_1", "StatefulPartitionedCall/unet-gen/sequential_7/conv2d_transpose_1/strided_slice/stack_2"], "attr": {"Index": {"type": "DT_INT32"}, "new_axis_mask": {"i": "0"}, "end_mask": {"i": "0"}, "begin_mask": {"i": "0"}, "ellipsis_mask": {"i": "0"}, "T": {"type": "DT_INT32"}, "shrink_axis_mask": {"i": "1"}}}, {"name": "StatefulPartitionedCall/unet-gen/sequential_7/conv2d_transpose_1/stack", "op": "Pack", "input": ["StatefulPartitionedCall/unet-gen/sequential_7/conv2d_transpose_1/strided_slice", "StatefulPartitionedCall/unet-gen/sequential_7/conv2d_transpose_1/stack/1", "StatefulPartitionedCall/unet-gen/sequential_7/conv2d_transpose_1/stack/2", "StatefulPartitionedCall/unet-gen/sequential_7/conv2d_transpose_1/stack/3"], "attr": {"T": {"type": "DT_INT32"}, "N": {"i": "4"}, "axis": {"i": "0"}}}, {"name": "StatefulPartitionedCall/unet-gen/sequential_7/conv2d_transpose_1/conv2d_transpose", "op": "Conv2DBackpropInput", "input": ["StatefulPartitionedCall/unet-gen/sequential_7/conv2d_transpose_1/stack", "StatefulPartitionedCall/unet-gen/sequential_7/conv2d_transpose_1/conv2d_transpose/ReadVariableOp", "StatefulPartitionedCall/unet-gen/concatenate_2/concat"], "attr": {"explicit_paddings": {"list": {}}, "data_format": {"s": "TkhXQw=="}, "padding": {"s": "U0FNRQ=="}, "dilations": {"list": {"i": ["1", "1", "1", "1"]}}, "use_cudnn_on_gpu": {"b": true}, "strides": {"list": {"i": ["1", "2", "2", "1"]}}, "T": {"type": "DT_FLOAT"}}}, {"name": "StatefulPartitionedCall/unet-gen/sequential_7/instance_normalization_6/moments/mean", "op": "Mean", "input": ["StatefulPartitionedCall/unet-gen/sequential_7/conv2d_transpose_1/conv2d_transpose", "StatefulPartitionedCall/unet-gen/sequential_7/instance_normalization_6/moments/mean/reduction_indices"], "attr": {"keep_dims": {"b": true}, "T": {"type": "DT_FLOAT"}, "Tidx": {"type": "DT_INT32"}}}, {"name": "StatefulPartitionedCall/unet-gen/sequential_7/instance_normalization_6/moments/SquaredDifference", "op": "SquaredDifference", "input": ["StatefulPartitionedCall/unet-gen/sequential_7/conv2d_transpose_1/conv2d_transpose", "StatefulPartitionedCall/unet-gen/sequential_7/instance_normalization_6/moments/mean"], "attr": {"T": {"type": "DT_FLOAT"}}}, {"name": "StatefulPartitionedCall/unet-gen/sequential_7/instance_normalization_6/moments/variance", "op": "Mean", "input": ["StatefulPartitionedCall/unet-gen/sequential_7/instance_normalization_6/moments/SquaredDifference", "StatefulPartitionedCall/unet-gen/sequential_7/instance_normalization_6/moments/variance/reduction_indices"], "attr": {"Tidx": {"type": "DT_INT32"}, "T": {"type": "DT_FLOAT"}, "keep_dims": {"b": true}}}, {"name": "StatefulPartitionedCall/unet-gen/sequential_7/instance_normalization_6/batchnorm/add", "op": "AddV2", "input": ["StatefulPartitionedCall/unet-gen/sequential_7/instance_normalization_6/moments/variance", "StatefulPartitionedCall/unet-gen/sequential_7/instance_normalization_6/batchnorm/add/y"], "attr": {"T": {"type": "DT_FLOAT"}}}, {"name": "StatefulPartitionedCall/unet-gen/sequential_7/instance_normalization_6/batchnorm/Rsqrt", "op": "Rsqrt", "input": ["StatefulPartitionedCall/unet-gen/sequential_7/instance_normalization_6/batchnorm/add"], "attr": {"T": {"type": "DT_FLOAT"}}}, {"name": "StatefulPartitionedCall/unet-gen/sequential_7/instance_normalization_6/batchnorm/mul", "op": "Mul", "input": ["StatefulPartitionedCall/unet-gen/sequential_7/instance_normalization_6/batchnorm/Rsqrt", "StatefulPartitionedCall/unet-gen/sequential_7/instance_normalization_6/Reshape"], "attr": {"T": {"type": "DT_FLOAT"}}}, {"name": "StatefulPartitionedCall/unet-gen/sequential_7/instance_normalization_6/batchnorm/mul_2", "op": "Mul", "input": ["StatefulPartitionedCall/unet-gen/sequential_7/instance_normalization_6/moments/mean", "StatefulPartitionedCall/unet-gen/sequential_7/instance_normalization_6/batchnorm/mul"], "attr": {"T": {"type": "DT_FLOAT"}}}, {"name": "StatefulPartitionedCall/unet-gen/sequential_7/instance_normalization_6/batchnorm/mul_1", "op": "Mul", "input": ["StatefulPartitionedCall/unet-gen/sequential_7/conv2d_transpose_1/conv2d_transpose", "StatefulPartitionedCall/unet-gen/sequential_7/instance_normalization_6/batchnorm/mul"], "attr": {"T": {"type": "DT_FLOAT"}}}, {"name": "StatefulPartitionedCall/unet-gen/sequential_7/instance_normalization_6/batchnorm/sub", "op": "Sub", "input": ["StatefulPartitionedCall/unet-gen/sequential_7/instance_normalization_6/Reshape_1", "StatefulPartitionedCall/unet-gen/sequential_7/instance_normalization_6/batchnorm/mul_2"], "attr": {"T": {"type": "DT_FLOAT"}}}, {"name": "StatefulPartitionedCall/unet-gen/sequential_7/instance_normalization_6/batchnorm/add_1", "op": "AddV2", "input": ["StatefulPartitionedCall/unet-gen/sequential_7/instance_normalization_6/batchnorm/mul_1", "StatefulPartitionedCall/unet-gen/sequential_7/instance_normalization_6/batchnorm/sub"], "attr": {"T": {"type": "DT_FLOAT"}}}, {"name": "StatefulPartitionedCall/unet-gen/sequential_7/re_lu_1/Relu", "op": "Relu", "input": ["StatefulPartitionedCall/unet-gen/sequential_7/instance_normalization_6/batchnorm/add_1"], "attr": {"T": {"type": "DT_FLOAT"}}}, {"name": "StatefulPartitionedCall/unet-gen/concatenate_3/concat", "op": "ConcatV2", "input": ["StatefulPartitionedCall/unet-gen/sequential_7/re_lu_1/Relu", "StatefulPartitionedCall/unet-gen/sequential_3/leaky_re_lu_3/LeakyRelu", "StatefulPartitionedCall/unet-gen/concatenate_3/concat/axis"], "attr": {"T": {"type": "DT_FLOAT"}, "N": {"i": "2"}, "Tidx": {"type": "DT_INT32"}}}, {"name": "StatefulPartitionedCall/unet-gen/sequential_8/conv2d_transpose_2/Shape", "op": "Shape", "input": ["StatefulPartitionedCall/unet-gen/concatenate_3/concat"], "attr": {"out_type": {"type": "DT_INT32"}, "T": {"type": "DT_FLOAT"}}}, {"name": "StatefulPartitionedCall/unet-gen/sequential_8/conv2d_transpose_2/strided_slice", "op": "StridedSlice", "input": ["StatefulPartitionedCall/unet-gen/sequential_8/conv2d_transpose_2/Shape", "StatefulPartitionedCall/unet-gen/sequential_8/conv2d_transpose_2/strided_slice/stack", "StatefulPartitionedCall/unet-gen/sequential_8/conv2d_transpose_2/strided_slice/stack_1", "StatefulPartitionedCall/unet-gen/sequential_8/conv2d_transpose_2/strided_slice/stack_2"], "attr": {"ellipsis_mask": {"i": "0"}, "end_mask": {"i": "0"}, "begin_mask": {"i": "0"}, "new_axis_mask": {"i": "0"}, "T": {"type": "DT_INT32"}, "Index": {"type": "DT_INT32"}, "shrink_axis_mask": {"i": "1"}}}, {"name": "StatefulPartitionedCall/unet-gen/sequential_8/conv2d_transpose_2/stack", "op": "Pack", "input": ["StatefulPartitionedCall/unet-gen/sequential_8/conv2d_transpose_2/strided_slice", "StatefulPartitionedCall/unet-gen/sequential_8/conv2d_transpose_2/stack/1", "StatefulPartitionedCall/unet-gen/sequential_8/conv2d_transpose_2/stack/2", "StatefulPartitionedCall/unet-gen/sequential_8/conv2d_transpose_2/stack/3"], "attr": {"axis": {"i": "0"}, "N": {"i": "4"}, "T": {"type": "DT_INT32"}}}, {"name": "StatefulPartitionedCall/unet-gen/sequential_8/conv2d_transpose_2/conv2d_transpose", "op": "Conv2DBackpropInput", "input": ["StatefulPartitionedCall/unet-gen/sequential_8/conv2d_transpose_2/stack", "StatefulPartitionedCall/unet-gen/sequential_8/conv2d_transpose_2/conv2d_transpose/ReadVariableOp", "StatefulPartitionedCall/unet-gen/concatenate_3/concat"], "attr": {"dilations": {"list": {"i": ["1", "1", "1", "1"]}}, "padding": {"s": "U0FNRQ=="}, "T": {"type": "DT_FLOAT"}, "use_cudnn_on_gpu": {"b": true}, "strides": {"list": {"i": ["1", "2", "2", "1"]}}, "data_format": {"s": "TkhXQw=="}, "explicit_paddings": {"list": {}}}}, {"name": "StatefulPartitionedCall/unet-gen/sequential_8/instance_normalization_7/moments/mean", "op": "Mean", "input": ["StatefulPartitionedCall/unet-gen/sequential_8/conv2d_transpose_2/conv2d_transpose", "StatefulPartitionedCall/unet-gen/sequential_8/instance_normalization_7/moments/mean/reduction_indices"], "attr": {"keep_dims": {"b": true}, "T": {"type": "DT_FLOAT"}, "Tidx": {"type": "DT_INT32"}}}, {"name": "StatefulPartitionedCall/unet-gen/sequential_8/instance_normalization_7/moments/SquaredDifference", "op": "SquaredDifference", "input": ["StatefulPartitionedCall/unet-gen/sequential_8/conv2d_transpose_2/conv2d_transpose", "StatefulPartitionedCall/unet-gen/sequential_8/instance_normalization_7/moments/mean"], "attr": {"T": {"type": "DT_FLOAT"}}}, {"name": "StatefulPartitionedCall/unet-gen/sequential_8/instance_normalization_7/moments/variance", "op": "Mean", "input": ["StatefulPartitionedCall/unet-gen/sequential_8/instance_normalization_7/moments/SquaredDifference", "StatefulPartitionedCall/unet-gen/sequential_8/instance_normalization_7/moments/variance/reduction_indices"], "attr": {"Tidx": {"type": "DT_INT32"}, "T": {"type": "DT_FLOAT"}, "keep_dims": {"b": true}}}, {"name": "StatefulPartitionedCall/unet-gen/sequential_8/instance_normalization_7/batchnorm/add", "op": "AddV2", "input": ["StatefulPartitionedCall/unet-gen/sequential_8/instance_normalization_7/moments/variance", "StatefulPartitionedCall/unet-gen/sequential_8/instance_normalization_7/batchnorm/add/y"], "attr": {"T": {"type": "DT_FLOAT"}}}, {"name": "StatefulPartitionedCall/unet-gen/sequential_8/instance_normalization_7/batchnorm/Rsqrt", "op": "Rsqrt", "input": ["StatefulPartitionedCall/unet-gen/sequential_8/instance_normalization_7/batchnorm/add"], "attr": {"T": {"type": "DT_FLOAT"}}}, {"name": "StatefulPartitionedCall/unet-gen/sequential_8/instance_normalization_7/batchnorm/mul", "op": "Mul", "input": ["StatefulPartitionedCall/unet-gen/sequential_8/instance_normalization_7/batchnorm/Rsqrt", "StatefulPartitionedCall/unet-gen/sequential_8/instance_normalization_7/Reshape"], "attr": {"T": {"type": "DT_FLOAT"}}}, {"name": "StatefulPartitionedCall/unet-gen/sequential_8/instance_normalization_7/batchnorm/mul_2", "op": "Mul", "input": ["StatefulPartitionedCall/unet-gen/sequential_8/instance_normalization_7/moments/mean", "StatefulPartitionedCall/unet-gen/sequential_8/instance_normalization_7/batchnorm/mul"], "attr": {"T": {"type": "DT_FLOAT"}}}, {"name": "StatefulPartitionedCall/unet-gen/sequential_8/instance_normalization_7/batchnorm/mul_1", "op": "Mul", "input": ["StatefulPartitionedCall/unet-gen/sequential_8/conv2d_transpose_2/conv2d_transpose", "StatefulPartitionedCall/unet-gen/sequential_8/instance_normalization_7/batchnorm/mul"], "attr": {"T": {"type": "DT_FLOAT"}}}, {"name": "StatefulPartitionedCall/unet-gen/sequential_8/instance_normalization_7/batchnorm/sub", "op": "Sub", "input": ["StatefulPartitionedCall/unet-gen/sequential_8/instance_normalization_7/Reshape_1", "StatefulPartitionedCall/unet-gen/sequential_8/instance_normalization_7/batchnorm/mul_2"], "attr": {"T": {"type": "DT_FLOAT"}}}, {"name": "StatefulPartitionedCall/unet-gen/sequential_8/instance_normalization_7/batchnorm/add_1", "op": "AddV2", "input": ["StatefulPartitionedCall/unet-gen/sequential_8/instance_normalization_7/batchnorm/mul_1", "StatefulPartitionedCall/unet-gen/sequential_8/instance_normalization_7/batchnorm/sub"], "attr": {"T": {"type": "DT_FLOAT"}}}, {"name": "StatefulPartitionedCall/unet-gen/sequential_8/re_lu_2/Relu", "op": "Relu", "input": ["StatefulPartitionedCall/unet-gen/sequential_8/instance_normalization_7/batchnorm/add_1"], "attr": {"T": {"type": "DT_FLOAT"}}}, {"name": "StatefulPartitionedCall/unet-gen/concatenate_4/concat", "op": "ConcatV2", "input": ["StatefulPartitionedCall/unet-gen/sequential_8/re_lu_2/Relu", "StatefulPartitionedCall/unet-gen/sequential_2/leaky_re_lu_2/LeakyRelu", "StatefulPartitionedCall/unet-gen/concatenate_4/concat/axis"], "attr": {"Tidx": {"type": "DT_INT32"}, "N": {"i": "2"}, "T": {"type": "DT_FLOAT"}}}, {"name": "StatefulPartitionedCall/unet-gen/sequential_9/conv2d_transpose_3/Shape", "op": "Shape", "input": ["StatefulPartitionedCall/unet-gen/concatenate_4/concat"], "attr": {"out_type": {"type": "DT_INT32"}, "T": {"type": "DT_FLOAT"}}}, {"name": "StatefulPartitionedCall/unet-gen/sequential_9/conv2d_transpose_3/strided_slice", "op": "StridedSlice", "input": ["StatefulPartitionedCall/unet-gen/sequential_9/conv2d_transpose_3/Shape", "StatefulPartitionedCall/unet-gen/sequential_9/conv2d_transpose_3/strided_slice/stack", "StatefulPartitionedCall/unet-gen/sequential_9/conv2d_transpose_3/strided_slice/stack_1", "StatefulPartitionedCall/unet-gen/sequential_9/conv2d_transpose_3/strided_slice/stack_2"], "attr": {"begin_mask": {"i": "0"}, "Index": {"type": "DT_INT32"}, "shrink_axis_mask": {"i": "1"}, "T": {"type": "DT_INT32"}, "new_axis_mask": {"i": "0"}, "end_mask": {"i": "0"}, "ellipsis_mask": {"i": "0"}}}, {"name": "StatefulPartitionedCall/unet-gen/sequential_9/conv2d_transpose_3/stack", "op": "Pack", "input": ["StatefulPartitionedCall/unet-gen/sequential_9/conv2d_transpose_3/strided_slice", "StatefulPartitionedCall/unet-gen/sequential_9/conv2d_transpose_3/stack/1", "StatefulPartitionedCall/unet-gen/sequential_9/conv2d_transpose_3/stack/2", "StatefulPartitionedCall/unet-gen/sequential_9/conv2d_transpose_3/stack/3"], "attr": {"axis": {"i": "0"}, "T": {"type": "DT_INT32"}, "N": {"i": "4"}}}, {"name": "StatefulPartitionedCall/unet-gen/sequential_9/conv2d_transpose_3/conv2d_transpose", "op": "Conv2DBackpropInput", "input": ["StatefulPartitionedCall/unet-gen/sequential_9/conv2d_transpose_3/stack", "StatefulPartitionedCall/unet-gen/sequential_9/conv2d_transpose_3/conv2d_transpose/ReadVariableOp", "StatefulPartitionedCall/unet-gen/concatenate_4/concat"], "attr": {"T": {"type": "DT_FLOAT"}, "padding": {"s": "U0FNRQ=="}, "use_cudnn_on_gpu": {"b": true}, "strides": {"list": {"i": ["1", "2", "2", "1"]}}, "dilations": {"list": {"i": ["1", "1", "1", "1"]}}, "data_format": {"s": "TkhXQw=="}, "explicit_paddings": {"list": {}}}}, {"name": "StatefulPartitionedCall/unet-gen/sequential_9/instance_normalization_8/moments/mean", "op": "Mean", "input": ["StatefulPartitionedCall/unet-gen/sequential_9/conv2d_transpose_3/conv2d_transpose", "StatefulPartitionedCall/unet-gen/sequential_9/instance_normalization_8/moments/mean/reduction_indices"], "attr": {"T": {"type": "DT_FLOAT"}, "Tidx": {"type": "DT_INT32"}, "keep_dims": {"b": true}}}, {"name": "StatefulPartitionedCall/unet-gen/sequential_9/instance_normalization_8/moments/SquaredDifference", "op": "SquaredDifference", "input": ["StatefulPartitionedCall/unet-gen/sequential_9/conv2d_transpose_3/conv2d_transpose", "StatefulPartitionedCall/unet-gen/sequential_9/instance_normalization_8/moments/mean"], "attr": {"T": {"type": "DT_FLOAT"}}}, {"name": "StatefulPartitionedCall/unet-gen/sequential_9/instance_normalization_8/moments/variance", "op": "Mean", "input": ["StatefulPartitionedCall/unet-gen/sequential_9/instance_normalization_8/moments/SquaredDifference", "StatefulPartitionedCall/unet-gen/sequential_9/instance_normalization_8/moments/variance/reduction_indices"], "attr": {"Tidx": {"type": "DT_INT32"}, "keep_dims": {"b": true}, "T": {"type": "DT_FLOAT"}}}, {"name": "StatefulPartitionedCall/unet-gen/sequential_9/instance_normalization_8/batchnorm/add", "op": "AddV2", "input": ["StatefulPartitionedCall/unet-gen/sequential_9/instance_normalization_8/moments/variance", "StatefulPartitionedCall/unet-gen/sequential_9/instance_normalization_8/batchnorm/add/y"], "attr": {"T": {"type": "DT_FLOAT"}}}, {"name": "StatefulPartitionedCall/unet-gen/sequential_9/instance_normalization_8/batchnorm/Rsqrt", "op": "Rsqrt", "input": ["StatefulPartitionedCall/unet-gen/sequential_9/instance_normalization_8/batchnorm/add"], "attr": {"T": {"type": "DT_FLOAT"}}}, {"name": "StatefulPartitionedCall/unet-gen/sequential_9/instance_normalization_8/batchnorm/mul", "op": "Mul", "input": ["StatefulPartitionedCall/unet-gen/sequential_9/instance_normalization_8/batchnorm/Rsqrt", "StatefulPartitionedCall/unet-gen/sequential_9/instance_normalization_8/Reshape"], "attr": {"T": {"type": "DT_FLOAT"}}}, {"name": "StatefulPartitionedCall/unet-gen/sequential_9/instance_normalization_8/batchnorm/mul_2", "op": "Mul", "input": ["StatefulPartitionedCall/unet-gen/sequential_9/instance_normalization_8/moments/mean", "StatefulPartitionedCall/unet-gen/sequential_9/instance_normalization_8/batchnorm/mul"], "attr": {"T": {"type": "DT_FLOAT"}}}, {"name": "StatefulPartitionedCall/unet-gen/sequential_9/instance_normalization_8/batchnorm/mul_1", "op": "Mul", "input": ["StatefulPartitionedCall/unet-gen/sequential_9/conv2d_transpose_3/conv2d_transpose", "StatefulPartitionedCall/unet-gen/sequential_9/instance_normalization_8/batchnorm/mul"], "attr": {"T": {"type": "DT_FLOAT"}}}, {"name": "StatefulPartitionedCall/unet-gen/sequential_9/instance_normalization_8/batchnorm/sub", "op": "Sub", "input": ["StatefulPartitionedCall/unet-gen/sequential_9/instance_normalization_8/Reshape_1", "StatefulPartitionedCall/unet-gen/sequential_9/instance_normalization_8/batchnorm/mul_2"], "attr": {"T": {"type": "DT_FLOAT"}}}, {"name": "StatefulPartitionedCall/unet-gen/sequential_9/instance_normalization_8/batchnorm/add_1", "op": "AddV2", "input": ["StatefulPartitionedCall/unet-gen/sequential_9/instance_normalization_8/batchnorm/mul_1", "StatefulPartitionedCall/unet-gen/sequential_9/instance_normalization_8/batchnorm/sub"], "attr": {"T": {"type": "DT_FLOAT"}}}, {"name": "StatefulPartitionedCall/unet-gen/sequential_9/re_lu_3/Relu", "op": "Relu", "input": ["StatefulPartitionedCall/unet-gen/sequential_9/instance_normalization_8/batchnorm/add_1"], "attr": {"T": {"type": "DT_FLOAT"}}}, {"name": "StatefulPartitionedCall/unet-gen/concatenate_5/concat", "op": "ConcatV2", "input": ["StatefulPartitionedCall/unet-gen/sequential_9/re_lu_3/Relu", "StatefulPartitionedCall/unet-gen/sequential_1/leaky_re_lu_1/LeakyRelu", "StatefulPartitionedCall/unet-gen/concatenate_5/concat/axis"], "attr": {"Tidx": {"type": "DT_INT32"}, "N": {"i": "2"}, "T": {"type": "DT_FLOAT"}}}, {"name": "StatefulPartitionedCall/unet-gen/sequential_10/conv2d_transpose_4/Shape", "op": "Shape", "input": ["StatefulPartitionedCall/unet-gen/concatenate_5/concat"], "attr": {"out_type": {"type": "DT_INT32"}, "T": {"type": "DT_FLOAT"}}}, {"name": "StatefulPartitionedCall/unet-gen/sequential_10/conv2d_transpose_4/strided_slice", "op": "StridedSlice", "input": ["StatefulPartitionedCall/unet-gen/sequential_10/conv2d_transpose_4/Shape", "StatefulPartitionedCall/unet-gen/sequential_10/conv2d_transpose_4/strided_slice/stack", "StatefulPartitionedCall/unet-gen/sequential_10/conv2d_transpose_4/strided_slice/stack_1", "StatefulPartitionedCall/unet-gen/sequential_10/conv2d_transpose_4/strided_slice/stack_2"], "attr": {"begin_mask": {"i": "0"}, "Index": {"type": "DT_INT32"}, "T": {"type": "DT_INT32"}, "shrink_axis_mask": {"i": "1"}, "end_mask": {"i": "0"}, "new_axis_mask": {"i": "0"}, "ellipsis_mask": {"i": "0"}}}, {"name": "StatefulPartitionedCall/unet-gen/sequential_10/conv2d_transpose_4/stack", "op": "Pack", "input": ["StatefulPartitionedCall/unet-gen/sequential_10/conv2d_transpose_4/strided_slice", "StatefulPartitionedCall/unet-gen/sequential_10/conv2d_transpose_4/stack/1", "StatefulPartitionedCall/unet-gen/sequential_10/conv2d_transpose_4/stack/2", "StatefulPartitionedCall/unet-gen/sequential_10/conv2d_transpose_4/stack/3"], "attr": {"N": {"i": "4"}, "axis": {"i": "0"}, "T": {"type": "DT_INT32"}}}, {"name": "StatefulPartitionedCall/unet-gen/sequential_10/conv2d_transpose_4/conv2d_transpose", "op": "Conv2DBackpropInput", "input": ["StatefulPartitionedCall/unet-gen/sequential_10/conv2d_transpose_4/stack", "StatefulPartitionedCall/unet-gen/sequential_10/conv2d_transpose_4/conv2d_transpose/ReadVariableOp", "StatefulPartitionedCall/unet-gen/concatenate_5/concat"], "attr": {"T": {"type": "DT_FLOAT"}, "data_format": {"s": "TkhXQw=="}, "use_cudnn_on_gpu": {"b": true}, "explicit_paddings": {"list": {}}, "strides": {"list": {"i": ["1", "2", "2", "1"]}}, "padding": {"s": "U0FNRQ=="}, "dilations": {"list": {"i": ["1", "1", "1", "1"]}}}}, {"name": "StatefulPartitionedCall/unet-gen/sequential_10/instance_normalization_9/moments/mean", "op": "Mean", "input": ["StatefulPartitionedCall/unet-gen/sequential_10/conv2d_transpose_4/conv2d_transpose", "StatefulPartitionedCall/unet-gen/sequential_10/instance_normalization_9/moments/mean/reduction_indices"], "attr": {"T": {"type": "DT_FLOAT"}, "Tidx": {"type": "DT_INT32"}, "keep_dims": {"b": true}}}, {"name": "StatefulPartitionedCall/unet-gen/sequential_10/instance_normalization_9/moments/SquaredDifference", "op": "SquaredDifference", "input": ["StatefulPartitionedCall/unet-gen/sequential_10/conv2d_transpose_4/conv2d_transpose", "StatefulPartitionedCall/unet-gen/sequential_10/instance_normalization_9/moments/mean"], "attr": {"T": {"type": "DT_FLOAT"}}}, {"name": "StatefulPartitionedCall/unet-gen/sequential_10/instance_normalization_9/moments/variance", "op": "Mean", "input": ["StatefulPartitionedCall/unet-gen/sequential_10/instance_normalization_9/moments/SquaredDifference", "StatefulPartitionedCall/unet-gen/sequential_10/instance_normalization_9/moments/variance/reduction_indices"], "attr": {"Tidx": {"type": "DT_INT32"}, "T": {"type": "DT_FLOAT"}, "keep_dims": {"b": true}}}, {"name": "StatefulPartitionedCall/unet-gen/sequential_10/instance_normalization_9/batchnorm/add", "op": "AddV2", "input": ["StatefulPartitionedCall/unet-gen/sequential_10/instance_normalization_9/moments/variance", "StatefulPartitionedCall/unet-gen/sequential_10/instance_normalization_9/batchnorm/add/y"], "attr": {"T": {"type": "DT_FLOAT"}}}, {"name": "StatefulPartitionedCall/unet-gen/sequential_10/instance_normalization_9/batchnorm/Rsqrt", "op": "Rsqrt", "input": ["StatefulPartitionedCall/unet-gen/sequential_10/instance_normalization_9/batchnorm/add"], "attr": {"T": {"type": "DT_FLOAT"}}}, {"name": "StatefulPartitionedCall/unet-gen/sequential_10/instance_normalization_9/batchnorm/mul", "op": "Mul", "input": ["StatefulPartitionedCall/unet-gen/sequential_10/instance_normalization_9/batchnorm/Rsqrt", "StatefulPartitionedCall/unet-gen/sequential_10/instance_normalization_9/Reshape"], "attr": {"T": {"type": "DT_FLOAT"}}}, {"name": "StatefulPartitionedCall/unet-gen/sequential_10/instance_normalization_9/batchnorm/mul_2", "op": "Mul", "input": ["StatefulPartitionedCall/unet-gen/sequential_10/instance_normalization_9/moments/mean", "StatefulPartitionedCall/unet-gen/sequential_10/instance_normalization_9/batchnorm/mul"], "attr": {"T": {"type": "DT_FLOAT"}}}, {"name": "StatefulPartitionedCall/unet-gen/sequential_10/instance_normalization_9/batchnorm/mul_1", "op": "Mul", "input": ["StatefulPartitionedCall/unet-gen/sequential_10/conv2d_transpose_4/conv2d_transpose", "StatefulPartitionedCall/unet-gen/sequential_10/instance_normalization_9/batchnorm/mul"], "attr": {"T": {"type": "DT_FLOAT"}}}, {"name": "StatefulPartitionedCall/unet-gen/sequential_10/instance_normalization_9/batchnorm/sub", "op": "Sub", "input": ["StatefulPartitionedCall/unet-gen/sequential_10/instance_normalization_9/Reshape_1", "StatefulPartitionedCall/unet-gen/sequential_10/instance_normalization_9/batchnorm/mul_2"], "attr": {"T": {"type": "DT_FLOAT"}}}, {"name": "StatefulPartitionedCall/unet-gen/sequential_10/instance_normalization_9/batchnorm/add_1", "op": "AddV2", "input": ["StatefulPartitionedCall/unet-gen/sequential_10/instance_normalization_9/batchnorm/mul_1", "StatefulPartitionedCall/unet-gen/sequential_10/instance_normalization_9/batchnorm/sub"], "attr": {"T": {"type": "DT_FLOAT"}}}, {"name": "StatefulPartitionedCall/unet-gen/sequential_10/re_lu_4/Relu", "op": "Relu", "input": ["StatefulPartitionedCall/unet-gen/sequential_10/instance_normalization_9/batchnorm/add_1"], "attr": {"T": {"type": "DT_FLOAT"}}}, {"name": "StatefulPartitionedCall/unet-gen/concatenate_6/concat", "op": "ConcatV2", "input": ["StatefulPartitionedCall/unet-gen/sequential_10/re_lu_4/Relu", "StatefulPartitionedCall/unet-gen/sequential/leaky_re_lu/LeakyRelu", "StatefulPartitionedCall/unet-gen/concatenate_6/concat/axis"], "attr": {"Tidx": {"type": "DT_INT32"}, "T": {"type": "DT_FLOAT"}, "N": {"i": "2"}}}, {"name": "StatefulPartitionedCall/unet-gen/sequential_11/conv2d_transpose_5/Shape", "op": "Shape", "input": ["StatefulPartitionedCall/unet-gen/concatenate_6/concat"], "attr": {"out_type": {"type": "DT_INT32"}, "T": {"type": "DT_FLOAT"}}}, {"name": "StatefulPartitionedCall/unet-gen/sequential_11/conv2d_transpose_5/strided_slice", "op": "StridedSlice", "input": ["StatefulPartitionedCall/unet-gen/sequential_11/conv2d_transpose_5/Shape", "StatefulPartitionedCall/unet-gen/sequential_11/conv2d_transpose_5/strided_slice/stack", "StatefulPartitionedCall/unet-gen/sequential_11/conv2d_transpose_5/strided_slice/stack_1", "StatefulPartitionedCall/unet-gen/sequential_11/conv2d_transpose_5/strided_slice/stack_2"], "attr": {"shrink_axis_mask": {"i": "1"}, "ellipsis_mask": {"i": "0"}, "begin_mask": {"i": "0"}, "Index": {"type": "DT_INT32"}, "T": {"type": "DT_INT32"}, "end_mask": {"i": "0"}, "new_axis_mask": {"i": "0"}}}, {"name": "StatefulPartitionedCall/unet-gen/sequential_11/conv2d_transpose_5/stack", "op": "Pack", "input": ["StatefulPartitionedCall/unet-gen/sequential_11/conv2d_transpose_5/strided_slice", "StatefulPartitionedCall/unet-gen/sequential_11/conv2d_transpose_5/stack/1", "StatefulPartitionedCall/unet-gen/sequential_11/conv2d_transpose_5/stack/2", "StatefulPartitionedCall/unet-gen/sequential_11/conv2d_transpose_5/stack/3"], "attr": {"T": {"type": "DT_INT32"}, "N": {"i": "4"}, "axis": {"i": "0"}}}, {"name": "StatefulPartitionedCall/unet-gen/sequential_11/conv2d_transpose_5/conv2d_transpose", "op": "Conv2DBackpropInput", "input": ["StatefulPartitionedCall/unet-gen/sequential_11/conv2d_transpose_5/stack", "StatefulPartitionedCall/unet-gen/sequential_11/conv2d_transpose_5/conv2d_transpose/ReadVariableOp", "StatefulPartitionedCall/unet-gen/concatenate_6/concat"], "attr": {"padding": {"s": "U0FNRQ=="}, "strides": {"list": {"i": ["1", "2", "2", "1"]}}, "T": {"type": "DT_FLOAT"}, "data_format": {"s": "TkhXQw=="}, "use_cudnn_on_gpu": {"b": true}, "explicit_paddings": {"list": {}}, "dilations": {"list": {"i": ["1", "1", "1", "1"]}}}}, {"name": "StatefulPartitionedCall/unet-gen/sequential_11/instance_normalization_10/moments/mean", "op": "Mean", "input": ["StatefulPartitionedCall/unet-gen/sequential_11/conv2d_transpose_5/conv2d_transpose", "StatefulPartitionedCall/unet-gen/sequential_11/instance_normalization_10/moments/mean/reduction_indices"], "attr": {"keep_dims": {"b": true}, "Tidx": {"type": "DT_INT32"}, "T": {"type": "DT_FLOAT"}}}, {"name": "StatefulPartitionedCall/unet-gen/sequential_11/instance_normalization_10/moments/SquaredDifference", "op": "SquaredDifference", "input": ["StatefulPartitionedCall/unet-gen/sequential_11/conv2d_transpose_5/conv2d_transpose", "StatefulPartitionedCall/unet-gen/sequential_11/instance_normalization_10/moments/mean"], "attr": {"T": {"type": "DT_FLOAT"}}}, {"name": "StatefulPartitionedCall/unet-gen/sequential_11/instance_normalization_10/moments/variance", "op": "Mean", "input": ["StatefulPartitionedCall/unet-gen/sequential_11/instance_normalization_10/moments/SquaredDifference", "StatefulPartitionedCall/unet-gen/sequential_11/instance_normalization_10/moments/variance/reduction_indices"], "attr": {"keep_dims": {"b": true}, "Tidx": {"type": "DT_INT32"}, "T": {"type": "DT_FLOAT"}}}, {"name": "StatefulPartitionedCall/unet-gen/sequential_11/instance_normalization_10/batchnorm/add", "op": "AddV2", "input": ["StatefulPartitionedCall/unet-gen/sequential_11/instance_normalization_10/moments/variance", "StatefulPartitionedCall/unet-gen/sequential_11/instance_normalization_10/batchnorm/add/y"], "attr": {"T": {"type": "DT_FLOAT"}}}, {"name": "StatefulPartitionedCall/unet-gen/sequential_11/instance_normalization_10/batchnorm/Rsqrt", "op": "Rsqrt", "input": ["StatefulPartitionedCall/unet-gen/sequential_11/instance_normalization_10/batchnorm/add"], "attr": {"T": {"type": "DT_FLOAT"}}}, {"name": "StatefulPartitionedCall/unet-gen/sequential_11/instance_normalization_10/batchnorm/mul", "op": "Mul", "input": ["StatefulPartitionedCall/unet-gen/sequential_11/instance_normalization_10/batchnorm/Rsqrt", "StatefulPartitionedCall/unet-gen/sequential_11/instance_normalization_10/Reshape"], "attr": {"T": {"type": "DT_FLOAT"}}}, {"name": "StatefulPartitionedCall/unet-gen/sequential_11/instance_normalization_10/batchnorm/mul_2", "op": "Mul", "input": ["StatefulPartitionedCall/unet-gen/sequential_11/instance_normalization_10/moments/mean", "StatefulPartitionedCall/unet-gen/sequential_11/instance_normalization_10/batchnorm/mul"], "attr": {"T": {"type": "DT_FLOAT"}}}, {"name": "StatefulPartitionedCall/unet-gen/sequential_11/instance_normalization_10/batchnorm/mul_1", "op": "Mul", "input": ["StatefulPartitionedCall/unet-gen/sequential_11/conv2d_transpose_5/conv2d_transpose", "StatefulPartitionedCall/unet-gen/sequential_11/instance_normalization_10/batchnorm/mul"], "attr": {"T": {"type": "DT_FLOAT"}}}, {"name": "StatefulPartitionedCall/unet-gen/sequential_11/instance_normalization_10/batchnorm/sub", "op": "Sub", "input": ["StatefulPartitionedCall/unet-gen/sequential_11/instance_normalization_10/Reshape_1", "StatefulPartitionedCall/unet-gen/sequential_11/instance_normalization_10/batchnorm/mul_2"], "attr": {"T": {"type": "DT_FLOAT"}}}, {"name": "StatefulPartitionedCall/unet-gen/sequential_11/instance_normalization_10/batchnorm/add_1", "op": "AddV2", "input": ["StatefulPartitionedCall/unet-gen/sequential_11/instance_normalization_10/batchnorm/mul_1", "StatefulPartitionedCall/unet-gen/sequential_11/instance_normalization_10/batchnorm/sub"], "attr": {"T": {"type": "DT_FLOAT"}}}, {"name": "StatefulPartitionedCall/unet-gen/sequential_11/re_lu_5/Relu", "op": "Relu", "input": ["StatefulPartitionedCall/unet-gen/sequential_11/instance_normalization_10/batchnorm/add_1"], "attr": {"T": {"type": "DT_FLOAT"}}}, {"name": "StatefulPartitionedCall/unet-gen/concatenate_7/concat", "op": "ConcatV2", "input": ["StatefulPartitionedCall/unet-gen/sequential_11/re_lu_5/Relu", "input_2", "StatefulPartitionedCall/unet-gen/concatenate_7/concat/axis"], "attr": {"N": {"i": "2"}, "Tidx": {"type": "DT_INT32"}, "T": {"type": "DT_FLOAT"}}}, {"name": "StatefulPartitionedCall/unet-gen/conv2d_100/BiasAdd", "op": "_FusedConv2D", "input": ["StatefulPartitionedCall/unet-gen/concatenate_7/concat", "StatefulPartitionedCall/unet-gen/conv2d_100/Conv2D/ReadVariableOp", "StatefulPartitionedCall/unet-gen/conv2d_100/BiasAdd/ReadVariableOp"], "device": "/device:CPU:0", "attr": {"fused_ops": {"list": {"s": ["Qmlhc0FkZA=="]}}, "dilations": {"list": {"i": ["1", "1", "1", "1"]}}, "num_args": {"i": "1"}, "data_format": {"s": "TkhXQw=="}, "epsilon": {"f": 0.0}, "use_cudnn_on_gpu": {"b": true}, "explicit_paddings": {"list": {}}, "strides": {"list": {"i": ["1", "1", "1", "1"]}}, "leakyrelu_alpha": {"f": 0.2}, "padding": {"s": "U0FNRQ=="}, "T": {"type": "DT_FLOAT"}}}, {"name": "StatefulPartitionedCall/unet-gen/conv2d_100/Tanh", "op": "Tanh", "input": ["StatefulPartitionedCall/unet-gen/conv2d_100/BiasAdd"], "attr": {"T": {"type": "DT_FLOAT"}}}, {"name": "Identity", "op": "Identity", "input": ["StatefulPartitionedCall/unet-gen/conv2d_100/Tanh"], "attr": {"T": {"type": "DT_FLOAT"}}}], "library": {}, "versions": {"producer": 1205}}, "weightsManifest": [{"paths": ["group1-shard1of28.bin", "group1-shard2of28.bin", "group1-shard3of28.bin", "group1-shard4of28.bin", "group1-shard5of28.bin", "group1-shard6of28.bin", "group1-shard7of28.bin", "group1-shard8of28.bin", "group1-shard9of28.bin", "group1-shard10of28.bin", "group1-shard11of28.bin", "group1-shard12of28.bin", "group1-shard13of28.bin", "group1-shard14of28.bin", "group1-shard15of28.bin", "group1-shard16of28.bin", "group1-shard17of28.bin", "group1-shard18of28.bin", "group1-shard19of28.bin", "group1-shard20of28.bin", "group1-shard21of28.bin", "group1-shard22of28.bin", "group1-shard23of28.bin", "group1-shard24of28.bin", "group1-shard25of28.bin", "group1-shard26of28.bin", "group1-shard27of28.bin", "group1-shard28of28.bin"], "weights": [{"name": "StatefulPartitionedCall/unet-gen/sequential_11/instance_normalization_10/Reshape_1", "shape": [1, 1, 1, 32], "dtype": "float32"}, {"name": "StatefulPartitionedCall/unet-gen/sequential_11/conv2d_transpose_5/strided_slice/stack", "shape": [1], "dtype": "int32"}, {"name": "StatefulPartitionedCall/unet-gen/sequential_11/conv2d_transpose_5/strided_slice/stack_1", "shape": [1], "dtype": "int32"}, {"name": "StatefulPartitionedCall/unet-gen/sequential_11/conv2d_transpose_5/strided_slice/stack_2", "shape": [1], "dtype": "int32"}, {"name": "StatefulPartitionedCall/unet-gen/sequential_11/conv2d_transpose_5/stack/1", "shape": [], "dtype": "int32"}, {"name": "StatefulPartitionedCall/unet-gen/sequential_11/conv2d_transpose_5/stack/2", "shape": [], "dtype": "int32"}, {"name": "StatefulPartitionedCall/unet-gen/sequential_11/conv2d_transpose_5/stack/3", "shape": [], "dtype": "int32"}, {"name": "StatefulPartitionedCall/unet-gen/sequential_11/conv2d_transpose_5/conv2d_transpose/ReadVariableOp", "shape": [4, 4, 32, 128], "dtype": "float32"}, {"name": "StatefulPartitionedCall/unet-gen/sequential_10/instance_normalization_9/Reshape_1", "shape": [1, 1, 1, 64], "dtype": "float32"}, {"name": "StatefulPartitionedCall/unet-gen/sequential_10/conv2d_transpose_4/strided_slice/stack", "shape": [1], "dtype": "int32"}, {"name": "StatefulPartitionedCall/unet-gen/sequential_10/conv2d_transpose_4/strided_slice/stack_1", "shape": [1], "dtype": "int32"}, {"name": "StatefulPartitionedCall/unet-gen/sequential_10/conv2d_transpose_4/strided_slice/stack_2", "shape": [1], "dtype": "int32"}, {"name": "StatefulPartitionedCall/unet-gen/sequential_10/conv2d_transpose_4/stack/1", "shape": [], "dtype": "int32"}, {"name": "StatefulPartitionedCall/unet-gen/sequential_10/conv2d_transpose_4/stack/2", "shape": [], "dtype": "int32"}, {"name": "StatefulPartitionedCall/unet-gen/sequential_10/conv2d_transpose_4/stack/3", "shape": [], "dtype": "int32"}, {"name": "StatefulPartitionedCall/unet-gen/sequential_10/conv2d_transpose_4/conv2d_transpose/ReadVariableOp", "shape": [4, 4, 64, 256], "dtype": "float32"}, {"name": "StatefulPartitionedCall/unet-gen/sequential_9/instance_normalization_8/Reshape_1", "shape": [1, 1, 1, 128], "dtype": "float32"}, {"name": "StatefulPartitionedCall/unet-gen/sequential_9/conv2d_transpose_3/strided_slice/stack", "shape": [1], "dtype": "int32"}, {"name": "StatefulPartitionedCall/unet-gen/sequential_9/conv2d_transpose_3/strided_slice/stack_1", "shape": [1], "dtype": "int32"}, {"name": "StatefulPartitionedCall/unet-gen/sequential_9/conv2d_transpose_3/strided_slice/stack_2", "shape": [1], "dtype": "int32"}, {"name": "StatefulPartitionedCall/unet-gen/sequential_9/conv2d_transpose_3/stack/1", "shape": [], "dtype": "int32"}, {"name": "StatefulPartitionedCall/unet-gen/sequential_9/conv2d_transpose_3/stack/2", "shape": [], "dtype": "int32"}, {"name": "StatefulPartitionedCall/unet-gen/sequential_9/conv2d_transpose_3/stack/3", "shape": [], "dtype": "int32"}, {"name": "StatefulPartitionedCall/unet-gen/sequential_9/conv2d_transpose_3/conv2d_transpose/ReadVariableOp", "shape": [4, 4, 128, 512], "dtype": "float32"}, {"name": "StatefulPartitionedCall/unet-gen/sequential_8/instance_normalization_7/Reshape_1", "shape": [1, 1, 1, 256], "dtype": "float32"}, {"name": "StatefulPartitionedCall/unet-gen/sequential_8/conv2d_transpose_2/strided_slice/stack", "shape": [1], "dtype": "int32"}, {"name": "StatefulPartitionedCall/unet-gen/sequential_8/conv2d_transpose_2/strided_slice/stack_1", "shape": [1], "dtype": "int32"}, {"name": "StatefulPartitionedCall/unet-gen/sequential_8/conv2d_transpose_2/strided_slice/stack_2", "shape": [1], "dtype": "int32"}, {"name": "StatefulPartitionedCall/unet-gen/sequential_8/conv2d_transpose_2/stack/1", "shape": [], "dtype": "int32"}, {"name": "StatefulPartitionedCall/unet-gen/sequential_8/conv2d_transpose_2/stack/2", "shape": [], "dtype": "int32"}, {"name": "StatefulPartitionedCall/unet-gen/sequential_8/conv2d_transpose_2/stack/3", "shape": [], "dtype": "int32"}, {"name": "StatefulPartitionedCall/unet-gen/sequential_8/conv2d_transpose_2/conv2d_transpose/ReadVariableOp", "shape": [4, 4, 256, 1024], "dtype": "float32"}, {"name": "StatefulPartitionedCall/unet-gen/sequential_7/instance_normalization_6/Reshape_1", "shape": [1, 1, 1, 512], "dtype": "float32"}, {"name": "StatefulPartitionedCall/unet-gen/sequential_7/conv2d_transpose_1/strided_slice/stack", "shape": [1], "dtype": "int32"}, {"name": "StatefulPartitionedCall/unet-gen/sequential_7/conv2d_transpose_1/strided_slice/stack_1", "shape": [1], "dtype": "int32"}, {"name": "StatefulPartitionedCall/unet-gen/sequential_7/conv2d_transpose_1/strided_slice/stack_2", "shape": [1], "dtype": "int32"}, {"name": "StatefulPartitionedCall/unet-gen/sequential_7/conv2d_transpose_1/stack/1", "shape": [], "dtype": "int32"}, {"name": "StatefulPartitionedCall/unet-gen/sequential_7/conv2d_transpose_1/stack/2", "shape": [], "dtype": "int32"}, {"name": "StatefulPartitionedCall/unet-gen/sequential_7/conv2d_transpose_1/stack/3", "shape": [], "dtype": "int32"}, {"name": "StatefulPartitionedCall/unet-gen/sequential_7/conv2d_transpose_1/conv2d_transpose/ReadVariableOp", "shape": [4, 4, 512, 1024], "dtype": "float32"}, {"name": "StatefulPartitionedCall/unet-gen/sequential_6/conv2d_transpose/strided_slice/stack", "shape": [1], "dtype": "int32"}, {"name": "StatefulPartitionedCall/unet-gen/sequential_6/conv2d_transpose/strided_slice/stack_1", "shape": [1], "dtype": "int32"}, {"name": "StatefulPartitionedCall/unet-gen/sequential_6/conv2d_transpose/strided_slice/stack_2", "shape": [1], "dtype": "int32"}, {"name": "StatefulPartitionedCall/unet-gen/sequential_6/conv2d_transpose/stack/1", "shape": [], "dtype": "int32"}, {"name": "StatefulPartitionedCall/unet-gen/sequential_6/conv2d_transpose/stack/2", "shape": [], "dtype": "int32"}, {"name": "StatefulPartitionedCall/unet-gen/sequential_6/conv2d_transpose/stack/3", "shape": [], "dtype": "int32"}, {"name": "StatefulPartitionedCall/unet-gen/sequential_6/conv2d_transpose/conv2d_transpose/ReadVariableOp", "shape": [4, 4, 512, 512], "dtype": "float32"}, {"name": "StatefulPartitionedCall/unet-gen/sequential_5/conv2d_99/Conv2D/ReadVariableOp", "shape": [4, 4, 512, 512], "dtype": "float32"}, {"name": "StatefulPartitionedCall/unet-gen/sequential_5/instance_normalization_4/moments/mean/reduction_indices", "shape": [2], "dtype": "int32"}, {"name": "StatefulPartitionedCall/unet-gen/sequential_5/instance_normalization_4/moments/variance/reduction_indices", "shape": [2], "dtype": "int32"}, {"name": "StatefulPartitionedCall/unet-gen/sequential_5/instance_normalization_4/batchnorm/add/y", "shape": [], "dtype": "float32"}, {"name": "StatefulPartitionedCall/unet-gen/sequential_6/instance_normalization_5/moments/mean/reduction_indices", "shape": [2], "dtype": "int32"}, {"name": "StatefulPartitionedCall/unet-gen/sequential_6/instance_normalization_5/moments/variance/reduction_indices", "shape": [2], "dtype": "int32"}, {"name": "StatefulPartitionedCall/unet-gen/sequential_6/instance_normalization_5/batchnorm/add/y", "shape": [], "dtype": "float32"}, {"name": "StatefulPartitionedCall/unet-gen/sequential_4/instance_normalization_3/Reshape_1", "shape": [1, 1, 1, 512], "dtype": "float32"}, {"name": "StatefulPartitionedCall/unet-gen/sequential_4/conv2d_98/Conv2D/ReadVariableOp", "shape": [4, 4, 512, 512], "dtype": "float32"}, {"name": "StatefulPartitionedCall/unet-gen/sequential_4/instance_normalization_3/moments/mean/reduction_indices", "shape": [2], "dtype": "int32"}, {"name": "StatefulPartitionedCall/unet-gen/sequential_4/instance_normalization_3/moments/variance/reduction_indices", "shape": [2], "dtype": "int32"}, {"name": "StatefulPartitionedCall/unet-gen/sequential_4/instance_normalization_3/batchnorm/add/y", "shape": [], "dtype": "float32"}, {"name": "StatefulPartitionedCall/unet-gen/sequential_4/instance_normalization_3/Reshape", "shape": [1, 1, 1, 512], "dtype": "float32"}, {"name": "StatefulPartitionedCall/unet-gen/concatenate_2/concat/axis", "shape": [], "dtype": "int32"}, {"name": "StatefulPartitionedCall/unet-gen/sequential_7/instance_normalization_6/moments/mean/reduction_indices", "shape": [2], "dtype": "int32"}, {"name": "StatefulPartitionedCall/unet-gen/sequential_7/instance_normalization_6/moments/variance/reduction_indices", "shape": [2], "dtype": "int32"}, {"name": "StatefulPartitionedCall/unet-gen/sequential_7/instance_normalization_6/batchnorm/add/y", "shape": [], "dtype": "float32"}, {"name": "StatefulPartitionedCall/unet-gen/sequential_7/instance_normalization_6/Reshape", "shape": [1, 1, 1, 512], "dtype": "float32"}, {"name": "StatefulPartitionedCall/unet-gen/sequential_3/instance_normalization_2/Reshape_1", "shape": [1, 1, 1, 512], "dtype": "float32"}, {"name": "StatefulPartitionedCall/unet-gen/sequential_3/conv2d_97/Conv2D/ReadVariableOp", "shape": [4, 4, 256, 512], "dtype": "float32"}, {"name": "StatefulPartitionedCall/unet-gen/sequential_3/instance_normalization_2/moments/mean/reduction_indices", "shape": [2], "dtype": "int32"}, {"name": "StatefulPartitionedCall/unet-gen/sequential_3/instance_normalization_2/moments/variance/reduction_indices", "shape": [2], "dtype": "int32"}, {"name": "StatefulPartitionedCall/unet-gen/sequential_3/instance_normalization_2/batchnorm/add/y", "shape": [], "dtype": "float32"}, {"name": "StatefulPartitionedCall/unet-gen/sequential_3/instance_normalization_2/Reshape", "shape": [1, 1, 1, 512], "dtype": "float32"}, {"name": "StatefulPartitionedCall/unet-gen/concatenate_3/concat/axis", "shape": [], "dtype": "int32"}, {"name": "StatefulPartitionedCall/unet-gen/sequential_8/instance_normalization_7/moments/mean/reduction_indices", "shape": [2], "dtype": "int32"}, {"name": "StatefulPartitionedCall/unet-gen/sequential_8/instance_normalization_7/moments/variance/reduction_indices", "shape": [2], "dtype": "int32"}, {"name": "StatefulPartitionedCall/unet-gen/sequential_8/instance_normalization_7/batchnorm/add/y", "shape": [], "dtype": "float32"}, {"name": "StatefulPartitionedCall/unet-gen/sequential_8/instance_normalization_7/Reshape", "shape": [1, 1, 1, 256], "dtype": "float32"}, {"name": "StatefulPartitionedCall/unet-gen/sequential_2/instance_normalization_1/Reshape_1", "shape": [1, 1, 1, 256], "dtype": "float32"}, {"name": "StatefulPartitionedCall/unet-gen/sequential_2/conv2d_96/Conv2D/ReadVariableOp", "shape": [4, 4, 128, 256], "dtype": "float32"}, {"name": "StatefulPartitionedCall/unet-gen/sequential_2/instance_normalization_1/moments/mean/reduction_indices", "shape": [2], "dtype": "int32"}, {"name": "StatefulPartitionedCall/unet-gen/sequential_2/instance_normalization_1/moments/variance/reduction_indices", "shape": [2], "dtype": "int32"}, {"name": "StatefulPartitionedCall/unet-gen/sequential_2/instance_normalization_1/batchnorm/add/y", "shape": [], "dtype": "float32"}, {"name": "StatefulPartitionedCall/unet-gen/sequential_2/instance_normalization_1/Reshape", "shape": [1, 1, 1, 256], "dtype": "float32"}, {"name": "StatefulPartitionedCall/unet-gen/concatenate_4/concat/axis", "shape": [], "dtype": "int32"}, {"name": "StatefulPartitionedCall/unet-gen/sequential_9/instance_normalization_8/moments/mean/reduction_indices", "shape": [2], "dtype": "int32"}, {"name": "StatefulPartitionedCall/unet-gen/sequential_9/instance_normalization_8/moments/variance/reduction_indices", "shape": [2], "dtype": "int32"}, {"name": "StatefulPartitionedCall/unet-gen/sequential_9/instance_normalization_8/batchnorm/add/y", "shape": [], "dtype": "float32"}, {"name": "StatefulPartitionedCall/unet-gen/sequential_9/instance_normalization_8/Reshape", "shape": [1, 1, 1, 128], "dtype": "float32"}, {"name": "StatefulPartitionedCall/unet-gen/sequential_1/instance_normalization/Reshape_1", "shape": [1, 1, 1, 128], "dtype": "float32"}, {"name": "StatefulPartitionedCall/unet-gen/sequential_1/conv2d_95/Conv2D/ReadVariableOp", "shape": [4, 4, 64, 128], "dtype": "float32"}, {"name": "StatefulPartitionedCall/unet-gen/sequential_1/instance_normalization/moments/mean/reduction_indices", "shape": [2], "dtype": "int32"}, {"name": "StatefulPartitionedCall/unet-gen/sequential_1/instance_normalization/moments/variance/reduction_indices", "shape": [2], "dtype": "int32"}, {"name": "StatefulPartitionedCall/unet-gen/sequential_1/instance_normalization/batchnorm/add/y", "shape": [], "dtype": "float32"}, {"name": "StatefulPartitionedCall/unet-gen/sequential_1/instance_normalization/Reshape", "shape": [1, 1, 1, 128], "dtype": "float32"}, {"name": "StatefulPartitionedCall/unet-gen/concatenate_5/concat/axis", "shape": [], "dtype": "int32"}, {"name": "StatefulPartitionedCall/unet-gen/sequential_10/instance_normalization_9/moments/mean/reduction_indices", "shape": [2], "dtype": "int32"}, {"name": "StatefulPartitionedCall/unet-gen/sequential_10/instance_normalization_9/moments/variance/reduction_indices", "shape": [2], "dtype": "int32"}, {"name": "StatefulPartitionedCall/unet-gen/sequential_10/instance_normalization_9/batchnorm/add/y", "shape": [], "dtype": "float32"}, {"name": "StatefulPartitionedCall/unet-gen/sequential_10/instance_normalization_9/Reshape", "shape": [1, 1, 1, 64], "dtype": "float32"}, {"name": "StatefulPartitionedCall/unet-gen/sequential/conv2d_94/Conv2D/ReadVariableOp", "shape": [4, 4, 4, 64], "dtype": "float32"}, {"name": "StatefulPartitionedCall/unet-gen/concatenate_6/concat/axis", "shape": [], "dtype": "int32"}, {"name": "StatefulPartitionedCall/unet-gen/sequential_11/instance_normalization_10/moments/mean/reduction_indices", "shape": [2], "dtype": "int32"}, {"name": "StatefulPartitionedCall/unet-gen/sequential_11/instance_normalization_10/moments/variance/reduction_indices", "shape": [2], "dtype": "int32"}, {"name": "StatefulPartitionedCall/unet-gen/sequential_11/instance_normalization_10/batchnorm/add/y", "shape": [], "dtype": "float32"}, {"name": "StatefulPartitionedCall/unet-gen/sequential_11/instance_normalization_10/Reshape", "shape": [1, 1, 1, 32], "dtype": "float32"}, {"name": "StatefulPartitionedCall/unet-gen/concatenate_7/concat/axis", "shape": [], "dtype": "int32"}, {"name": "StatefulPartitionedCall/unet-gen/conv2d_100/Conv2D/ReadVariableOp", "shape": [4, 4, 36, 4], "dtype": "float32"}, {"name": "StatefulPartitionedCall/unet-gen/conv2d_100/BiasAdd/ReadVariableOp", "shape": [4], "dtype": "float32"}]}]}